// -----// IR Dump Before Inliner (inline) ('builtin.module' operation) //----- //
#loc = loc("/tmp/ipykernel_2954/3894511171.py":2:0)
"builtin.module"() ({
  "tt.func"() <{arg_attrs = [{tt.divisibility = 16 : i32}, {tt.divisibility = 16 : i32}, {tt.divisibility = 16 : i32}], function_type = (!tt.ptr<f32>, !tt.ptr<f32>, i32) -> (), sym_name = "scalar_mult_duplicate", sym_visibility = "public"}> ({
  ^bb0(%arg0: !tt.ptr<f32> loc("/tmp/ipykernel_2954/3894511171.py":2:0), %arg1: !tt.ptr<f32> loc("/tmp/ipykernel_2954/3894511171.py":2:0), %arg2: i32 loc("/tmp/ipykernel_2954/3894511171.py":2:0)):
    %0 = "tt.get_program_id"() <{axis = 0 : i32}> : () -> i32 loc(#loc1)
    %1 = "arith.constant"() <{value = 1024 : i32}> : () -> i32 loc(#loc2)
    %2 = "arith.constant"() <{value = 1024 : i32}> : () -> i32 loc(#loc2)
    %3 = "arith.extsi"(%0) : (i32) -> i64 loc(#loc2)
    %4 = "arith.extsi"(%2) : (i32) -> i64 loc(#loc2)
    %5 = "arith.muli"(%3, %4) <{overflowFlags = #arith.overflow<none>}> : (i64, i64) -> i64 loc(#loc2)
    %6 = "arith.constant"() <{value = 2147483647 : i64}> : () -> i64 loc(#loc2)
    %7 = "arith.constant"() <{value = -2147483648 : i64}> : () -> i64 loc(#loc2)
    %8 = "arith.cmpi"(%5, %6) <{predicate = 3 : i64}> : (i64, i64) -> i1 loc(#loc2)
    %9 = "arith.cmpi"(%5, %7) <{predicate = 5 : i64}> : (i64, i64) -> i1 loc(#loc2)
    %10 = "arith.andi"(%8, %9) : (i1, i1) -> i1 loc(#loc2)
    %11 = "arith.muli"(%0, %2) <{overflowFlags = #arith.overflow<none>}> : (i32, i32) -> i32 loc(#loc2)
    %12 = "tt.make_range"() <{end = 1024 : i32, start = 0 : i32}> : () -> tensor<1024xi32> loc(#loc3)
    %13 = "tt.splat"(%11) : (i32) -> tensor<1024xi32> loc(#loc4)
    %14 = "arith.extsi"(%13) : (tensor<1024xi32>) -> tensor<1024xi64> loc(#loc4)
    %15 = "arith.extsi"(%12) : (tensor<1024xi32>) -> tensor<1024xi64> loc(#loc4)
    %16 = "arith.addi"(%14, %15) <{overflowFlags = #arith.overflow<none>}> : (tensor<1024xi64>, tensor<1024xi64>) -> tensor<1024xi64> loc(#loc4)
    %17 = "arith.constant"() <{value = 2147483647 : i64}> : () -> i64 loc(#loc4)
    %18 = "arith.constant"() <{value = -2147483648 : i64}> : () -> i64 loc(#loc4)
    %19 = "arith.constant"() <{value = dense<2147483647> : tensor<1024xi64>}> : () -> tensor<1024xi64> loc(#loc4)
    %20 = "arith.cmpi"(%16, %19) <{predicate = 3 : i64}> : (tensor<1024xi64>, tensor<1024xi64>) -> tensor<1024xi1> loc(#loc4)
    %21 = "arith.constant"() <{value = dense<-2147483648> : tensor<1024xi64>}> : () -> tensor<1024xi64> loc(#loc4)
    %22 = "arith.cmpi"(%16, %21) <{predicate = 5 : i64}> : (tensor<1024xi64>, tensor<1024xi64>) -> tensor<1024xi1> loc(#loc4)
    %23 = "arith.andi"(%20, %22) : (tensor<1024xi1>, tensor<1024xi1>) -> tensor<1024xi1> loc(#loc4)
    %24 = "arith.addi"(%13, %12) <{overflowFlags = #arith.overflow<none>}> : (tensor<1024xi32>, tensor<1024xi32>) -> tensor<1024xi32> loc(#loc4)
    %25 = "tt.splat"(%arg2) : (i32) -> tensor<1024xi32> loc(#loc5)
    %26 = "arith.cmpi"(%24, %25) <{predicate = 2 : i64}> : (tensor<1024xi32>, tensor<1024xi32>) -> tensor<1024xi1> loc(#loc5)
    %27 = "tt.splat"(%arg0) : (!tt.ptr<f32>) -> tensor<1024x!tt.ptr<f32>> loc(#loc6)
    %28 = "tt.addptr"(%27, %24) : (tensor<1024x!tt.ptr<f32>>, tensor<1024xi32>) -> tensor<1024x!tt.ptr<f32>> loc(#loc6)
    %29 = "tt.load"(%28, %26) <{boundaryCheck = array<i32>, cache = 1 : i32, evict = 1 : i32, isVolatile = false, operandSegmentSizes = array<i32: 1, 1, 0>}> : (tensor<1024x!tt.ptr<f32>>, tensor<1024xi1>) -> tensor<1024xf32> loc(#loc7)
    %30 = "tt.reshape"(%29) : (tensor<1024xf32>) -> tensor<1x1024xf32> loc(#loc8)
    %31 = "tt.broadcast"(%30) : (tensor<1x1024xf32>) -> tensor<2x1024xf32> loc(#loc9)
    %32 = "arith.constant"() <{value = 4 : i32}> : () -> i32 loc(#loc10)
    %33 = "arith.constant"() <{value = 4.000000e+00 : f32}> : () -> f32 loc(#loc10)
    %34 = "arith.constant"() <{value = dense<4.000000e+00> : tensor<2x1024xf32>}> : () -> tensor<2x1024xf32> loc(#loc10)
    %35 = "arith.mulf"(%34, %31) <{fastmath = #arith.fastmath<none>}> : (tensor<2x1024xf32>, tensor<2x1024xf32>) -> tensor<2x1024xf32> loc(#loc10)
    %36 = "tt.make_range"() <{end = 1024 : i32, start = 0 : i32}> : () -> tensor<1024xi32> loc(#loc11)
    %37 = "tt.splat"(%11) : (i32) -> tensor<1024xi32> loc(#loc12)
    %38 = "arith.extsi"(%37) : (tensor<1024xi32>) -> tensor<1024xi64> loc(#loc12)
    %39 = "arith.extsi"(%36) : (tensor<1024xi32>) -> tensor<1024xi64> loc(#loc12)
    %40 = "arith.addi"(%38, %39) <{overflowFlags = #arith.overflow<none>}> : (tensor<1024xi64>, tensor<1024xi64>) -> tensor<1024xi64> loc(#loc12)
    %41 = "arith.constant"() <{value = 2147483647 : i64}> : () -> i64 loc(#loc12)
    %42 = "arith.constant"() <{value = -2147483648 : i64}> : () -> i64 loc(#loc12)
    %43 = "arith.constant"() <{value = dense<2147483647> : tensor<1024xi64>}> : () -> tensor<1024xi64> loc(#loc12)
    %44 = "arith.cmpi"(%40, %43) <{predicate = 3 : i64}> : (tensor<1024xi64>, tensor<1024xi64>) -> tensor<1024xi1> loc(#loc12)
    %45 = "arith.constant"() <{value = dense<-2147483648> : tensor<1024xi64>}> : () -> tensor<1024xi64> loc(#loc12)
    %46 = "arith.cmpi"(%40, %45) <{predicate = 5 : i64}> : (tensor<1024xi64>, tensor<1024xi64>) -> tensor<1024xi1> loc(#loc12)
    %47 = "arith.andi"(%44, %46) : (tensor<1024xi1>, tensor<1024xi1>) -> tensor<1024xi1> loc(#loc12)
    %48 = "arith.addi"(%37, %36) <{overflowFlags = #arith.overflow<none>}> : (tensor<1024xi32>, tensor<1024xi32>) -> tensor<1024xi32> loc(#loc12)
    %49 = "tt.make_range"() <{end = 1024 : i32, start = 0 : i32}> : () -> tensor<1024xi32> loc(#loc13)
    %50 = "tt.splat"(%11) : (i32) -> tensor<1024xi32> loc(#loc14)
    %51 = "arith.extsi"(%50) : (tensor<1024xi32>) -> tensor<1024xi64> loc(#loc14)
    %52 = "arith.extsi"(%49) : (tensor<1024xi32>) -> tensor<1024xi64> loc(#loc14)
    %53 = "arith.addi"(%51, %52) <{overflowFlags = #arith.overflow<none>}> : (tensor<1024xi64>, tensor<1024xi64>) -> tensor<1024xi64> loc(#loc14)
    %54 = "arith.constant"() <{value = 2147483647 : i64}> : () -> i64 loc(#loc14)
    %55 = "arith.constant"() <{value = -2147483648 : i64}> : () -> i64 loc(#loc14)
    %56 = "arith.constant"() <{value = dense<2147483647> : tensor<1024xi64>}> : () -> tensor<1024xi64> loc(#loc14)
    %57 = "arith.cmpi"(%53, %56) <{predicate = 3 : i64}> : (tensor<1024xi64>, tensor<1024xi64>) -> tensor<1024xi1> loc(#loc14)
    %58 = "arith.constant"() <{value = dense<-2147483648> : tensor<1024xi64>}> : () -> tensor<1024xi64> loc(#loc14)
    %59 = "arith.cmpi"(%53, %58) <{predicate = 5 : i64}> : (tensor<1024xi64>, tensor<1024xi64>) -> tensor<1024xi1> loc(#loc14)
    %60 = "arith.andi"(%57, %59) : (tensor<1024xi1>, tensor<1024xi1>) -> tensor<1024xi1> loc(#loc14)
    %61 = "arith.addi"(%50, %49) <{overflowFlags = #arith.overflow<none>}> : (tensor<1024xi32>, tensor<1024xi32>) -> tensor<1024xi32> loc(#loc14)
    %62 = "tt.splat"(%arg2) : (i32) -> tensor<1024xi32> loc(#loc15)
    %63 = "arith.extsi"(%61) : (tensor<1024xi32>) -> tensor<1024xi64> loc(#loc15)
    %64 = "arith.extsi"(%62) : (tensor<1024xi32>) -> tensor<1024xi64> loc(#loc15)
    %65 = "arith.addi"(%63, %64) <{overflowFlags = #arith.overflow<none>}> : (tensor<1024xi64>, tensor<1024xi64>) -> tensor<1024xi64> loc(#loc15)
    %66 = "arith.constant"() <{value = 2147483647 : i64}> : () -> i64 loc(#loc15)
    %67 = "arith.constant"() <{value = -2147483648 : i64}> : () -> i64 loc(#loc15)
    %68 = "arith.constant"() <{value = dense<2147483647> : tensor<1024xi64>}> : () -> tensor<1024xi64> loc(#loc15)
    %69 = "arith.cmpi"(%65, %68) <{predicate = 3 : i64}> : (tensor<1024xi64>, tensor<1024xi64>) -> tensor<1024xi1> loc(#loc15)
    %70 = "arith.constant"() <{value = dense<-2147483648> : tensor<1024xi64>}> : () -> tensor<1024xi64> loc(#loc15)
    %71 = "arith.cmpi"(%65, %70) <{predicate = 5 : i64}> : (tensor<1024xi64>, tensor<1024xi64>) -> tensor<1024xi1> loc(#loc15)
    %72 = "arith.andi"(%69, %71) : (tensor<1024xi1>, tensor<1024xi1>) -> tensor<1024xi1> loc(#loc15)
    %73 = "arith.addi"(%61, %62) <{overflowFlags = #arith.overflow<none>}> : (tensor<1024xi32>, tensor<1024xi32>) -> tensor<1024xi32> loc(#loc15)
    %74 = "tt.splat"(%arg2) : (i32) -> tensor<1024xi32> loc(#loc16)
    %75 = "arith.cmpi"(%48, %74) <{predicate = 2 : i64}> : (tensor<1024xi32>, tensor<1024xi32>) -> tensor<1024xi1> loc(#loc16)
    %76 = "arith.constant"() <{value = 2 : i32}> : () -> i32 loc(#loc17)
    %77 = "arith.constant"() <{value = 2 : i32}> : () -> i32 loc(#loc17)
    %78 = "arith.extsi"(%arg2) : (i32) -> i64 loc(#loc17)
    %79 = "arith.extsi"(%77) : (i32) -> i64 loc(#loc17)
    %80 = "arith.muli"(%78, %79) <{overflowFlags = #arith.overflow<none>}> : (i64, i64) -> i64 loc(#loc17)
    %81 = "arith.constant"() <{value = 2147483647 : i64}> : () -> i64 loc(#loc17)
    %82 = "arith.constant"() <{value = -2147483648 : i64}> : () -> i64 loc(#loc17)
    %83 = "arith.cmpi"(%80, %81) <{predicate = 3 : i64}> : (i64, i64) -> i1 loc(#loc17)
    %84 = "arith.cmpi"(%80, %82) <{predicate = 5 : i64}> : (i64, i64) -> i1 loc(#loc17)
    %85 = "arith.andi"(%83, %84) : (i1, i1) -> i1 loc(#loc17)
    %86 = "arith.muli"(%arg2, %77) <{overflowFlags = #arith.overflow<none>}> : (i32, i32) -> i32 loc(#loc17)
    %87 = "tt.splat"(%86) : (i32) -> tensor<1024xi32> loc(#loc18)
    %88 = "arith.cmpi"(%73, %87) <{predicate = 2 : i64}> : (tensor<1024xi32>, tensor<1024xi32>) -> tensor<1024xi1> loc(#loc18)
    %89 = "tt.join"(%48, %73) : (tensor<1024xi32>, tensor<1024xi32>) -> tensor<1024x2xi32> loc(#loc19)
    %90 = "tt.trans"(%89) <{order = array<i32: 1, 0>}> : (tensor<1024x2xi32>) -> tensor<2x1024xi32> loc(#loc20)
    %91 = "tt.join"(%75, %88) : (tensor<1024xi1>, tensor<1024xi1>) -> tensor<1024x2xi1> loc(#loc21)
    %92 = "tt.trans"(%91) <{order = array<i32: 1, 0>}> : (tensor<1024x2xi1>) -> tensor<2x1024xi1> loc(#loc22)
    %93 = "tt.splat"(%arg1) : (!tt.ptr<f32>) -> tensor<2x1024x!tt.ptr<f32>> loc(#loc23)
    %94 = "tt.addptr"(%93, %90) : (tensor<2x1024x!tt.ptr<f32>>, tensor<2x1024xi32>) -> tensor<2x1024x!tt.ptr<f32>> loc(#loc23)
    "tt.store"(%94, %35, %92) <{boundaryCheck = array<i32>, cache = 1 : i32, evict = 1 : i32}> : (tensor<2x1024x!tt.ptr<f32>>, tensor<2x1024xf32>, tensor<2x1024xi1>) -> () loc(#loc24)
    "tt.return"() : () -> () loc(#loc25)
  }) {noinline = false} : () -> () loc(#loc)
}) : () -> () loc(#loc)
#loc1 = loc("/tmp/ipykernel_2954/3894511171.py":3:24)
#loc2 = loc("/tmp/ipykernel_2954/3894511171.py":4:24)
#loc3 = loc("/tmp/ipykernel_2954/3894511171.py":5:41)
#loc4 = loc("/tmp/ipykernel_2954/3894511171.py":5:28)
#loc5 = loc("/tmp/ipykernel_2954/3894511171.py":6:21)
#loc6 = loc("/tmp/ipykernel_2954/3894511171.py":8:24)
#loc7 = loc("/tmp/ipykernel_2954/3894511171.py":8:16)
#loc8 = loc("/tmp/ipykernel_2954/3894511171.py":8:52)
#loc9 = loc("/tmp/ipykernel_2954/3894511171.py":8:85)
#loc10 = loc("/tmp/ipykernel_2954/3894511171.py":9:17)
#loc11 = loc("/tmp/ipykernel_2954/3894511171.py":11:47)
#loc12 = loc("/tmp/ipykernel_2954/3894511171.py":11:34)
#loc13 = loc("/tmp/ipykernel_2954/3894511171.py":12:48)
#loc14 = loc("/tmp/ipykernel_2954/3894511171.py":12:35)
#loc15 = loc("/tmp/ipykernel_2954/3894511171.py":12:62)
#loc16 = loc("/tmp/ipykernel_2954/3894511171.py":13:37)
#loc17 = loc("/tmp/ipykernel_2954/3894511171.py":14:53)
#loc18 = loc("/tmp/ipykernel_2954/3894511171.py":14:40)
#loc19 = loc("/tmp/ipykernel_2954/3894511171.py":16:58)
#loc20 = loc("/tmp/ipykernel_2954/3894511171.py":16:35)
#loc21 = loc("/tmp/ipykernel_2954/3894511171.py":17:56)
#loc22 = loc("/tmp/ipykernel_2954/3894511171.py":17:32)
#loc23 = loc("/tmp/ipykernel_2954/3894511171.py":19:26)
#loc24 = loc("/tmp/ipykernel_2954/3894511171.py":19:47)
#loc25 = loc("/tmp/ipykernel_2954/3894511171.py":19:4)


// -----// IR Dump Before Canonicalizer (canonicalize) ('tt.func' operation: @scalar_mult_duplicate) //----- //
#loc = loc("/tmp/ipykernel_2954/3894511171.py":2:0)
"builtin.module"() ({
  "tt.func"() <{arg_attrs = [{tt.divisibility = 16 : i32}, {tt.divisibility = 16 : i32}, {tt.divisibility = 16 : i32}], function_type = (!tt.ptr<f32>, !tt.ptr<f32>, i32) -> (), sym_name = "scalar_mult_duplicate", sym_visibility = "public"}> ({
  ^bb0(%arg0: !tt.ptr<f32> loc("/tmp/ipykernel_2954/3894511171.py":2:0), %arg1: !tt.ptr<f32> loc("/tmp/ipykernel_2954/3894511171.py":2:0), %arg2: i32 loc("/tmp/ipykernel_2954/3894511171.py":2:0)):
    %0 = "tt.get_program_id"() <{axis = 0 : i32}> : () -> i32 loc(#loc1)
    %1 = "arith.constant"() <{value = 1024 : i32}> : () -> i32 loc(#loc2)
    %2 = "arith.constant"() <{value = 1024 : i32}> : () -> i32 loc(#loc2)
    %3 = "arith.extsi"(%0) : (i32) -> i64 loc(#loc2)
    %4 = "arith.extsi"(%2) : (i32) -> i64 loc(#loc2)
    %5 = "arith.muli"(%3, %4) <{overflowFlags = #arith.overflow<none>}> : (i64, i64) -> i64 loc(#loc2)
    %6 = "arith.constant"() <{value = 2147483647 : i64}> : () -> i64 loc(#loc2)
    %7 = "arith.constant"() <{value = -2147483648 : i64}> : () -> i64 loc(#loc2)
    %8 = "arith.cmpi"(%5, %6) <{predicate = 3 : i64}> : (i64, i64) -> i1 loc(#loc2)
    %9 = "arith.cmpi"(%5, %7) <{predicate = 5 : i64}> : (i64, i64) -> i1 loc(#loc2)
    %10 = "arith.andi"(%8, %9) : (i1, i1) -> i1 loc(#loc2)
    %11 = "arith.muli"(%0, %2) <{overflowFlags = #arith.overflow<none>}> : (i32, i32) -> i32 loc(#loc2)
    %12 = "tt.make_range"() <{end = 1024 : i32, start = 0 : i32}> : () -> tensor<1024xi32> loc(#loc3)
    %13 = "tt.splat"(%11) : (i32) -> tensor<1024xi32> loc(#loc4)
    %14 = "arith.extsi"(%13) : (tensor<1024xi32>) -> tensor<1024xi64> loc(#loc4)
    %15 = "arith.extsi"(%12) : (tensor<1024xi32>) -> tensor<1024xi64> loc(#loc4)
    %16 = "arith.addi"(%14, %15) <{overflowFlags = #arith.overflow<none>}> : (tensor<1024xi64>, tensor<1024xi64>) -> tensor<1024xi64> loc(#loc4)
    %17 = "arith.constant"() <{value = 2147483647 : i64}> : () -> i64 loc(#loc4)
    %18 = "arith.constant"() <{value = -2147483648 : i64}> : () -> i64 loc(#loc4)
    %19 = "arith.constant"() <{value = dense<2147483647> : tensor<1024xi64>}> : () -> tensor<1024xi64> loc(#loc4)
    %20 = "arith.cmpi"(%16, %19) <{predicate = 3 : i64}> : (tensor<1024xi64>, tensor<1024xi64>) -> tensor<1024xi1> loc(#loc4)
    %21 = "arith.constant"() <{value = dense<-2147483648> : tensor<1024xi64>}> : () -> tensor<1024xi64> loc(#loc4)
    %22 = "arith.cmpi"(%16, %21) <{predicate = 5 : i64}> : (tensor<1024xi64>, tensor<1024xi64>) -> tensor<1024xi1> loc(#loc4)
    %23 = "arith.andi"(%20, %22) : (tensor<1024xi1>, tensor<1024xi1>) -> tensor<1024xi1> loc(#loc4)
    %24 = "arith.addi"(%13, %12) <{overflowFlags = #arith.overflow<none>}> : (tensor<1024xi32>, tensor<1024xi32>) -> tensor<1024xi32> loc(#loc4)
    %25 = "tt.splat"(%arg2) : (i32) -> tensor<1024xi32> loc(#loc5)
    %26 = "arith.cmpi"(%24, %25) <{predicate = 2 : i64}> : (tensor<1024xi32>, tensor<1024xi32>) -> tensor<1024xi1> loc(#loc5)
    %27 = "tt.splat"(%arg0) : (!tt.ptr<f32>) -> tensor<1024x!tt.ptr<f32>> loc(#loc6)
    %28 = "tt.addptr"(%27, %24) : (tensor<1024x!tt.ptr<f32>>, tensor<1024xi32>) -> tensor<1024x!tt.ptr<f32>> loc(#loc6)
    %29 = "tt.load"(%28, %26) <{boundaryCheck = array<i32>, cache = 1 : i32, evict = 1 : i32, isVolatile = false, operandSegmentSizes = array<i32: 1, 1, 0>}> : (tensor<1024x!tt.ptr<f32>>, tensor<1024xi1>) -> tensor<1024xf32> loc(#loc7)
    %30 = "tt.reshape"(%29) : (tensor<1024xf32>) -> tensor<1x1024xf32> loc(#loc8)
    %31 = "tt.broadcast"(%30) : (tensor<1x1024xf32>) -> tensor<2x1024xf32> loc(#loc9)
    %32 = "arith.constant"() <{value = 4 : i32}> : () -> i32 loc(#loc10)
    %33 = "arith.constant"() <{value = 4.000000e+00 : f32}> : () -> f32 loc(#loc10)
    %34 = "arith.constant"() <{value = dense<4.000000e+00> : tensor<2x1024xf32>}> : () -> tensor<2x1024xf32> loc(#loc10)
    %35 = "arith.mulf"(%34, %31) <{fastmath = #arith.fastmath<none>}> : (tensor<2x1024xf32>, tensor<2x1024xf32>) -> tensor<2x1024xf32> loc(#loc10)
    %36 = "tt.make_range"() <{end = 1024 : i32, start = 0 : i32}> : () -> tensor<1024xi32> loc(#loc11)
    %37 = "tt.splat"(%11) : (i32) -> tensor<1024xi32> loc(#loc12)
    %38 = "arith.extsi"(%37) : (tensor<1024xi32>) -> tensor<1024xi64> loc(#loc12)
    %39 = "arith.extsi"(%36) : (tensor<1024xi32>) -> tensor<1024xi64> loc(#loc12)
    %40 = "arith.addi"(%38, %39) <{overflowFlags = #arith.overflow<none>}> : (tensor<1024xi64>, tensor<1024xi64>) -> tensor<1024xi64> loc(#loc12)
    %41 = "arith.constant"() <{value = 2147483647 : i64}> : () -> i64 loc(#loc12)
    %42 = "arith.constant"() <{value = -2147483648 : i64}> : () -> i64 loc(#loc12)
    %43 = "arith.constant"() <{value = dense<2147483647> : tensor<1024xi64>}> : () -> tensor<1024xi64> loc(#loc12)
    %44 = "arith.cmpi"(%40, %43) <{predicate = 3 : i64}> : (tensor<1024xi64>, tensor<1024xi64>) -> tensor<1024xi1> loc(#loc12)
    %45 = "arith.constant"() <{value = dense<-2147483648> : tensor<1024xi64>}> : () -> tensor<1024xi64> loc(#loc12)
    %46 = "arith.cmpi"(%40, %45) <{predicate = 5 : i64}> : (tensor<1024xi64>, tensor<1024xi64>) -> tensor<1024xi1> loc(#loc12)
    %47 = "arith.andi"(%44, %46) : (tensor<1024xi1>, tensor<1024xi1>) -> tensor<1024xi1> loc(#loc12)
    %48 = "arith.addi"(%37, %36) <{overflowFlags = #arith.overflow<none>}> : (tensor<1024xi32>, tensor<1024xi32>) -> tensor<1024xi32> loc(#loc12)
    %49 = "tt.make_range"() <{end = 1024 : i32, start = 0 : i32}> : () -> tensor<1024xi32> loc(#loc13)
    %50 = "tt.splat"(%11) : (i32) -> tensor<1024xi32> loc(#loc14)
    %51 = "arith.extsi"(%50) : (tensor<1024xi32>) -> tensor<1024xi64> loc(#loc14)
    %52 = "arith.extsi"(%49) : (tensor<1024xi32>) -> tensor<1024xi64> loc(#loc14)
    %53 = "arith.addi"(%51, %52) <{overflowFlags = #arith.overflow<none>}> : (tensor<1024xi64>, tensor<1024xi64>) -> tensor<1024xi64> loc(#loc14)
    %54 = "arith.constant"() <{value = 2147483647 : i64}> : () -> i64 loc(#loc14)
    %55 = "arith.constant"() <{value = -2147483648 : i64}> : () -> i64 loc(#loc14)
    %56 = "arith.constant"() <{value = dense<2147483647> : tensor<1024xi64>}> : () -> tensor<1024xi64> loc(#loc14)
    %57 = "arith.cmpi"(%53, %56) <{predicate = 3 : i64}> : (tensor<1024xi64>, tensor<1024xi64>) -> tensor<1024xi1> loc(#loc14)
    %58 = "arith.constant"() <{value = dense<-2147483648> : tensor<1024xi64>}> : () -> tensor<1024xi64> loc(#loc14)
    %59 = "arith.cmpi"(%53, %58) <{predicate = 5 : i64}> : (tensor<1024xi64>, tensor<1024xi64>) -> tensor<1024xi1> loc(#loc14)
    %60 = "arith.andi"(%57, %59) : (tensor<1024xi1>, tensor<1024xi1>) -> tensor<1024xi1> loc(#loc14)
    %61 = "arith.addi"(%50, %49) <{overflowFlags = #arith.overflow<none>}> : (tensor<1024xi32>, tensor<1024xi32>) -> tensor<1024xi32> loc(#loc14)
    %62 = "tt.splat"(%arg2) : (i32) -> tensor<1024xi32> loc(#loc15)
    %63 = "arith.extsi"(%61) : (tensor<1024xi32>) -> tensor<1024xi64> loc(#loc15)
    %64 = "arith.extsi"(%62) : (tensor<1024xi32>) -> tensor<1024xi64> loc(#loc15)
    %65 = "arith.addi"(%63, %64) <{overflowFlags = #arith.overflow<none>}> : (tensor<1024xi64>, tensor<1024xi64>) -> tensor<1024xi64> loc(#loc15)
    %66 = "arith.constant"() <{value = 2147483647 : i64}> : () -> i64 loc(#loc15)
    %67 = "arith.constant"() <{value = -2147483648 : i64}> : () -> i64 loc(#loc15)
    %68 = "arith.constant"() <{value = dense<2147483647> : tensor<1024xi64>}> : () -> tensor<1024xi64> loc(#loc15)
    %69 = "arith.cmpi"(%65, %68) <{predicate = 3 : i64}> : (tensor<1024xi64>, tensor<1024xi64>) -> tensor<1024xi1> loc(#loc15)
    %70 = "arith.constant"() <{value = dense<-2147483648> : tensor<1024xi64>}> : () -> tensor<1024xi64> loc(#loc15)
    %71 = "arith.cmpi"(%65, %70) <{predicate = 5 : i64}> : (tensor<1024xi64>, tensor<1024xi64>) -> tensor<1024xi1> loc(#loc15)
    %72 = "arith.andi"(%69, %71) : (tensor<1024xi1>, tensor<1024xi1>) -> tensor<1024xi1> loc(#loc15)
    %73 = "arith.addi"(%61, %62) <{overflowFlags = #arith.overflow<none>}> : (tensor<1024xi32>, tensor<1024xi32>) -> tensor<1024xi32> loc(#loc15)
    %74 = "tt.splat"(%arg2) : (i32) -> tensor<1024xi32> loc(#loc16)
    %75 = "arith.cmpi"(%48, %74) <{predicate = 2 : i64}> : (tensor<1024xi32>, tensor<1024xi32>) -> tensor<1024xi1> loc(#loc16)
    %76 = "arith.constant"() <{value = 2 : i32}> : () -> i32 loc(#loc17)
    %77 = "arith.constant"() <{value = 2 : i32}> : () -> i32 loc(#loc17)
    %78 = "arith.extsi"(%arg2) : (i32) -> i64 loc(#loc17)
    %79 = "arith.extsi"(%77) : (i32) -> i64 loc(#loc17)
    %80 = "arith.muli"(%78, %79) <{overflowFlags = #arith.overflow<none>}> : (i64, i64) -> i64 loc(#loc17)
    %81 = "arith.constant"() <{value = 2147483647 : i64}> : () -> i64 loc(#loc17)
    %82 = "arith.constant"() <{value = -2147483648 : i64}> : () -> i64 loc(#loc17)
    %83 = "arith.cmpi"(%80, %81) <{predicate = 3 : i64}> : (i64, i64) -> i1 loc(#loc17)
    %84 = "arith.cmpi"(%80, %82) <{predicate = 5 : i64}> : (i64, i64) -> i1 loc(#loc17)
    %85 = "arith.andi"(%83, %84) : (i1, i1) -> i1 loc(#loc17)
    %86 = "arith.muli"(%arg2, %77) <{overflowFlags = #arith.overflow<none>}> : (i32, i32) -> i32 loc(#loc17)
    %87 = "tt.splat"(%86) : (i32) -> tensor<1024xi32> loc(#loc18)
    %88 = "arith.cmpi"(%73, %87) <{predicate = 2 : i64}> : (tensor<1024xi32>, tensor<1024xi32>) -> tensor<1024xi1> loc(#loc18)
    %89 = "tt.join"(%48, %73) : (tensor<1024xi32>, tensor<1024xi32>) -> tensor<1024x2xi32> loc(#loc19)
    %90 = "tt.trans"(%89) <{order = array<i32: 1, 0>}> : (tensor<1024x2xi32>) -> tensor<2x1024xi32> loc(#loc20)
    %91 = "tt.join"(%75, %88) : (tensor<1024xi1>, tensor<1024xi1>) -> tensor<1024x2xi1> loc(#loc21)
    %92 = "tt.trans"(%91) <{order = array<i32: 1, 0>}> : (tensor<1024x2xi1>) -> tensor<2x1024xi1> loc(#loc22)
    %93 = "tt.splat"(%arg1) : (!tt.ptr<f32>) -> tensor<2x1024x!tt.ptr<f32>> loc(#loc23)
    %94 = "tt.addptr"(%93, %90) : (tensor<2x1024x!tt.ptr<f32>>, tensor<2x1024xi32>) -> tensor<2x1024x!tt.ptr<f32>> loc(#loc23)
    "tt.store"(%94, %35, %92) <{boundaryCheck = array<i32>, cache = 1 : i32, evict = 1 : i32}> : (tensor<2x1024x!tt.ptr<f32>>, tensor<2x1024xf32>, tensor<2x1024xi1>) -> () loc(#loc24)
    "tt.return"() : () -> () loc(#loc25)
  }) {noinline = false} : () -> () loc(#loc)
}) : () -> () loc(#loc)
#loc1 = loc("/tmp/ipykernel_2954/3894511171.py":3:24)
#loc2 = loc("/tmp/ipykernel_2954/3894511171.py":4:24)
#loc3 = loc("/tmp/ipykernel_2954/3894511171.py":5:41)
#loc4 = loc("/tmp/ipykernel_2954/3894511171.py":5:28)
#loc5 = loc("/tmp/ipykernel_2954/3894511171.py":6:21)
#loc6 = loc("/tmp/ipykernel_2954/3894511171.py":8:24)
#loc7 = loc("/tmp/ipykernel_2954/3894511171.py":8:16)
#loc8 = loc("/tmp/ipykernel_2954/3894511171.py":8:52)
#loc9 = loc("/tmp/ipykernel_2954/3894511171.py":8:85)
#loc10 = loc("/tmp/ipykernel_2954/3894511171.py":9:17)
#loc11 = loc("/tmp/ipykernel_2954/3894511171.py":11:47)
#loc12 = loc("/tmp/ipykernel_2954/3894511171.py":11:34)
#loc13 = loc("/tmp/ipykernel_2954/3894511171.py":12:48)
#loc14 = loc("/tmp/ipykernel_2954/3894511171.py":12:35)
#loc15 = loc("/tmp/ipykernel_2954/3894511171.py":12:62)
#loc16 = loc("/tmp/ipykernel_2954/3894511171.py":13:37)
#loc17 = loc("/tmp/ipykernel_2954/3894511171.py":14:53)
#loc18 = loc("/tmp/ipykernel_2954/3894511171.py":14:40)
#loc19 = loc("/tmp/ipykernel_2954/3894511171.py":16:58)
#loc20 = loc("/tmp/ipykernel_2954/3894511171.py":16:35)
#loc21 = loc("/tmp/ipykernel_2954/3894511171.py":17:56)
#loc22 = loc("/tmp/ipykernel_2954/3894511171.py":17:32)
#loc23 = loc("/tmp/ipykernel_2954/3894511171.py":19:26)
#loc24 = loc("/tmp/ipykernel_2954/3894511171.py":19:47)
#loc25 = loc("/tmp/ipykernel_2954/3894511171.py":19:4)


// -----// IR Dump Before TritonRewriteTensorPointer (triton-rewrite-tensor-pointer) ('builtin.module' operation) //----- //
#loc = loc("/tmp/ipykernel_2954/3894511171.py":2:0)
"builtin.module"() ({
  "tt.func"() <{arg_attrs = [{tt.divisibility = 16 : i32}, {tt.divisibility = 16 : i32}, {tt.divisibility = 16 : i32}], function_type = (!tt.ptr<f32>, !tt.ptr<f32>, i32) -> (), sym_name = "scalar_mult_duplicate", sym_visibility = "public"}> ({
  ^bb0(%arg0: !tt.ptr<f32> loc("/tmp/ipykernel_2954/3894511171.py":2:0), %arg1: !tt.ptr<f32> loc("/tmp/ipykernel_2954/3894511171.py":2:0), %arg2: i32 loc("/tmp/ipykernel_2954/3894511171.py":2:0)):
    %0 = "arith.constant"() <{value = 2 : i32}> : () -> i32 loc(#loc1)
    %1 = "arith.constant"() <{value = dense<4.000000e+00> : tensor<2x1024xf32>}> : () -> tensor<2x1024xf32> loc(#loc1)
    %2 = "arith.constant"() <{value = 1024 : i32}> : () -> i32 loc(#loc1)
    %3 = "tt.get_program_id"() <{axis = 0 : i32}> : () -> i32 loc(#loc2)
    %4 = "arith.muli"(%3, %2) <{overflowFlags = #arith.overflow<none>}> : (i32, i32) -> i32 loc(#loc3)
    %5 = "tt.make_range"() <{end = 1024 : i32, start = 0 : i32}> : () -> tensor<1024xi32> loc(#loc4)
    %6 = "tt.splat"(%4) : (i32) -> tensor<1024xi32> loc(#loc5)
    %7 = "arith.addi"(%6, %5) <{overflowFlags = #arith.overflow<none>}> : (tensor<1024xi32>, tensor<1024xi32>) -> tensor<1024xi32> loc(#loc5)
    %8 = "tt.splat"(%arg2) : (i32) -> tensor<1024xi32> loc(#loc6)
    %9 = "arith.cmpi"(%7, %8) <{predicate = 2 : i64}> : (tensor<1024xi32>, tensor<1024xi32>) -> tensor<1024xi1> loc(#loc6)
    %10 = "tt.splat"(%arg0) : (!tt.ptr<f32>) -> tensor<1024x!tt.ptr<f32>> loc(#loc7)
    %11 = "tt.addptr"(%10, %7) : (tensor<1024x!tt.ptr<f32>>, tensor<1024xi32>) -> tensor<1024x!tt.ptr<f32>> loc(#loc7)
    %12 = "tt.load"(%11, %9) <{boundaryCheck = array<i32>, cache = 1 : i32, evict = 1 : i32, isVolatile = false, operandSegmentSizes = array<i32: 1, 1, 0>}> : (tensor<1024x!tt.ptr<f32>>, tensor<1024xi1>) -> tensor<1024xf32> loc(#loc8)
    %13 = "tt.reshape"(%12) : (tensor<1024xf32>) -> tensor<1x1024xf32> loc(#loc9)
    %14 = "tt.broadcast"(%13) : (tensor<1x1024xf32>) -> tensor<2x1024xf32> loc(#loc10)
    %15 = "arith.mulf"(%14, %1) <{fastmath = #arith.fastmath<none>}> : (tensor<2x1024xf32>, tensor<2x1024xf32>) -> tensor<2x1024xf32> loc(#loc11)
    %16 = "tt.make_range"() <{end = 1024 : i32, start = 0 : i32}> : () -> tensor<1024xi32> loc(#loc12)
    %17 = "tt.splat"(%4) : (i32) -> tensor<1024xi32> loc(#loc13)
    %18 = "arith.addi"(%17, %16) <{overflowFlags = #arith.overflow<none>}> : (tensor<1024xi32>, tensor<1024xi32>) -> tensor<1024xi32> loc(#loc13)
    %19 = "tt.make_range"() <{end = 1024 : i32, start = 0 : i32}> : () -> tensor<1024xi32> loc(#loc14)
    %20 = "tt.splat"(%4) : (i32) -> tensor<1024xi32> loc(#loc15)
    %21 = "arith.addi"(%20, %19) <{overflowFlags = #arith.overflow<none>}> : (tensor<1024xi32>, tensor<1024xi32>) -> tensor<1024xi32> loc(#loc15)
    %22 = "tt.splat"(%arg2) : (i32) -> tensor<1024xi32> loc(#loc16)
    %23 = "arith.addi"(%21, %22) <{overflowFlags = #arith.overflow<none>}> : (tensor<1024xi32>, tensor<1024xi32>) -> tensor<1024xi32> loc(#loc16)
    %24 = "tt.splat"(%arg2) : (i32) -> tensor<1024xi32> loc(#loc17)
    %25 = "arith.cmpi"(%18, %24) <{predicate = 2 : i64}> : (tensor<1024xi32>, tensor<1024xi32>) -> tensor<1024xi1> loc(#loc17)
    %26 = "arith.muli"(%arg2, %0) <{overflowFlags = #arith.overflow<none>}> : (i32, i32) -> i32 loc(#loc18)
    %27 = "tt.splat"(%26) : (i32) -> tensor<1024xi32> loc(#loc19)
    %28 = "arith.cmpi"(%23, %27) <{predicate = 2 : i64}> : (tensor<1024xi32>, tensor<1024xi32>) -> tensor<1024xi1> loc(#loc19)
    %29 = "tt.join"(%18, %23) : (tensor<1024xi32>, tensor<1024xi32>) -> tensor<1024x2xi32> loc(#loc20)
    %30 = "tt.trans"(%29) <{order = array<i32: 1, 0>}> : (tensor<1024x2xi32>) -> tensor<2x1024xi32> loc(#loc21)
    %31 = "tt.join"(%25, %28) : (tensor<1024xi1>, tensor<1024xi1>) -> tensor<1024x2xi1> loc(#loc22)
    %32 = "tt.trans"(%31) <{order = array<i32: 1, 0>}> : (tensor<1024x2xi1>) -> tensor<2x1024xi1> loc(#loc23)
    %33 = "tt.splat"(%arg1) : (!tt.ptr<f32>) -> tensor<2x1024x!tt.ptr<f32>> loc(#loc24)
    %34 = "tt.addptr"(%33, %30) : (tensor<2x1024x!tt.ptr<f32>>, tensor<2x1024xi32>) -> tensor<2x1024x!tt.ptr<f32>> loc(#loc24)
    "tt.store"(%34, %15, %32) <{boundaryCheck = array<i32>, cache = 1 : i32, evict = 1 : i32}> : (tensor<2x1024x!tt.ptr<f32>>, tensor<2x1024xf32>, tensor<2x1024xi1>) -> () loc(#loc25)
    "tt.return"() : () -> () loc(#loc26)
  }) {noinline = false} : () -> () loc(#loc)
}) : () -> () loc(#loc)
#loc1 = loc(unknown)
#loc2 = loc("/tmp/ipykernel_2954/3894511171.py":3:24)
#loc3 = loc("/tmp/ipykernel_2954/3894511171.py":4:24)
#loc4 = loc("/tmp/ipykernel_2954/3894511171.py":5:41)
#loc5 = loc("/tmp/ipykernel_2954/3894511171.py":5:28)
#loc6 = loc("/tmp/ipykernel_2954/3894511171.py":6:21)
#loc7 = loc("/tmp/ipykernel_2954/3894511171.py":8:24)
#loc8 = loc("/tmp/ipykernel_2954/3894511171.py":8:16)
#loc9 = loc("/tmp/ipykernel_2954/3894511171.py":8:52)
#loc10 = loc("/tmp/ipykernel_2954/3894511171.py":8:85)
#loc11 = loc("/tmp/ipykernel_2954/3894511171.py":9:17)
#loc12 = loc("/tmp/ipykernel_2954/3894511171.py":11:47)
#loc13 = loc("/tmp/ipykernel_2954/3894511171.py":11:34)
#loc14 = loc("/tmp/ipykernel_2954/3894511171.py":12:48)
#loc15 = loc("/tmp/ipykernel_2954/3894511171.py":12:35)
#loc16 = loc("/tmp/ipykernel_2954/3894511171.py":12:62)
#loc17 = loc("/tmp/ipykernel_2954/3894511171.py":13:37)
#loc18 = loc("/tmp/ipykernel_2954/3894511171.py":14:53)
#loc19 = loc("/tmp/ipykernel_2954/3894511171.py":14:40)
#loc20 = loc("/tmp/ipykernel_2954/3894511171.py":16:58)
#loc21 = loc("/tmp/ipykernel_2954/3894511171.py":16:35)
#loc22 = loc("/tmp/ipykernel_2954/3894511171.py":17:56)
#loc23 = loc("/tmp/ipykernel_2954/3894511171.py":17:32)
#loc24 = loc("/tmp/ipykernel_2954/3894511171.py":19:26)
#loc25 = loc("/tmp/ipykernel_2954/3894511171.py":19:47)
#loc26 = loc("/tmp/ipykernel_2954/3894511171.py":19:4)


// -----// IR Dump Before Canonicalizer (canonicalize) ('builtin.module' operation) //----- //
#loc = loc("/tmp/ipykernel_2954/3894511171.py":2:0)
"builtin.module"() ({
  "tt.func"() <{arg_attrs = [{tt.divisibility = 16 : i32}, {tt.divisibility = 16 : i32}, {tt.divisibility = 16 : i32}], function_type = (!tt.ptr<f32>, !tt.ptr<f32>, i32) -> (), sym_name = "scalar_mult_duplicate", sym_visibility = "public"}> ({
  ^bb0(%arg0: !tt.ptr<f32> loc("/tmp/ipykernel_2954/3894511171.py":2:0), %arg1: !tt.ptr<f32> loc("/tmp/ipykernel_2954/3894511171.py":2:0), %arg2: i32 loc("/tmp/ipykernel_2954/3894511171.py":2:0)):
    %0 = "arith.constant"() <{value = 2 : i32}> : () -> i32 loc(#loc1)
    %1 = "arith.constant"() <{value = dense<4.000000e+00> : tensor<2x1024xf32>}> : () -> tensor<2x1024xf32> loc(#loc1)
    %2 = "arith.constant"() <{value = 1024 : i32}> : () -> i32 loc(#loc1)
    %3 = "tt.get_program_id"() <{axis = 0 : i32}> : () -> i32 loc(#loc2)
    %4 = "arith.muli"(%3, %2) <{overflowFlags = #arith.overflow<none>}> : (i32, i32) -> i32 loc(#loc3)
    %5 = "tt.make_range"() <{end = 1024 : i32, start = 0 : i32}> : () -> tensor<1024xi32> loc(#loc4)
    %6 = "tt.splat"(%4) : (i32) -> tensor<1024xi32> loc(#loc5)
    %7 = "arith.addi"(%6, %5) <{overflowFlags = #arith.overflow<none>}> : (tensor<1024xi32>, tensor<1024xi32>) -> tensor<1024xi32> loc(#loc5)
    %8 = "tt.splat"(%arg2) : (i32) -> tensor<1024xi32> loc(#loc6)
    %9 = "arith.cmpi"(%7, %8) <{predicate = 2 : i64}> : (tensor<1024xi32>, tensor<1024xi32>) -> tensor<1024xi1> loc(#loc6)
    %10 = "tt.splat"(%arg0) : (!tt.ptr<f32>) -> tensor<1024x!tt.ptr<f32>> loc(#loc7)
    %11 = "tt.addptr"(%10, %7) : (tensor<1024x!tt.ptr<f32>>, tensor<1024xi32>) -> tensor<1024x!tt.ptr<f32>> loc(#loc7)
    %12 = "tt.load"(%11, %9) <{boundaryCheck = array<i32>, cache = 1 : i32, evict = 1 : i32, isVolatile = false, operandSegmentSizes = array<i32: 1, 1, 0>}> : (tensor<1024x!tt.ptr<f32>>, tensor<1024xi1>) -> tensor<1024xf32> loc(#loc8)
    %13 = "tt.reshape"(%12) : (tensor<1024xf32>) -> tensor<1x1024xf32> loc(#loc9)
    %14 = "tt.broadcast"(%13) : (tensor<1x1024xf32>) -> tensor<2x1024xf32> loc(#loc10)
    %15 = "arith.mulf"(%14, %1) <{fastmath = #arith.fastmath<none>}> : (tensor<2x1024xf32>, tensor<2x1024xf32>) -> tensor<2x1024xf32> loc(#loc11)
    %16 = "tt.make_range"() <{end = 1024 : i32, start = 0 : i32}> : () -> tensor<1024xi32> loc(#loc12)
    %17 = "tt.splat"(%4) : (i32) -> tensor<1024xi32> loc(#loc13)
    %18 = "arith.addi"(%17, %16) <{overflowFlags = #arith.overflow<none>}> : (tensor<1024xi32>, tensor<1024xi32>) -> tensor<1024xi32> loc(#loc13)
    %19 = "tt.make_range"() <{end = 1024 : i32, start = 0 : i32}> : () -> tensor<1024xi32> loc(#loc14)
    %20 = "tt.splat"(%4) : (i32) -> tensor<1024xi32> loc(#loc15)
    %21 = "arith.addi"(%20, %19) <{overflowFlags = #arith.overflow<none>}> : (tensor<1024xi32>, tensor<1024xi32>) -> tensor<1024xi32> loc(#loc15)
    %22 = "tt.splat"(%arg2) : (i32) -> tensor<1024xi32> loc(#loc16)
    %23 = "arith.addi"(%21, %22) <{overflowFlags = #arith.overflow<none>}> : (tensor<1024xi32>, tensor<1024xi32>) -> tensor<1024xi32> loc(#loc16)
    %24 = "tt.splat"(%arg2) : (i32) -> tensor<1024xi32> loc(#loc17)
    %25 = "arith.cmpi"(%18, %24) <{predicate = 2 : i64}> : (tensor<1024xi32>, tensor<1024xi32>) -> tensor<1024xi1> loc(#loc17)
    %26 = "arith.muli"(%arg2, %0) <{overflowFlags = #arith.overflow<none>}> : (i32, i32) -> i32 loc(#loc18)
    %27 = "tt.splat"(%26) : (i32) -> tensor<1024xi32> loc(#loc19)
    %28 = "arith.cmpi"(%23, %27) <{predicate = 2 : i64}> : (tensor<1024xi32>, tensor<1024xi32>) -> tensor<1024xi1> loc(#loc19)
    %29 = "tt.join"(%18, %23) : (tensor<1024xi32>, tensor<1024xi32>) -> tensor<1024x2xi32> loc(#loc20)
    %30 = "tt.trans"(%29) <{order = array<i32: 1, 0>}> : (tensor<1024x2xi32>) -> tensor<2x1024xi32> loc(#loc21)
    %31 = "tt.join"(%25, %28) : (tensor<1024xi1>, tensor<1024xi1>) -> tensor<1024x2xi1> loc(#loc22)
    %32 = "tt.trans"(%31) <{order = array<i32: 1, 0>}> : (tensor<1024x2xi1>) -> tensor<2x1024xi1> loc(#loc23)
    %33 = "tt.splat"(%arg1) : (!tt.ptr<f32>) -> tensor<2x1024x!tt.ptr<f32>> loc(#loc24)
    %34 = "tt.addptr"(%33, %30) : (tensor<2x1024x!tt.ptr<f32>>, tensor<2x1024xi32>) -> tensor<2x1024x!tt.ptr<f32>> loc(#loc24)
    "tt.store"(%34, %15, %32) <{boundaryCheck = array<i32>, cache = 1 : i32, evict = 1 : i32}> : (tensor<2x1024x!tt.ptr<f32>>, tensor<2x1024xf32>, tensor<2x1024xi1>) -> () loc(#loc25)
    "tt.return"() : () -> () loc(#loc26)
  }) {noinline = false} : () -> () loc(#loc)
}) : () -> () loc(#loc)
#loc1 = loc(unknown)
#loc2 = loc("/tmp/ipykernel_2954/3894511171.py":3:24)
#loc3 = loc("/tmp/ipykernel_2954/3894511171.py":4:24)
#loc4 = loc("/tmp/ipykernel_2954/3894511171.py":5:41)
#loc5 = loc("/tmp/ipykernel_2954/3894511171.py":5:28)
#loc6 = loc("/tmp/ipykernel_2954/3894511171.py":6:21)
#loc7 = loc("/tmp/ipykernel_2954/3894511171.py":8:24)
#loc8 = loc("/tmp/ipykernel_2954/3894511171.py":8:16)
#loc9 = loc("/tmp/ipykernel_2954/3894511171.py":8:52)
#loc10 = loc("/tmp/ipykernel_2954/3894511171.py":8:85)
#loc11 = loc("/tmp/ipykernel_2954/3894511171.py":9:17)
#loc12 = loc("/tmp/ipykernel_2954/3894511171.py":11:47)
#loc13 = loc("/tmp/ipykernel_2954/3894511171.py":11:34)
#loc14 = loc("/tmp/ipykernel_2954/3894511171.py":12:48)
#loc15 = loc("/tmp/ipykernel_2954/3894511171.py":12:35)
#loc16 = loc("/tmp/ipykernel_2954/3894511171.py":12:62)
#loc17 = loc("/tmp/ipykernel_2954/3894511171.py":13:37)
#loc18 = loc("/tmp/ipykernel_2954/3894511171.py":14:53)
#loc19 = loc("/tmp/ipykernel_2954/3894511171.py":14:40)
#loc20 = loc("/tmp/ipykernel_2954/3894511171.py":16:58)
#loc21 = loc("/tmp/ipykernel_2954/3894511171.py":16:35)
#loc22 = loc("/tmp/ipykernel_2954/3894511171.py":17:56)
#loc23 = loc("/tmp/ipykernel_2954/3894511171.py":17:32)
#loc24 = loc("/tmp/ipykernel_2954/3894511171.py":19:26)
#loc25 = loc("/tmp/ipykernel_2954/3894511171.py":19:47)
#loc26 = loc("/tmp/ipykernel_2954/3894511171.py":19:4)


// -----// IR Dump Before TritonCombineOps (triton-combine) ('builtin.module' operation) //----- //
#loc = loc("/tmp/ipykernel_2954/3894511171.py":2:0)
"builtin.module"() ({
  "tt.func"() <{arg_attrs = [{tt.divisibility = 16 : i32}, {tt.divisibility = 16 : i32}, {tt.divisibility = 16 : i32}], function_type = (!tt.ptr<f32>, !tt.ptr<f32>, i32) -> (), sym_name = "scalar_mult_duplicate", sym_visibility = "public"}> ({
  ^bb0(%arg0: !tt.ptr<f32> loc("/tmp/ipykernel_2954/3894511171.py":2:0), %arg1: !tt.ptr<f32> loc("/tmp/ipykernel_2954/3894511171.py":2:0), %arg2: i32 loc("/tmp/ipykernel_2954/3894511171.py":2:0)):
    %0 = "arith.constant"() <{value = 2 : i32}> : () -> i32 loc(#loc1)
    %1 = "arith.constant"() <{value = dense<4.000000e+00> : tensor<2x1024xf32>}> : () -> tensor<2x1024xf32> loc(#loc1)
    %2 = "arith.constant"() <{value = 1024 : i32}> : () -> i32 loc(#loc1)
    %3 = "tt.get_program_id"() <{axis = 0 : i32}> : () -> i32 loc(#loc2)
    %4 = "arith.muli"(%3, %2) <{overflowFlags = #arith.overflow<none>}> : (i32, i32) -> i32 loc(#loc3)
    %5 = "tt.make_range"() <{end = 1024 : i32, start = 0 : i32}> : () -> tensor<1024xi32> loc(#loc4)
    %6 = "tt.splat"(%4) : (i32) -> tensor<1024xi32> loc(#loc5)
    %7 = "arith.addi"(%6, %5) <{overflowFlags = #arith.overflow<none>}> : (tensor<1024xi32>, tensor<1024xi32>) -> tensor<1024xi32> loc(#loc5)
    %8 = "tt.splat"(%arg2) : (i32) -> tensor<1024xi32> loc(#loc6)
    %9 = "arith.cmpi"(%7, %8) <{predicate = 2 : i64}> : (tensor<1024xi32>, tensor<1024xi32>) -> tensor<1024xi1> loc(#loc6)
    %10 = "tt.splat"(%arg0) : (!tt.ptr<f32>) -> tensor<1024x!tt.ptr<f32>> loc(#loc7)
    %11 = "tt.addptr"(%10, %7) : (tensor<1024x!tt.ptr<f32>>, tensor<1024xi32>) -> tensor<1024x!tt.ptr<f32>> loc(#loc7)
    %12 = "tt.load"(%11, %9) <{boundaryCheck = array<i32>, cache = 1 : i32, evict = 1 : i32, isVolatile = false, operandSegmentSizes = array<i32: 1, 1, 0>}> : (tensor<1024x!tt.ptr<f32>>, tensor<1024xi1>) -> tensor<1024xf32> loc(#loc8)
    %13 = "tt.reshape"(%12) : (tensor<1024xf32>) -> tensor<1x1024xf32> loc(#loc9)
    %14 = "tt.broadcast"(%13) : (tensor<1x1024xf32>) -> tensor<2x1024xf32> loc(#loc10)
    %15 = "arith.mulf"(%14, %1) <{fastmath = #arith.fastmath<none>}> : (tensor<2x1024xf32>, tensor<2x1024xf32>) -> tensor<2x1024xf32> loc(#loc11)
    %16 = "tt.make_range"() <{end = 1024 : i32, start = 0 : i32}> : () -> tensor<1024xi32> loc(#loc12)
    %17 = "tt.splat"(%4) : (i32) -> tensor<1024xi32> loc(#loc13)
    %18 = "arith.addi"(%17, %16) <{overflowFlags = #arith.overflow<none>}> : (tensor<1024xi32>, tensor<1024xi32>) -> tensor<1024xi32> loc(#loc13)
    %19 = "tt.make_range"() <{end = 1024 : i32, start = 0 : i32}> : () -> tensor<1024xi32> loc(#loc14)
    %20 = "tt.splat"(%4) : (i32) -> tensor<1024xi32> loc(#loc15)
    %21 = "arith.addi"(%20, %19) <{overflowFlags = #arith.overflow<none>}> : (tensor<1024xi32>, tensor<1024xi32>) -> tensor<1024xi32> loc(#loc15)
    %22 = "tt.splat"(%arg2) : (i32) -> tensor<1024xi32> loc(#loc16)
    %23 = "arith.addi"(%21, %22) <{overflowFlags = #arith.overflow<none>}> : (tensor<1024xi32>, tensor<1024xi32>) -> tensor<1024xi32> loc(#loc16)
    %24 = "tt.splat"(%arg2) : (i32) -> tensor<1024xi32> loc(#loc17)
    %25 = "arith.cmpi"(%18, %24) <{predicate = 2 : i64}> : (tensor<1024xi32>, tensor<1024xi32>) -> tensor<1024xi1> loc(#loc17)
    %26 = "arith.muli"(%arg2, %0) <{overflowFlags = #arith.overflow<none>}> : (i32, i32) -> i32 loc(#loc18)
    %27 = "tt.splat"(%26) : (i32) -> tensor<1024xi32> loc(#loc19)
    %28 = "arith.cmpi"(%23, %27) <{predicate = 2 : i64}> : (tensor<1024xi32>, tensor<1024xi32>) -> tensor<1024xi1> loc(#loc19)
    %29 = "tt.join"(%18, %23) : (tensor<1024xi32>, tensor<1024xi32>) -> tensor<1024x2xi32> loc(#loc20)
    %30 = "tt.trans"(%29) <{order = array<i32: 1, 0>}> : (tensor<1024x2xi32>) -> tensor<2x1024xi32> loc(#loc21)
    %31 = "tt.join"(%25, %28) : (tensor<1024xi1>, tensor<1024xi1>) -> tensor<1024x2xi1> loc(#loc22)
    %32 = "tt.trans"(%31) <{order = array<i32: 1, 0>}> : (tensor<1024x2xi1>) -> tensor<2x1024xi1> loc(#loc23)
    %33 = "tt.splat"(%arg1) : (!tt.ptr<f32>) -> tensor<2x1024x!tt.ptr<f32>> loc(#loc24)
    %34 = "tt.addptr"(%33, %30) : (tensor<2x1024x!tt.ptr<f32>>, tensor<2x1024xi32>) -> tensor<2x1024x!tt.ptr<f32>> loc(#loc24)
    "tt.store"(%34, %15, %32) <{boundaryCheck = array<i32>, cache = 1 : i32, evict = 1 : i32}> : (tensor<2x1024x!tt.ptr<f32>>, tensor<2x1024xf32>, tensor<2x1024xi1>) -> () loc(#loc25)
    "tt.return"() : () -> () loc(#loc26)
  }) {noinline = false} : () -> () loc(#loc)
}) : () -> () loc(#loc)
#loc1 = loc(unknown)
#loc2 = loc("/tmp/ipykernel_2954/3894511171.py":3:24)
#loc3 = loc("/tmp/ipykernel_2954/3894511171.py":4:24)
#loc4 = loc("/tmp/ipykernel_2954/3894511171.py":5:41)
#loc5 = loc("/tmp/ipykernel_2954/3894511171.py":5:28)
#loc6 = loc("/tmp/ipykernel_2954/3894511171.py":6:21)
#loc7 = loc("/tmp/ipykernel_2954/3894511171.py":8:24)
#loc8 = loc("/tmp/ipykernel_2954/3894511171.py":8:16)
#loc9 = loc("/tmp/ipykernel_2954/3894511171.py":8:52)
#loc10 = loc("/tmp/ipykernel_2954/3894511171.py":8:85)
#loc11 = loc("/tmp/ipykernel_2954/3894511171.py":9:17)
#loc12 = loc("/tmp/ipykernel_2954/3894511171.py":11:47)
#loc13 = loc("/tmp/ipykernel_2954/3894511171.py":11:34)
#loc14 = loc("/tmp/ipykernel_2954/3894511171.py":12:48)
#loc15 = loc("/tmp/ipykernel_2954/3894511171.py":12:35)
#loc16 = loc("/tmp/ipykernel_2954/3894511171.py":12:62)
#loc17 = loc("/tmp/ipykernel_2954/3894511171.py":13:37)
#loc18 = loc("/tmp/ipykernel_2954/3894511171.py":14:53)
#loc19 = loc("/tmp/ipykernel_2954/3894511171.py":14:40)
#loc20 = loc("/tmp/ipykernel_2954/3894511171.py":16:58)
#loc21 = loc("/tmp/ipykernel_2954/3894511171.py":16:35)
#loc22 = loc("/tmp/ipykernel_2954/3894511171.py":17:56)
#loc23 = loc("/tmp/ipykernel_2954/3894511171.py":17:32)
#loc24 = loc("/tmp/ipykernel_2954/3894511171.py":19:26)
#loc25 = loc("/tmp/ipykernel_2954/3894511171.py":19:47)
#loc26 = loc("/tmp/ipykernel_2954/3894511171.py":19:4)


// -----// IR Dump Before CSE (cse) ('builtin.module' operation) //----- //
#loc2 = loc("tmp_xdsl.ttir":3:6)
#loc3 = loc("tmp_xdsl.ttir":3:28)
#loc4 = loc("tmp_xdsl.ttir":3:50)
"builtin.module"() ({
  "tt.func"() <{arg_attrs = [{tt.divisibility = 16 : i32}, {tt.divisibility = 16 : i32}, {tt.divisibility = 16 : i32}], function_type = (!tt.ptr<f32>, !tt.ptr<f32>, i32) -> (), sym_name = "scalar_mult_duplicate", sym_visibility = "public"}> ({
  ^bb0(%arg0: !tt.ptr<f32> loc("tmp_xdsl.ttir":3:6), %arg1: !tt.ptr<f32> loc("tmp_xdsl.ttir":3:28), %arg2: i32 loc("tmp_xdsl.ttir":3:50)):
    %0 = "arith.constant"() <{value = 2 : i32}> : () -> i32 loc(#loc5)
    %1 = "arith.constant"() <{value = dense<4.000000e+00> : tensor<1x1024xf32>}> : () -> tensor<1x1024xf32> loc(#loc6)
    %2 = "arith.constant"() <{value = 1024 : i32}> : () -> i32 loc(#loc7)
    %3 = "tt.get_program_id"() <{axis = 0 : i32}> : () -> i32 loc(#loc8)
    %4 = "arith.muli"(%3, %2) <{overflowFlags = #arith.overflow<none>}> : (i32, i32) -> i32 loc(#loc9)
    %5 = "tt.make_range"() <{end = 1024 : i32, start = 0 : i32}> : () -> tensor<1024xi32> loc(#loc10)
    %6 = "tt.splat"(%4) : (i32) -> tensor<1024xi32> loc(#loc11)
    %7 = "arith.addi"(%6, %5) <{overflowFlags = #arith.overflow<none>}> : (tensor<1024xi32>, tensor<1024xi32>) -> tensor<1024xi32> loc(#loc12)
    %8 = "tt.splat"(%arg2) : (i32) -> tensor<1024xi32> loc(#loc13)
    %9 = "arith.cmpi"(%7, %8) <{predicate = 2 : i64}> : (tensor<1024xi32>, tensor<1024xi32>) -> tensor<1024xi1> loc(#loc14)
    %10 = "tt.splat"(%arg0) : (!tt.ptr<f32>) -> tensor<1024x!tt.ptr<f32>> loc(#loc15)
    %11 = "tt.addptr"(%10, %7) : (tensor<1024x!tt.ptr<f32>>, tensor<1024xi32>) -> tensor<1024x!tt.ptr<f32>> loc(#loc16)
    %12 = "tt.load"(%11, %9) <{boundaryCheck = array<i32>, cache = 1 : i32, evict = 1 : i32, isVolatile = false, operandSegmentSizes = array<i32: 1, 1, 0>}> : (tensor<1024x!tt.ptr<f32>>, tensor<1024xi1>) -> tensor<1024xf32> loc(#loc17)
    %13 = "tt.reshape"(%12) : (tensor<1024xf32>) -> tensor<1x1024xf32> loc(#loc18)
    %14 = "arith.mulf"(%13, %1) <{fastmath = #arith.fastmath<none>}> : (tensor<1x1024xf32>, tensor<1x1024xf32>) -> tensor<1x1024xf32> loc(#loc19)
    %15 = "tt.broadcast"(%14) : (tensor<1x1024xf32>) -> tensor<2x1024xf32> loc(#loc20)
    %16 = "tt.make_range"() <{end = 1024 : i32, start = 0 : i32}> : () -> tensor<1024xi32> loc(#loc21)
    %17 = "tt.splat"(%4) : (i32) -> tensor<1024xi32> loc(#loc22)
    %18 = "arith.addi"(%17, %16) <{overflowFlags = #arith.overflow<none>}> : (tensor<1024xi32>, tensor<1024xi32>) -> tensor<1024xi32> loc(#loc23)
    %19 = "tt.make_range"() <{end = 1024 : i32, start = 0 : i32}> : () -> tensor<1024xi32> loc(#loc24)
    %20 = "tt.splat"(%4) : (i32) -> tensor<1024xi32> loc(#loc25)
    %21 = "arith.addi"(%20, %19) <{overflowFlags = #arith.overflow<none>}> : (tensor<1024xi32>, tensor<1024xi32>) -> tensor<1024xi32> loc(#loc26)
    %22 = "tt.splat"(%arg2) : (i32) -> tensor<1024xi32> loc(#loc27)
    %23 = "arith.addi"(%21, %22) <{overflowFlags = #arith.overflow<none>}> : (tensor<1024xi32>, tensor<1024xi32>) -> tensor<1024xi32> loc(#loc28)
    %24 = "tt.splat"(%arg2) : (i32) -> tensor<1024xi32> loc(#loc29)
    %25 = "arith.cmpi"(%18, %24) <{predicate = 2 : i64}> : (tensor<1024xi32>, tensor<1024xi32>) -> tensor<1024xi1> loc(#loc30)
    %26 = "arith.muli"(%arg2, %0) <{overflowFlags = #arith.overflow<none>}> : (i32, i32) -> i32 loc(#loc31)
    %27 = "tt.splat"(%26) : (i32) -> tensor<1024xi32> loc(#loc32)
    %28 = "arith.cmpi"(%23, %27) <{predicate = 2 : i64}> : (tensor<1024xi32>, tensor<1024xi32>) -> tensor<1024xi1> loc(#loc33)
    %29 = "tt.join"(%18, %23) : (tensor<1024xi32>, tensor<1024xi32>) -> tensor<1024x2xi32> loc(#loc34)
    %30 = "tt.trans"(%29) <{order = array<i32: 1, 0>}> : (tensor<1024x2xi32>) -> tensor<2x1024xi32> loc(#loc35)
    %31 = "tt.join"(%25, %28) : (tensor<1024xi1>, tensor<1024xi1>) -> tensor<1024x2xi1> loc(#loc36)
    %32 = "tt.trans"(%31) <{order = array<i32: 1, 0>}> : (tensor<1024x2xi1>) -> tensor<2x1024xi1> loc(#loc37)
    %33 = "tt.splat"(%arg1) : (!tt.ptr<f32>) -> tensor<2x1024x!tt.ptr<f32>> loc(#loc38)
    %34 = "tt.addptr"(%33, %30) : (tensor<2x1024x!tt.ptr<f32>>, tensor<2x1024xi32>) -> tensor<2x1024x!tt.ptr<f32>> loc(#loc39)
    "tt.store"(%34, %15, %32) <{boundaryCheck = array<i32>, cache = 1 : i32, evict = 1 : i32}> : (tensor<2x1024x!tt.ptr<f32>>, tensor<2x1024xf32>, tensor<2x1024xi1>) -> () loc(#loc40)
    "tt.return"() : () -> () loc(#loc41)
  }) {noinline = false} : () -> () loc(#loc1)
}) : () -> () loc(#loc)
#loc = loc("tmp_xdsl.ttir":0:0)
#loc1 = loc("tmp_xdsl.ttir":2:3)
#loc5 = loc("tmp_xdsl.ttir":4:10)
#loc6 = loc("tmp_xdsl.ttir":5:10)
#loc7 = loc("tmp_xdsl.ttir":6:10)
#loc8 = loc("tmp_xdsl.ttir":7:10)
#loc9 = loc("tmp_xdsl.ttir":8:10)
#loc10 = loc("tmp_xdsl.ttir":9:10)
#loc11 = loc("tmp_xdsl.ttir":10:10)
#loc12 = loc("tmp_xdsl.ttir":11:10)
#loc13 = loc("tmp_xdsl.ttir":12:10)
#loc14 = loc("tmp_xdsl.ttir":13:10)
#loc15 = loc("tmp_xdsl.ttir":14:11)
#loc16 = loc("tmp_xdsl.ttir":15:11)
#loc17 = loc("tmp_xdsl.ttir":16:11)
#loc18 = loc("tmp_xdsl.ttir":17:11)
#loc19 = loc("tmp_xdsl.ttir":18:11)
#loc20 = loc("tmp_xdsl.ttir":19:11)
#loc21 = loc("tmp_xdsl.ttir":20:11)
#loc22 = loc("tmp_xdsl.ttir":21:11)
#loc23 = loc("tmp_xdsl.ttir":22:11)
#loc24 = loc("tmp_xdsl.ttir":23:11)
#loc25 = loc("tmp_xdsl.ttir":24:11)
#loc26 = loc("tmp_xdsl.ttir":25:11)
#loc27 = loc("tmp_xdsl.ttir":26:11)
#loc28 = loc("tmp_xdsl.ttir":27:11)
#loc29 = loc("tmp_xdsl.ttir":28:11)
#loc30 = loc("tmp_xdsl.ttir":29:11)
#loc31 = loc("tmp_xdsl.ttir":30:11)
#loc32 = loc("tmp_xdsl.ttir":31:11)
#loc33 = loc("tmp_xdsl.ttir":32:11)
#loc34 = loc("tmp_xdsl.ttir":33:11)
#loc35 = loc("tmp_xdsl.ttir":34:11)
#loc36 = loc("tmp_xdsl.ttir":35:11)
#loc37 = loc("tmp_xdsl.ttir":36:11)
#loc38 = loc("tmp_xdsl.ttir":37:11)
#loc39 = loc("tmp_xdsl.ttir":38:11)
#loc40 = loc("tmp_xdsl.ttir":39:5)
#loc41 = loc("tmp_xdsl.ttir":40:5)


// -----// IR Dump Before LoopInvariantCodeMotion (loop-invariant-code-motion) ('builtin.module' operation) //----- //
#loc2 = loc("tmp_xdsl.ttir":3:6)
#loc3 = loc("tmp_xdsl.ttir":3:28)
#loc4 = loc("tmp_xdsl.ttir":3:50)
"builtin.module"() ({
  "tt.func"() <{arg_attrs = [{tt.divisibility = 16 : i32}, {tt.divisibility = 16 : i32}, {tt.divisibility = 16 : i32}], function_type = (!tt.ptr<f32>, !tt.ptr<f32>, i32) -> (), sym_name = "scalar_mult_duplicate", sym_visibility = "public"}> ({
  ^bb0(%arg0: !tt.ptr<f32> loc("tmp_xdsl.ttir":3:6), %arg1: !tt.ptr<f32> loc("tmp_xdsl.ttir":3:28), %arg2: i32 loc("tmp_xdsl.ttir":3:50)):
    %0 = "arith.constant"() <{value = 2 : i32}> : () -> i32 loc(#loc5)
    %1 = "arith.constant"() <{value = dense<4.000000e+00> : tensor<1x1024xf32>}> : () -> tensor<1x1024xf32> loc(#loc6)
    %2 = "arith.constant"() <{value = 1024 : i32}> : () -> i32 loc(#loc7)
    %3 = "tt.get_program_id"() <{axis = 0 : i32}> : () -> i32 loc(#loc8)
    %4 = "arith.muli"(%3, %2) <{overflowFlags = #arith.overflow<none>}> : (i32, i32) -> i32 loc(#loc9)
    %5 = "tt.make_range"() <{end = 1024 : i32, start = 0 : i32}> : () -> tensor<1024xi32> loc(#loc10)
    %6 = "tt.splat"(%4) : (i32) -> tensor<1024xi32> loc(#loc11)
    %7 = "arith.addi"(%6, %5) <{overflowFlags = #arith.overflow<none>}> : (tensor<1024xi32>, tensor<1024xi32>) -> tensor<1024xi32> loc(#loc12)
    %8 = "tt.splat"(%arg2) : (i32) -> tensor<1024xi32> loc(#loc13)
    %9 = "arith.cmpi"(%7, %8) <{predicate = 2 : i64}> : (tensor<1024xi32>, tensor<1024xi32>) -> tensor<1024xi1> loc(#loc14)
    %10 = "tt.splat"(%arg0) : (!tt.ptr<f32>) -> tensor<1024x!tt.ptr<f32>> loc(#loc15)
    %11 = "tt.addptr"(%10, %7) : (tensor<1024x!tt.ptr<f32>>, tensor<1024xi32>) -> tensor<1024x!tt.ptr<f32>> loc(#loc16)
    %12 = "tt.load"(%11, %9) <{boundaryCheck = array<i32>, cache = 1 : i32, evict = 1 : i32, isVolatile = false, operandSegmentSizes = array<i32: 1, 1, 0>}> : (tensor<1024x!tt.ptr<f32>>, tensor<1024xi1>) -> tensor<1024xf32> loc(#loc17)
    %13 = "tt.reshape"(%12) : (tensor<1024xf32>) -> tensor<1x1024xf32> loc(#loc18)
    %14 = "arith.mulf"(%13, %1) <{fastmath = #arith.fastmath<none>}> : (tensor<1x1024xf32>, tensor<1x1024xf32>) -> tensor<1x1024xf32> loc(#loc19)
    %15 = "tt.broadcast"(%14) : (tensor<1x1024xf32>) -> tensor<2x1024xf32> loc(#loc20)
    %16 = "arith.addi"(%7, %8) <{overflowFlags = #arith.overflow<none>}> : (tensor<1024xi32>, tensor<1024xi32>) -> tensor<1024xi32> loc(#loc21)
    %17 = "arith.muli"(%arg2, %0) <{overflowFlags = #arith.overflow<none>}> : (i32, i32) -> i32 loc(#loc22)
    %18 = "tt.splat"(%17) : (i32) -> tensor<1024xi32> loc(#loc23)
    %19 = "arith.cmpi"(%16, %18) <{predicate = 2 : i64}> : (tensor<1024xi32>, tensor<1024xi32>) -> tensor<1024xi1> loc(#loc24)
    %20 = "tt.join"(%7, %16) : (tensor<1024xi32>, tensor<1024xi32>) -> tensor<1024x2xi32> loc(#loc25)
    %21 = "tt.trans"(%20) <{order = array<i32: 1, 0>}> : (tensor<1024x2xi32>) -> tensor<2x1024xi32> loc(#loc26)
    %22 = "tt.join"(%9, %19) : (tensor<1024xi1>, tensor<1024xi1>) -> tensor<1024x2xi1> loc(#loc27)
    %23 = "tt.trans"(%22) <{order = array<i32: 1, 0>}> : (tensor<1024x2xi1>) -> tensor<2x1024xi1> loc(#loc28)
    %24 = "tt.splat"(%arg1) : (!tt.ptr<f32>) -> tensor<2x1024x!tt.ptr<f32>> loc(#loc29)
    %25 = "tt.addptr"(%24, %21) : (tensor<2x1024x!tt.ptr<f32>>, tensor<2x1024xi32>) -> tensor<2x1024x!tt.ptr<f32>> loc(#loc30)
    "tt.store"(%25, %15, %23) <{boundaryCheck = array<i32>, cache = 1 : i32, evict = 1 : i32}> : (tensor<2x1024x!tt.ptr<f32>>, tensor<2x1024xf32>, tensor<2x1024xi1>) -> () loc(#loc31)
    "tt.return"() : () -> () loc(#loc32)
  }) {noinline = false} : () -> () loc(#loc1)
}) : () -> () loc(#loc)
#loc = loc("tmp_xdsl.ttir":0:0)
#loc1 = loc("tmp_xdsl.ttir":2:3)
#loc5 = loc("tmp_xdsl.ttir":4:10)
#loc6 = loc("tmp_xdsl.ttir":5:10)
#loc7 = loc("tmp_xdsl.ttir":6:10)
#loc8 = loc("tmp_xdsl.ttir":7:10)
#loc9 = loc("tmp_xdsl.ttir":8:10)
#loc10 = loc("tmp_xdsl.ttir":9:10)
#loc11 = loc("tmp_xdsl.ttir":10:10)
#loc12 = loc("tmp_xdsl.ttir":11:10)
#loc13 = loc("tmp_xdsl.ttir":12:10)
#loc14 = loc("tmp_xdsl.ttir":13:10)
#loc15 = loc("tmp_xdsl.ttir":14:11)
#loc16 = loc("tmp_xdsl.ttir":15:11)
#loc17 = loc("tmp_xdsl.ttir":16:11)
#loc18 = loc("tmp_xdsl.ttir":17:11)
#loc19 = loc("tmp_xdsl.ttir":18:11)
#loc20 = loc("tmp_xdsl.ttir":19:11)
#loc21 = loc("tmp_xdsl.ttir":27:11)
#loc22 = loc("tmp_xdsl.ttir":30:11)
#loc23 = loc("tmp_xdsl.ttir":31:11)
#loc24 = loc("tmp_xdsl.ttir":32:11)
#loc25 = loc("tmp_xdsl.ttir":33:11)
#loc26 = loc("tmp_xdsl.ttir":34:11)
#loc27 = loc("tmp_xdsl.ttir":35:11)
#loc28 = loc("tmp_xdsl.ttir":36:11)
#loc29 = loc("tmp_xdsl.ttir":37:11)
#loc30 = loc("tmp_xdsl.ttir":38:11)
#loc31 = loc("tmp_xdsl.ttir":39:5)
#loc32 = loc("tmp_xdsl.ttir":40:5)


// -----// IR Dump Before SymbolDCE (symbol-dce) ('builtin.module' operation) //----- //
#loc2 = loc("tmp_xdsl.ttir":3:6)
#loc3 = loc("tmp_xdsl.ttir":3:28)
#loc4 = loc("tmp_xdsl.ttir":3:50)
"builtin.module"() ({
  "tt.func"() <{arg_attrs = [{tt.divisibility = 16 : i32}, {tt.divisibility = 16 : i32}, {tt.divisibility = 16 : i32}], function_type = (!tt.ptr<f32>, !tt.ptr<f32>, i32) -> (), sym_name = "scalar_mult_duplicate", sym_visibility = "public"}> ({
  ^bb0(%arg0: !tt.ptr<f32> loc("tmp_xdsl.ttir":3:6), %arg1: !tt.ptr<f32> loc("tmp_xdsl.ttir":3:28), %arg2: i32 loc("tmp_xdsl.ttir":3:50)):
    %0 = "arith.constant"() <{value = 2 : i32}> : () -> i32 loc(#loc5)
    %1 = "arith.constant"() <{value = dense<4.000000e+00> : tensor<1x1024xf32>}> : () -> tensor<1x1024xf32> loc(#loc6)
    %2 = "arith.constant"() <{value = 1024 : i32}> : () -> i32 loc(#loc7)
    %3 = "tt.get_program_id"() <{axis = 0 : i32}> : () -> i32 loc(#loc8)
    %4 = "arith.muli"(%3, %2) <{overflowFlags = #arith.overflow<none>}> : (i32, i32) -> i32 loc(#loc9)
    %5 = "tt.make_range"() <{end = 1024 : i32, start = 0 : i32}> : () -> tensor<1024xi32> loc(#loc10)
    %6 = "tt.splat"(%4) : (i32) -> tensor<1024xi32> loc(#loc11)
    %7 = "arith.addi"(%6, %5) <{overflowFlags = #arith.overflow<none>}> : (tensor<1024xi32>, tensor<1024xi32>) -> tensor<1024xi32> loc(#loc12)
    %8 = "tt.splat"(%arg2) : (i32) -> tensor<1024xi32> loc(#loc13)
    %9 = "arith.cmpi"(%7, %8) <{predicate = 2 : i64}> : (tensor<1024xi32>, tensor<1024xi32>) -> tensor<1024xi1> loc(#loc14)
    %10 = "tt.splat"(%arg0) : (!tt.ptr<f32>) -> tensor<1024x!tt.ptr<f32>> loc(#loc15)
    %11 = "tt.addptr"(%10, %7) : (tensor<1024x!tt.ptr<f32>>, tensor<1024xi32>) -> tensor<1024x!tt.ptr<f32>> loc(#loc16)
    %12 = "tt.load"(%11, %9) <{boundaryCheck = array<i32>, cache = 1 : i32, evict = 1 : i32, isVolatile = false, operandSegmentSizes = array<i32: 1, 1, 0>}> : (tensor<1024x!tt.ptr<f32>>, tensor<1024xi1>) -> tensor<1024xf32> loc(#loc17)
    %13 = "tt.reshape"(%12) : (tensor<1024xf32>) -> tensor<1x1024xf32> loc(#loc18)
    %14 = "arith.mulf"(%13, %1) <{fastmath = #arith.fastmath<none>}> : (tensor<1x1024xf32>, tensor<1x1024xf32>) -> tensor<1x1024xf32> loc(#loc19)
    %15 = "tt.broadcast"(%14) : (tensor<1x1024xf32>) -> tensor<2x1024xf32> loc(#loc20)
    %16 = "arith.addi"(%7, %8) <{overflowFlags = #arith.overflow<none>}> : (tensor<1024xi32>, tensor<1024xi32>) -> tensor<1024xi32> loc(#loc21)
    %17 = "arith.muli"(%arg2, %0) <{overflowFlags = #arith.overflow<none>}> : (i32, i32) -> i32 loc(#loc22)
    %18 = "tt.splat"(%17) : (i32) -> tensor<1024xi32> loc(#loc23)
    %19 = "arith.cmpi"(%16, %18) <{predicate = 2 : i64}> : (tensor<1024xi32>, tensor<1024xi32>) -> tensor<1024xi1> loc(#loc24)
    %20 = "tt.join"(%7, %16) : (tensor<1024xi32>, tensor<1024xi32>) -> tensor<1024x2xi32> loc(#loc25)
    %21 = "tt.trans"(%20) <{order = array<i32: 1, 0>}> : (tensor<1024x2xi32>) -> tensor<2x1024xi32> loc(#loc26)
    %22 = "tt.join"(%9, %19) : (tensor<1024xi1>, tensor<1024xi1>) -> tensor<1024x2xi1> loc(#loc27)
    %23 = "tt.trans"(%22) <{order = array<i32: 1, 0>}> : (tensor<1024x2xi1>) -> tensor<2x1024xi1> loc(#loc28)
    %24 = "tt.splat"(%arg1) : (!tt.ptr<f32>) -> tensor<2x1024x!tt.ptr<f32>> loc(#loc29)
    %25 = "tt.addptr"(%24, %21) : (tensor<2x1024x!tt.ptr<f32>>, tensor<2x1024xi32>) -> tensor<2x1024x!tt.ptr<f32>> loc(#loc30)
    "tt.store"(%25, %15, %23) <{boundaryCheck = array<i32>, cache = 1 : i32, evict = 1 : i32}> : (tensor<2x1024x!tt.ptr<f32>>, tensor<2x1024xf32>, tensor<2x1024xi1>) -> () loc(#loc31)
    "tt.return"() : () -> () loc(#loc32)
  }) {noinline = false} : () -> () loc(#loc1)
}) : () -> () loc(#loc)
#loc = loc("tmp_xdsl.ttir":0:0)
#loc1 = loc("tmp_xdsl.ttir":2:3)
#loc5 = loc("tmp_xdsl.ttir":4:10)
#loc6 = loc("tmp_xdsl.ttir":5:10)
#loc7 = loc("tmp_xdsl.ttir":6:10)
#loc8 = loc("tmp_xdsl.ttir":7:10)
#loc9 = loc("tmp_xdsl.ttir":8:10)
#loc10 = loc("tmp_xdsl.ttir":9:10)
#loc11 = loc("tmp_xdsl.ttir":10:10)
#loc12 = loc("tmp_xdsl.ttir":11:10)
#loc13 = loc("tmp_xdsl.ttir":12:10)
#loc14 = loc("tmp_xdsl.ttir":13:10)
#loc15 = loc("tmp_xdsl.ttir":14:11)
#loc16 = loc("tmp_xdsl.ttir":15:11)
#loc17 = loc("tmp_xdsl.ttir":16:11)
#loc18 = loc("tmp_xdsl.ttir":17:11)
#loc19 = loc("tmp_xdsl.ttir":18:11)
#loc20 = loc("tmp_xdsl.ttir":19:11)
#loc21 = loc("tmp_xdsl.ttir":27:11)
#loc22 = loc("tmp_xdsl.ttir":30:11)
#loc23 = loc("tmp_xdsl.ttir":31:11)
#loc24 = loc("tmp_xdsl.ttir":32:11)
#loc25 = loc("tmp_xdsl.ttir":33:11)
#loc26 = loc("tmp_xdsl.ttir":34:11)
#loc27 = loc("tmp_xdsl.ttir":35:11)
#loc28 = loc("tmp_xdsl.ttir":36:11)
#loc29 = loc("tmp_xdsl.ttir":37:11)
#loc30 = loc("tmp_xdsl.ttir":38:11)
#loc31 = loc("tmp_xdsl.ttir":39:5)
#loc32 = loc("tmp_xdsl.ttir":40:5)


// -----// IR Dump Before TritonLoopUnroll (triton-loop-unroll) ('builtin.module' operation) //----- //
#loc2 = loc("tmp_xdsl.ttir":3:6)
#loc3 = loc("tmp_xdsl.ttir":3:28)
#loc4 = loc("tmp_xdsl.ttir":3:50)
"builtin.module"() ({
  "tt.func"() <{arg_attrs = [{tt.divisibility = 16 : i32}, {tt.divisibility = 16 : i32}, {tt.divisibility = 16 : i32}], function_type = (!tt.ptr<f32>, !tt.ptr<f32>, i32) -> (), sym_name = "scalar_mult_duplicate", sym_visibility = "public"}> ({
  ^bb0(%arg0: !tt.ptr<f32> loc("tmp_xdsl.ttir":3:6), %arg1: !tt.ptr<f32> loc("tmp_xdsl.ttir":3:28), %arg2: i32 loc("tmp_xdsl.ttir":3:50)):
    %0 = "arith.constant"() <{value = 2 : i32}> : () -> i32 loc(#loc5)
    %1 = "arith.constant"() <{value = dense<4.000000e+00> : tensor<1x1024xf32>}> : () -> tensor<1x1024xf32> loc(#loc6)
    %2 = "arith.constant"() <{value = 1024 : i32}> : () -> i32 loc(#loc7)
    %3 = "tt.get_program_id"() <{axis = 0 : i32}> : () -> i32 loc(#loc8)
    %4 = "arith.muli"(%3, %2) <{overflowFlags = #arith.overflow<none>}> : (i32, i32) -> i32 loc(#loc9)
    %5 = "tt.make_range"() <{end = 1024 : i32, start = 0 : i32}> : () -> tensor<1024xi32> loc(#loc10)
    %6 = "tt.splat"(%4) : (i32) -> tensor<1024xi32> loc(#loc11)
    %7 = "arith.addi"(%6, %5) <{overflowFlags = #arith.overflow<none>}> : (tensor<1024xi32>, tensor<1024xi32>) -> tensor<1024xi32> loc(#loc12)
    %8 = "tt.splat"(%arg2) : (i32) -> tensor<1024xi32> loc(#loc13)
    %9 = "arith.cmpi"(%7, %8) <{predicate = 2 : i64}> : (tensor<1024xi32>, tensor<1024xi32>) -> tensor<1024xi1> loc(#loc14)
    %10 = "tt.splat"(%arg0) : (!tt.ptr<f32>) -> tensor<1024x!tt.ptr<f32>> loc(#loc15)
    %11 = "tt.addptr"(%10, %7) : (tensor<1024x!tt.ptr<f32>>, tensor<1024xi32>) -> tensor<1024x!tt.ptr<f32>> loc(#loc16)
    %12 = "tt.load"(%11, %9) <{boundaryCheck = array<i32>, cache = 1 : i32, evict = 1 : i32, isVolatile = false, operandSegmentSizes = array<i32: 1, 1, 0>}> : (tensor<1024x!tt.ptr<f32>>, tensor<1024xi1>) -> tensor<1024xf32> loc(#loc17)
    %13 = "tt.reshape"(%12) : (tensor<1024xf32>) -> tensor<1x1024xf32> loc(#loc18)
    %14 = "arith.mulf"(%13, %1) <{fastmath = #arith.fastmath<none>}> : (tensor<1x1024xf32>, tensor<1x1024xf32>) -> tensor<1x1024xf32> loc(#loc19)
    %15 = "tt.broadcast"(%14) : (tensor<1x1024xf32>) -> tensor<2x1024xf32> loc(#loc20)
    %16 = "arith.addi"(%7, %8) <{overflowFlags = #arith.overflow<none>}> : (tensor<1024xi32>, tensor<1024xi32>) -> tensor<1024xi32> loc(#loc21)
    %17 = "arith.muli"(%arg2, %0) <{overflowFlags = #arith.overflow<none>}> : (i32, i32) -> i32 loc(#loc22)
    %18 = "tt.splat"(%17) : (i32) -> tensor<1024xi32> loc(#loc23)
    %19 = "arith.cmpi"(%16, %18) <{predicate = 2 : i64}> : (tensor<1024xi32>, tensor<1024xi32>) -> tensor<1024xi1> loc(#loc24)
    %20 = "tt.join"(%7, %16) : (tensor<1024xi32>, tensor<1024xi32>) -> tensor<1024x2xi32> loc(#loc25)
    %21 = "tt.trans"(%20) <{order = array<i32: 1, 0>}> : (tensor<1024x2xi32>) -> tensor<2x1024xi32> loc(#loc26)
    %22 = "tt.join"(%9, %19) : (tensor<1024xi1>, tensor<1024xi1>) -> tensor<1024x2xi1> loc(#loc27)
    %23 = "tt.trans"(%22) <{order = array<i32: 1, 0>}> : (tensor<1024x2xi1>) -> tensor<2x1024xi1> loc(#loc28)
    %24 = "tt.splat"(%arg1) : (!tt.ptr<f32>) -> tensor<2x1024x!tt.ptr<f32>> loc(#loc29)
    %25 = "tt.addptr"(%24, %21) : (tensor<2x1024x!tt.ptr<f32>>, tensor<2x1024xi32>) -> tensor<2x1024x!tt.ptr<f32>> loc(#loc30)
    "tt.store"(%25, %15, %23) <{boundaryCheck = array<i32>, cache = 1 : i32, evict = 1 : i32}> : (tensor<2x1024x!tt.ptr<f32>>, tensor<2x1024xf32>, tensor<2x1024xi1>) -> () loc(#loc31)
    "tt.return"() : () -> () loc(#loc32)
  }) {noinline = false} : () -> () loc(#loc1)
}) : () -> () loc(#loc)
#loc = loc("tmp_xdsl.ttir":0:0)
#loc1 = loc("tmp_xdsl.ttir":2:3)
#loc5 = loc("tmp_xdsl.ttir":4:10)
#loc6 = loc("tmp_xdsl.ttir":5:10)
#loc7 = loc("tmp_xdsl.ttir":6:10)
#loc8 = loc("tmp_xdsl.ttir":7:10)
#loc9 = loc("tmp_xdsl.ttir":8:10)
#loc10 = loc("tmp_xdsl.ttir":9:10)
#loc11 = loc("tmp_xdsl.ttir":10:10)
#loc12 = loc("tmp_xdsl.ttir":11:10)
#loc13 = loc("tmp_xdsl.ttir":12:10)
#loc14 = loc("tmp_xdsl.ttir":13:10)
#loc15 = loc("tmp_xdsl.ttir":14:11)
#loc16 = loc("tmp_xdsl.ttir":15:11)
#loc17 = loc("tmp_xdsl.ttir":16:11)
#loc18 = loc("tmp_xdsl.ttir":17:11)
#loc19 = loc("tmp_xdsl.ttir":18:11)
#loc20 = loc("tmp_xdsl.ttir":19:11)
#loc21 = loc("tmp_xdsl.ttir":27:11)
#loc22 = loc("tmp_xdsl.ttir":30:11)
#loc23 = loc("tmp_xdsl.ttir":31:11)
#loc24 = loc("tmp_xdsl.ttir":32:11)
#loc25 = loc("tmp_xdsl.ttir":33:11)
#loc26 = loc("tmp_xdsl.ttir":34:11)
#loc27 = loc("tmp_xdsl.ttir":35:11)
#loc28 = loc("tmp_xdsl.ttir":36:11)
#loc29 = loc("tmp_xdsl.ttir":37:11)
#loc30 = loc("tmp_xdsl.ttir":38:11)
#loc31 = loc("tmp_xdsl.ttir":39:5)
#loc32 = loc("tmp_xdsl.ttir":40:5)


// -----// IR Dump Before ConvertTritonToTritonGPU (convert-triton-to-tritongpu) ('builtin.module' operation) //----- //
#loc2 = loc("tmp_xdsl.ttir":3:6)
#loc3 = loc("tmp_xdsl.ttir":3:28)
#loc4 = loc("tmp_xdsl.ttir":3:50)
"builtin.module"() ({
  "tt.func"() <{arg_attrs = [{tt.divisibility = 16 : i32}, {tt.divisibility = 16 : i32}, {tt.divisibility = 16 : i32}], function_type = (!tt.ptr<f32>, !tt.ptr<f32>, i32) -> (), sym_name = "scalar_mult_duplicate", sym_visibility = "public"}> ({
  ^bb0(%arg0: !tt.ptr<f32> loc("tmp_xdsl.ttir":3:6), %arg1: !tt.ptr<f32> loc("tmp_xdsl.ttir":3:28), %arg2: i32 loc("tmp_xdsl.ttir":3:50)):
    %0 = "arith.constant"() <{value = 2 : i32}> : () -> i32 loc(#loc5)
    %1 = "arith.constant"() <{value = dense<4.000000e+00> : tensor<1x1024xf32>}> : () -> tensor<1x1024xf32> loc(#loc6)
    %2 = "arith.constant"() <{value = 1024 : i32}> : () -> i32 loc(#loc7)
    %3 = "tt.get_program_id"() <{axis = 0 : i32}> : () -> i32 loc(#loc8)
    %4 = "arith.muli"(%3, %2) <{overflowFlags = #arith.overflow<none>}> : (i32, i32) -> i32 loc(#loc9)
    %5 = "tt.make_range"() <{end = 1024 : i32, start = 0 : i32}> : () -> tensor<1024xi32> loc(#loc10)
    %6 = "tt.splat"(%4) : (i32) -> tensor<1024xi32> loc(#loc11)
    %7 = "arith.addi"(%6, %5) <{overflowFlags = #arith.overflow<none>}> : (tensor<1024xi32>, tensor<1024xi32>) -> tensor<1024xi32> loc(#loc12)
    %8 = "tt.splat"(%arg2) : (i32) -> tensor<1024xi32> loc(#loc13)
    %9 = "arith.cmpi"(%7, %8) <{predicate = 2 : i64}> : (tensor<1024xi32>, tensor<1024xi32>) -> tensor<1024xi1> loc(#loc14)
    %10 = "tt.splat"(%arg0) : (!tt.ptr<f32>) -> tensor<1024x!tt.ptr<f32>> loc(#loc15)
    %11 = "tt.addptr"(%10, %7) : (tensor<1024x!tt.ptr<f32>>, tensor<1024xi32>) -> tensor<1024x!tt.ptr<f32>> loc(#loc16)
    %12 = "tt.load"(%11, %9) <{boundaryCheck = array<i32>, cache = 1 : i32, evict = 1 : i32, isVolatile = false, operandSegmentSizes = array<i32: 1, 1, 0>}> : (tensor<1024x!tt.ptr<f32>>, tensor<1024xi1>) -> tensor<1024xf32> loc(#loc17)
    %13 = "tt.reshape"(%12) : (tensor<1024xf32>) -> tensor<1x1024xf32> loc(#loc18)
    %14 = "arith.mulf"(%13, %1) <{fastmath = #arith.fastmath<none>}> : (tensor<1x1024xf32>, tensor<1x1024xf32>) -> tensor<1x1024xf32> loc(#loc19)
    %15 = "tt.broadcast"(%14) : (tensor<1x1024xf32>) -> tensor<2x1024xf32> loc(#loc20)
    %16 = "arith.addi"(%7, %8) <{overflowFlags = #arith.overflow<none>}> : (tensor<1024xi32>, tensor<1024xi32>) -> tensor<1024xi32> loc(#loc21)
    %17 = "arith.muli"(%arg2, %0) <{overflowFlags = #arith.overflow<none>}> : (i32, i32) -> i32 loc(#loc22)
    %18 = "tt.splat"(%17) : (i32) -> tensor<1024xi32> loc(#loc23)
    %19 = "arith.cmpi"(%16, %18) <{predicate = 2 : i64}> : (tensor<1024xi32>, tensor<1024xi32>) -> tensor<1024xi1> loc(#loc24)
    %20 = "tt.join"(%7, %16) : (tensor<1024xi32>, tensor<1024xi32>) -> tensor<1024x2xi32> loc(#loc25)
    %21 = "tt.trans"(%20) <{order = array<i32: 1, 0>}> : (tensor<1024x2xi32>) -> tensor<2x1024xi32> loc(#loc26)
    %22 = "tt.join"(%9, %19) : (tensor<1024xi1>, tensor<1024xi1>) -> tensor<1024x2xi1> loc(#loc27)
    %23 = "tt.trans"(%22) <{order = array<i32: 1, 0>}> : (tensor<1024x2xi1>) -> tensor<2x1024xi1> loc(#loc28)
    %24 = "tt.splat"(%arg1) : (!tt.ptr<f32>) -> tensor<2x1024x!tt.ptr<f32>> loc(#loc29)
    %25 = "tt.addptr"(%24, %21) : (tensor<2x1024x!tt.ptr<f32>>, tensor<2x1024xi32>) -> tensor<2x1024x!tt.ptr<f32>> loc(#loc30)
    "tt.store"(%25, %15, %23) <{boundaryCheck = array<i32>, cache = 1 : i32, evict = 1 : i32}> : (tensor<2x1024x!tt.ptr<f32>>, tensor<2x1024xf32>, tensor<2x1024xi1>) -> () loc(#loc31)
    "tt.return"() : () -> () loc(#loc32)
  }) {noinline = false} : () -> () loc(#loc1)
}) : () -> () loc(#loc)
#loc = loc("tmp_xdsl.ttir":0:0)
#loc1 = loc("tmp_xdsl.ttir":2:3)
#loc5 = loc("tmp_xdsl.ttir":4:10)
#loc6 = loc("tmp_xdsl.ttir":5:10)
#loc7 = loc("tmp_xdsl.ttir":6:10)
#loc8 = loc("tmp_xdsl.ttir":7:10)
#loc9 = loc("tmp_xdsl.ttir":8:10)
#loc10 = loc("tmp_xdsl.ttir":9:10)
#loc11 = loc("tmp_xdsl.ttir":10:10)
#loc12 = loc("tmp_xdsl.ttir":11:10)
#loc13 = loc("tmp_xdsl.ttir":12:10)
#loc14 = loc("tmp_xdsl.ttir":13:10)
#loc15 = loc("tmp_xdsl.ttir":14:11)
#loc16 = loc("tmp_xdsl.ttir":15:11)
#loc17 = loc("tmp_xdsl.ttir":16:11)
#loc18 = loc("tmp_xdsl.ttir":17:11)
#loc19 = loc("tmp_xdsl.ttir":18:11)
#loc20 = loc("tmp_xdsl.ttir":19:11)
#loc21 = loc("tmp_xdsl.ttir":27:11)
#loc22 = loc("tmp_xdsl.ttir":30:11)
#loc23 = loc("tmp_xdsl.ttir":31:11)
#loc24 = loc("tmp_xdsl.ttir":32:11)
#loc25 = loc("tmp_xdsl.ttir":33:11)
#loc26 = loc("tmp_xdsl.ttir":34:11)
#loc27 = loc("tmp_xdsl.ttir":35:11)
#loc28 = loc("tmp_xdsl.ttir":36:11)
#loc29 = loc("tmp_xdsl.ttir":37:11)
#loc30 = loc("tmp_xdsl.ttir":38:11)
#loc31 = loc("tmp_xdsl.ttir":39:5)
#loc32 = loc("tmp_xdsl.ttir":40:5)


// -----// IR Dump Before TritonGPUCoalesce (tritongpu-coalesce) ('builtin.module' operation) //----- //
#blocked = #ttg.blocked<{sizePerThread = [1, 1], threadsPerWarp = [1, 32], warpsPerCTA = [1, 4], order = [1, 0]}>
#blocked1 = #ttg.blocked<{sizePerThread = [1], threadsPerWarp = [32], warpsPerCTA = [4], order = [0]}>
#blocked2 = #ttg.blocked<{sizePerThread = [1, 2], threadsPerWarp = [32, 1], warpsPerCTA = [4, 1], order = [1, 0]}>
#blocked3 = #ttg.blocked<{sizePerThread = [1, 1], threadsPerWarp = [16, 2], warpsPerCTA = [4, 1], order = [1, 0]}>
#blocked4 = #ttg.blocked<{sizePerThread = [1, 1], threadsPerWarp = [2, 16], warpsPerCTA = [1, 4], order = [0, 1]}>
#loc2 = loc("tmp_xdsl.ttir":3:6)
#loc3 = loc("tmp_xdsl.ttir":3:28)
#loc4 = loc("tmp_xdsl.ttir":3:50)
"builtin.module"() ({
  "tt.func"() <{arg_attrs = [{tt.divisibility = 16 : i32}, {tt.divisibility = 16 : i32}, {tt.divisibility = 16 : i32}], function_type = (!tt.ptr<f32>, !tt.ptr<f32>, i32) -> (), sym_name = "scalar_mult_duplicate", sym_visibility = "public"}> ({
  ^bb0(%arg0: !tt.ptr<f32> loc("tmp_xdsl.ttir":3:6), %arg1: !tt.ptr<f32> loc("tmp_xdsl.ttir":3:28), %arg2: i32 loc("tmp_xdsl.ttir":3:50)):
    %0 = "arith.constant"() <{value = 2 : i32}> : () -> i32 loc(#loc5)
    %1 = "arith.constant"() <{value = dense<4.000000e+00> : tensor<1x1024xf32, #blocked>}> : () -> tensor<1x1024xf32, #blocked> loc(#loc6)
    %2 = "arith.constant"() <{value = 1024 : i32}> : () -> i32 loc(#loc7)
    %3 = "tt.get_program_id"() <{axis = 0 : i32}> : () -> i32 loc(#loc8)
    %4 = "arith.muli"(%3, %2) <{overflowFlags = #arith.overflow<none>}> : (i32, i32) -> i32 loc(#loc9)
    %5 = "tt.make_range"() <{end = 1024 : i32, start = 0 : i32}> : () -> tensor<1024xi32, #blocked1> loc(#loc10)
    %6 = "tt.splat"(%4) : (i32) -> tensor<1024xi32, #blocked1> loc(#loc11)
    %7 = "arith.addi"(%6, %5) <{overflowFlags = #arith.overflow<none>}> : (tensor<1024xi32, #blocked1>, tensor<1024xi32, #blocked1>) -> tensor<1024xi32, #blocked1> loc(#loc12)
    %8 = "tt.splat"(%arg2) : (i32) -> tensor<1024xi32, #blocked1> loc(#loc13)
    %9 = "arith.cmpi"(%7, %8) <{predicate = 2 : i64}> : (tensor<1024xi32, #blocked1>, tensor<1024xi32, #blocked1>) -> tensor<1024xi1, #blocked1> loc(#loc14)
    %10 = "tt.splat"(%arg0) : (!tt.ptr<f32>) -> tensor<1024x!tt.ptr<f32>, #blocked1> loc(#loc15)
    %11 = "tt.addptr"(%10, %7) : (tensor<1024x!tt.ptr<f32>, #blocked1>, tensor<1024xi32, #blocked1>) -> tensor<1024x!tt.ptr<f32>, #blocked1> loc(#loc16)
    %12 = "tt.load"(%11, %9) <{boundaryCheck = array<i32>, cache = 1 : i32, evict = 1 : i32, isVolatile = false, operandSegmentSizes = array<i32: 1, 1, 0>}> : (tensor<1024x!tt.ptr<f32>, #blocked1>, tensor<1024xi1, #blocked1>) -> tensor<1024xf32, #blocked1> loc(#loc17)
    %13 = "tt.reshape"(%12) : (tensor<1024xf32, #blocked1>) -> tensor<1x1024xf32, #blocked> loc(#loc18)
    %14 = "arith.mulf"(%13, %1) <{fastmath = #arith.fastmath<none>}> : (tensor<1x1024xf32, #blocked>, tensor<1x1024xf32, #blocked>) -> tensor<1x1024xf32, #blocked> loc(#loc19)
    %15 = "tt.broadcast"(%14) : (tensor<1x1024xf32, #blocked>) -> tensor<2x1024xf32, #blocked> loc(#loc20)
    %16 = "arith.addi"(%7, %8) <{overflowFlags = #arith.overflow<none>}> : (tensor<1024xi32, #blocked1>, tensor<1024xi32, #blocked1>) -> tensor<1024xi32, #blocked1> loc(#loc21)
    %17 = "arith.muli"(%arg2, %0) <{overflowFlags = #arith.overflow<none>}> : (i32, i32) -> i32 loc(#loc22)
    %18 = "tt.splat"(%17) : (i32) -> tensor<1024xi32, #blocked1> loc(#loc23)
    %19 = "arith.cmpi"(%16, %18) <{predicate = 2 : i64}> : (tensor<1024xi32, #blocked1>, tensor<1024xi32, #blocked1>) -> tensor<1024xi1, #blocked1> loc(#loc24)
    %20 = "tt.join"(%7, %16) : (tensor<1024xi32, #blocked1>, tensor<1024xi32, #blocked1>) -> tensor<1024x2xi32, #blocked2> loc(#loc25)
    %21 = "ttg.convert_layout"(%20) : (tensor<1024x2xi32, #blocked2>) -> tensor<1024x2xi32, #blocked3> loc(#loc26)
    %22 = "tt.trans"(%21) <{order = array<i32: 1, 0>}> : (tensor<1024x2xi32, #blocked3>) -> tensor<2x1024xi32, #blocked4> loc(#loc26)
    %23 = "ttg.convert_layout"(%22) : (tensor<2x1024xi32, #blocked4>) -> tensor<2x1024xi32, #blocked> loc(#loc27)
    %24 = "tt.join"(%9, %19) : (tensor<1024xi1, #blocked1>, tensor<1024xi1, #blocked1>) -> tensor<1024x2xi1, #blocked2> loc(#loc28)
    %25 = "ttg.convert_layout"(%24) : (tensor<1024x2xi1, #blocked2>) -> tensor<1024x2xi1, #blocked3> loc(#loc29)
    %26 = "tt.trans"(%25) <{order = array<i32: 1, 0>}> : (tensor<1024x2xi1, #blocked3>) -> tensor<2x1024xi1, #blocked4> loc(#loc29)
    %27 = "ttg.convert_layout"(%26) : (tensor<2x1024xi1, #blocked4>) -> tensor<2x1024xi1, #blocked> loc(#loc30)
    %28 = "tt.splat"(%arg1) : (!tt.ptr<f32>) -> tensor<2x1024x!tt.ptr<f32>, #blocked> loc(#loc31)
    %29 = "tt.addptr"(%28, %23) : (tensor<2x1024x!tt.ptr<f32>, #blocked>, tensor<2x1024xi32, #blocked>) -> tensor<2x1024x!tt.ptr<f32>, #blocked> loc(#loc27)
    "tt.store"(%29, %15, %27) <{boundaryCheck = array<i32>, cache = 1 : i32, evict = 1 : i32}> : (tensor<2x1024x!tt.ptr<f32>, #blocked>, tensor<2x1024xf32, #blocked>, tensor<2x1024xi1, #blocked>) -> () loc(#loc30)
    "tt.return"() : () -> () loc(#loc32)
  }) {noinline = false} : () -> () loc(#loc1)
}) {"ttg.num-ctas" = 1 : i32, "ttg.num-warps" = 4 : i32, ttg.target = "cuda:89", "ttg.threads-per-warp" = 32 : i32} : () -> () loc(#loc)
#loc = loc("tmp_xdsl.ttir":0:0)
#loc1 = loc("tmp_xdsl.ttir":2:3)
#loc5 = loc("tmp_xdsl.ttir":4:10)
#loc6 = loc("tmp_xdsl.ttir":5:10)
#loc7 = loc("tmp_xdsl.ttir":6:10)
#loc8 = loc("tmp_xdsl.ttir":7:10)
#loc9 = loc("tmp_xdsl.ttir":8:10)
#loc10 = loc("tmp_xdsl.ttir":9:10)
#loc11 = loc("tmp_xdsl.ttir":10:10)
#loc12 = loc("tmp_xdsl.ttir":11:10)
#loc13 = loc("tmp_xdsl.ttir":12:10)
#loc14 = loc("tmp_xdsl.ttir":13:10)
#loc15 = loc("tmp_xdsl.ttir":14:11)
#loc16 = loc("tmp_xdsl.ttir":15:11)
#loc17 = loc("tmp_xdsl.ttir":16:11)
#loc18 = loc("tmp_xdsl.ttir":17:11)
#loc19 = loc("tmp_xdsl.ttir":18:11)
#loc20 = loc("tmp_xdsl.ttir":19:11)
#loc21 = loc("tmp_xdsl.ttir":27:11)
#loc22 = loc("tmp_xdsl.ttir":30:11)
#loc23 = loc("tmp_xdsl.ttir":31:11)
#loc24 = loc("tmp_xdsl.ttir":32:11)
#loc25 = loc("tmp_xdsl.ttir":33:11)
#loc26 = loc("tmp_xdsl.ttir":34:11)
#loc27 = loc("tmp_xdsl.ttir":38:11)
#loc28 = loc("tmp_xdsl.ttir":35:11)
#loc29 = loc("tmp_xdsl.ttir":36:11)
#loc30 = loc("tmp_xdsl.ttir":39:5)
#loc31 = loc("tmp_xdsl.ttir":37:11)
#loc32 = loc("tmp_xdsl.ttir":40:5)


// -----// IR Dump Before TritonGPUF32DotTC (tritongpu-F32DotTC) ('builtin.module' operation) //----- //
#blocked = #ttg.blocked<{sizePerThread = [1, 1], threadsPerWarp = [1, 32], warpsPerCTA = [1, 4], order = [1, 0]}>
#blocked1 = #ttg.blocked<{sizePerThread = [1], threadsPerWarp = [32], warpsPerCTA = [4], order = [0]}>
#blocked2 = #ttg.blocked<{sizePerThread = [4], threadsPerWarp = [32], warpsPerCTA = [4], order = [0]}>
#blocked3 = #ttg.blocked<{sizePerThread = [1, 2], threadsPerWarp = [32, 1], warpsPerCTA = [4, 1], order = [1, 0]}>
#blocked4 = #ttg.blocked<{sizePerThread = [1, 1], threadsPerWarp = [16, 2], warpsPerCTA = [4, 1], order = [1, 0]}>
#blocked5 = #ttg.blocked<{sizePerThread = [1, 1], threadsPerWarp = [2, 16], warpsPerCTA = [1, 4], order = [0, 1]}>
#loc2 = loc("tmp_xdsl.ttir":3:6)
#loc3 = loc("tmp_xdsl.ttir":3:28)
#loc4 = loc("tmp_xdsl.ttir":3:50)
"builtin.module"() ({
  "tt.func"() <{arg_attrs = [{tt.divisibility = 16 : i32}, {tt.divisibility = 16 : i32}, {tt.divisibility = 16 : i32}], function_type = (!tt.ptr<f32>, !tt.ptr<f32>, i32) -> (), sym_name = "scalar_mult_duplicate", sym_visibility = "public"}> ({
  ^bb0(%arg0: !tt.ptr<f32> loc("tmp_xdsl.ttir":3:6), %arg1: !tt.ptr<f32> loc("tmp_xdsl.ttir":3:28), %arg2: i32 loc("tmp_xdsl.ttir":3:50)):
    %0 = "arith.constant"() <{value = 2 : i32}> : () -> i32 loc(#loc5)
    %1 = "arith.constant"() <{value = dense<4.000000e+00> : tensor<1x1024xf32, #blocked>}> : () -> tensor<1x1024xf32, #blocked> loc(#loc6)
    %2 = "arith.constant"() <{value = 1024 : i32}> : () -> i32 loc(#loc7)
    %3 = "tt.get_program_id"() <{axis = 0 : i32}> : () -> i32 loc(#loc8)
    %4 = "arith.muli"(%3, %2) <{overflowFlags = #arith.overflow<none>}> : (i32, i32) -> i32 loc(#loc9)
    %5 = "tt.make_range"() <{end = 1024 : i32, start = 0 : i32}> : () -> tensor<1024xi32, #blocked1> loc(#loc10)
    %6 = "tt.splat"(%4) : (i32) -> tensor<1024xi32, #blocked1> loc(#loc11)
    %7 = "arith.addi"(%6, %5) <{overflowFlags = #arith.overflow<none>}> : (tensor<1024xi32, #blocked1>, tensor<1024xi32, #blocked1>) -> tensor<1024xi32, #blocked1> loc(#loc12)
    %8 = "tt.splat"(%arg2) : (i32) -> tensor<1024xi32, #blocked1> loc(#loc13)
    %9 = "arith.cmpi"(%7, %8) <{predicate = 2 : i64}> : (tensor<1024xi32, #blocked1>, tensor<1024xi32, #blocked1>) -> tensor<1024xi1, #blocked1> loc(#loc14)
    %10 = "tt.splat"(%arg0) : (!tt.ptr<f32>) -> tensor<1024x!tt.ptr<f32>, #blocked1> loc(#loc15)
    %11 = "tt.addptr"(%10, %7) : (tensor<1024x!tt.ptr<f32>, #blocked1>, tensor<1024xi32, #blocked1>) -> tensor<1024x!tt.ptr<f32>, #blocked1> loc(#loc16)
    %12 = "ttg.convert_layout"(%11) : (tensor<1024x!tt.ptr<f32>, #blocked1>) -> tensor<1024x!tt.ptr<f32>, #blocked2> loc(#loc17)
    %13 = "ttg.convert_layout"(%9) : (tensor<1024xi1, #blocked1>) -> tensor<1024xi1, #blocked2> loc(#loc17)
    %14 = "tt.load"(%12, %13) <{boundaryCheck = array<i32>, cache = 1 : i32, evict = 1 : i32, isVolatile = false, operandSegmentSizes = array<i32: 1, 1, 0>}> : (tensor<1024x!tt.ptr<f32>, #blocked2>, tensor<1024xi1, #blocked2>) -> tensor<1024xf32, #blocked2> loc(#loc17)
    %15 = "ttg.convert_layout"(%14) : (tensor<1024xf32, #blocked2>) -> tensor<1024xf32, #blocked1> loc(#loc17)
    %16 = "tt.reshape"(%15) : (tensor<1024xf32, #blocked1>) -> tensor<1x1024xf32, #blocked> loc(#loc18)
    %17 = "arith.mulf"(%16, %1) <{fastmath = #arith.fastmath<none>}> : (tensor<1x1024xf32, #blocked>, tensor<1x1024xf32, #blocked>) -> tensor<1x1024xf32, #blocked> loc(#loc19)
    %18 = "tt.broadcast"(%17) : (tensor<1x1024xf32, #blocked>) -> tensor<2x1024xf32, #blocked> loc(#loc20)
    %19 = "arith.addi"(%7, %8) <{overflowFlags = #arith.overflow<none>}> : (tensor<1024xi32, #blocked1>, tensor<1024xi32, #blocked1>) -> tensor<1024xi32, #blocked1> loc(#loc21)
    %20 = "arith.muli"(%arg2, %0) <{overflowFlags = #arith.overflow<none>}> : (i32, i32) -> i32 loc(#loc22)
    %21 = "tt.splat"(%20) : (i32) -> tensor<1024xi32, #blocked1> loc(#loc23)
    %22 = "arith.cmpi"(%19, %21) <{predicate = 2 : i64}> : (tensor<1024xi32, #blocked1>, tensor<1024xi32, #blocked1>) -> tensor<1024xi1, #blocked1> loc(#loc24)
    %23 = "tt.join"(%7, %19) : (tensor<1024xi32, #blocked1>, tensor<1024xi32, #blocked1>) -> tensor<1024x2xi32, #blocked3> loc(#loc25)
    %24 = "ttg.convert_layout"(%23) : (tensor<1024x2xi32, #blocked3>) -> tensor<1024x2xi32, #blocked4> loc(#loc26)
    %25 = "tt.trans"(%24) <{order = array<i32: 1, 0>}> : (tensor<1024x2xi32, #blocked4>) -> tensor<2x1024xi32, #blocked5> loc(#loc26)
    %26 = "ttg.convert_layout"(%25) : (tensor<2x1024xi32, #blocked5>) -> tensor<2x1024xi32, #blocked> loc(#loc27)
    %27 = "tt.join"(%9, %22) : (tensor<1024xi1, #blocked1>, tensor<1024xi1, #blocked1>) -> tensor<1024x2xi1, #blocked3> loc(#loc28)
    %28 = "ttg.convert_layout"(%27) : (tensor<1024x2xi1, #blocked3>) -> tensor<1024x2xi1, #blocked4> loc(#loc29)
    %29 = "tt.trans"(%28) <{order = array<i32: 1, 0>}> : (tensor<1024x2xi1, #blocked4>) -> tensor<2x1024xi1, #blocked5> loc(#loc29)
    %30 = "ttg.convert_layout"(%29) : (tensor<2x1024xi1, #blocked5>) -> tensor<2x1024xi1, #blocked> loc(#loc30)
    %31 = "tt.splat"(%arg1) : (!tt.ptr<f32>) -> tensor<2x1024x!tt.ptr<f32>, #blocked> loc(#loc31)
    %32 = "tt.addptr"(%31, %26) : (tensor<2x1024x!tt.ptr<f32>, #blocked>, tensor<2x1024xi32, #blocked>) -> tensor<2x1024x!tt.ptr<f32>, #blocked> loc(#loc27)
    %33 = "ttg.convert_layout"(%32) : (tensor<2x1024x!tt.ptr<f32>, #blocked>) -> tensor<2x1024x!tt.ptr<f32>, #blocked5> loc(#loc30)
    %34 = "ttg.convert_layout"(%18) : (tensor<2x1024xf32, #blocked>) -> tensor<2x1024xf32, #blocked5> loc(#loc30)
    %35 = "ttg.convert_layout"(%30) : (tensor<2x1024xi1, #blocked>) -> tensor<2x1024xi1, #blocked5> loc(#loc30)
    "tt.store"(%33, %34, %35) <{boundaryCheck = array<i32>, cache = 1 : i32, evict = 1 : i32}> : (tensor<2x1024x!tt.ptr<f32>, #blocked5>, tensor<2x1024xf32, #blocked5>, tensor<2x1024xi1, #blocked5>) -> () loc(#loc30)
    "tt.return"() : () -> () loc(#loc32)
  }) {noinline = false} : () -> () loc(#loc1)
}) {"ttg.num-ctas" = 1 : i32, "ttg.num-warps" = 4 : i32, ttg.target = "cuda:89", "ttg.threads-per-warp" = 32 : i32} : () -> () loc(#loc)
#loc = loc("tmp_xdsl.ttir":0:0)
#loc1 = loc("tmp_xdsl.ttir":2:3)
#loc5 = loc("tmp_xdsl.ttir":4:10)
#loc6 = loc("tmp_xdsl.ttir":5:10)
#loc7 = loc("tmp_xdsl.ttir":6:10)
#loc8 = loc("tmp_xdsl.ttir":7:10)
#loc9 = loc("tmp_xdsl.ttir":8:10)
#loc10 = loc("tmp_xdsl.ttir":9:10)
#loc11 = loc("tmp_xdsl.ttir":10:10)
#loc12 = loc("tmp_xdsl.ttir":11:10)
#loc13 = loc("tmp_xdsl.ttir":12:10)
#loc14 = loc("tmp_xdsl.ttir":13:10)
#loc15 = loc("tmp_xdsl.ttir":14:11)
#loc16 = loc("tmp_xdsl.ttir":15:11)
#loc17 = loc("tmp_xdsl.ttir":16:11)
#loc18 = loc("tmp_xdsl.ttir":17:11)
#loc19 = loc("tmp_xdsl.ttir":18:11)
#loc20 = loc("tmp_xdsl.ttir":19:11)
#loc21 = loc("tmp_xdsl.ttir":27:11)
#loc22 = loc("tmp_xdsl.ttir":30:11)
#loc23 = loc("tmp_xdsl.ttir":31:11)
#loc24 = loc("tmp_xdsl.ttir":32:11)
#loc25 = loc("tmp_xdsl.ttir":33:11)
#loc26 = loc("tmp_xdsl.ttir":34:11)
#loc27 = loc("tmp_xdsl.ttir":38:11)
#loc28 = loc("tmp_xdsl.ttir":35:11)
#loc29 = loc("tmp_xdsl.ttir":36:11)
#loc30 = loc("tmp_xdsl.ttir":39:5)
#loc31 = loc("tmp_xdsl.ttir":37:11)
#loc32 = loc("tmp_xdsl.ttir":40:5)


// -----// IR Dump Before TritonGPUPlanCTAPass (triton-nvidia-gpu-plan-cta) ('builtin.module' operation) //----- //
#blocked = #ttg.blocked<{sizePerThread = [1, 1], threadsPerWarp = [1, 32], warpsPerCTA = [1, 4], order = [1, 0]}>
#blocked1 = #ttg.blocked<{sizePerThread = [1], threadsPerWarp = [32], warpsPerCTA = [4], order = [0]}>
#blocked2 = #ttg.blocked<{sizePerThread = [4], threadsPerWarp = [32], warpsPerCTA = [4], order = [0]}>
#blocked3 = #ttg.blocked<{sizePerThread = [1, 2], threadsPerWarp = [32, 1], warpsPerCTA = [4, 1], order = [1, 0]}>
#blocked4 = #ttg.blocked<{sizePerThread = [1, 1], threadsPerWarp = [16, 2], warpsPerCTA = [4, 1], order = [1, 0]}>
#blocked5 = #ttg.blocked<{sizePerThread = [1, 1], threadsPerWarp = [2, 16], warpsPerCTA = [1, 4], order = [0, 1]}>
#loc2 = loc("tmp_xdsl.ttir":3:6)
#loc3 = loc("tmp_xdsl.ttir":3:28)
#loc4 = loc("tmp_xdsl.ttir":3:50)
"builtin.module"() ({
  "tt.func"() <{arg_attrs = [{tt.divisibility = 16 : i32}, {tt.divisibility = 16 : i32}, {tt.divisibility = 16 : i32}], function_type = (!tt.ptr<f32>, !tt.ptr<f32>, i32) -> (), sym_name = "scalar_mult_duplicate", sym_visibility = "public"}> ({
  ^bb0(%arg0: !tt.ptr<f32> loc("tmp_xdsl.ttir":3:6), %arg1: !tt.ptr<f32> loc("tmp_xdsl.ttir":3:28), %arg2: i32 loc("tmp_xdsl.ttir":3:50)):
    %0 = "arith.constant"() <{value = 2 : i32}> : () -> i32 loc(#loc5)
    %1 = "arith.constant"() <{value = dense<4.000000e+00> : tensor<1x1024xf32, #blocked>}> : () -> tensor<1x1024xf32, #blocked> loc(#loc6)
    %2 = "arith.constant"() <{value = 1024 : i32}> : () -> i32 loc(#loc7)
    %3 = "tt.get_program_id"() <{axis = 0 : i32}> : () -> i32 loc(#loc8)
    %4 = "arith.muli"(%3, %2) <{overflowFlags = #arith.overflow<none>}> : (i32, i32) -> i32 loc(#loc9)
    %5 = "tt.make_range"() <{end = 1024 : i32, start = 0 : i32}> : () -> tensor<1024xi32, #blocked1> loc(#loc10)
    %6 = "tt.splat"(%4) : (i32) -> tensor<1024xi32, #blocked1> loc(#loc11)
    %7 = "arith.addi"(%6, %5) <{overflowFlags = #arith.overflow<none>}> : (tensor<1024xi32, #blocked1>, tensor<1024xi32, #blocked1>) -> tensor<1024xi32, #blocked1> loc(#loc12)
    %8 = "tt.splat"(%arg2) : (i32) -> tensor<1024xi32, #blocked1> loc(#loc13)
    %9 = "arith.cmpi"(%7, %8) <{predicate = 2 : i64}> : (tensor<1024xi32, #blocked1>, tensor<1024xi32, #blocked1>) -> tensor<1024xi1, #blocked1> loc(#loc14)
    %10 = "tt.splat"(%arg0) : (!tt.ptr<f32>) -> tensor<1024x!tt.ptr<f32>, #blocked1> loc(#loc15)
    %11 = "tt.addptr"(%10, %7) : (tensor<1024x!tt.ptr<f32>, #blocked1>, tensor<1024xi32, #blocked1>) -> tensor<1024x!tt.ptr<f32>, #blocked1> loc(#loc16)
    %12 = "ttg.convert_layout"(%11) : (tensor<1024x!tt.ptr<f32>, #blocked1>) -> tensor<1024x!tt.ptr<f32>, #blocked2> loc(#loc17)
    %13 = "ttg.convert_layout"(%9) : (tensor<1024xi1, #blocked1>) -> tensor<1024xi1, #blocked2> loc(#loc17)
    %14 = "tt.load"(%12, %13) <{boundaryCheck = array<i32>, cache = 1 : i32, evict = 1 : i32, isVolatile = false, operandSegmentSizes = array<i32: 1, 1, 0>}> : (tensor<1024x!tt.ptr<f32>, #blocked2>, tensor<1024xi1, #blocked2>) -> tensor<1024xf32, #blocked2> loc(#loc17)
    %15 = "ttg.convert_layout"(%14) : (tensor<1024xf32, #blocked2>) -> tensor<1024xf32, #blocked1> loc(#loc17)
    %16 = "tt.reshape"(%15) : (tensor<1024xf32, #blocked1>) -> tensor<1x1024xf32, #blocked> loc(#loc18)
    %17 = "arith.mulf"(%16, %1) <{fastmath = #arith.fastmath<none>}> : (tensor<1x1024xf32, #blocked>, tensor<1x1024xf32, #blocked>) -> tensor<1x1024xf32, #blocked> loc(#loc19)
    %18 = "tt.broadcast"(%17) : (tensor<1x1024xf32, #blocked>) -> tensor<2x1024xf32, #blocked> loc(#loc20)
    %19 = "arith.addi"(%7, %8) <{overflowFlags = #arith.overflow<none>}> : (tensor<1024xi32, #blocked1>, tensor<1024xi32, #blocked1>) -> tensor<1024xi32, #blocked1> loc(#loc21)
    %20 = "arith.muli"(%arg2, %0) <{overflowFlags = #arith.overflow<none>}> : (i32, i32) -> i32 loc(#loc22)
    %21 = "tt.splat"(%20) : (i32) -> tensor<1024xi32, #blocked1> loc(#loc23)
    %22 = "arith.cmpi"(%19, %21) <{predicate = 2 : i64}> : (tensor<1024xi32, #blocked1>, tensor<1024xi32, #blocked1>) -> tensor<1024xi1, #blocked1> loc(#loc24)
    %23 = "tt.join"(%7, %19) : (tensor<1024xi32, #blocked1>, tensor<1024xi32, #blocked1>) -> tensor<1024x2xi32, #blocked3> loc(#loc25)
    %24 = "ttg.convert_layout"(%23) : (tensor<1024x2xi32, #blocked3>) -> tensor<1024x2xi32, #blocked4> loc(#loc26)
    %25 = "tt.trans"(%24) <{order = array<i32: 1, 0>}> : (tensor<1024x2xi32, #blocked4>) -> tensor<2x1024xi32, #blocked5> loc(#loc26)
    %26 = "ttg.convert_layout"(%25) : (tensor<2x1024xi32, #blocked5>) -> tensor<2x1024xi32, #blocked> loc(#loc27)
    %27 = "tt.join"(%9, %22) : (tensor<1024xi1, #blocked1>, tensor<1024xi1, #blocked1>) -> tensor<1024x2xi1, #blocked3> loc(#loc28)
    %28 = "ttg.convert_layout"(%27) : (tensor<1024x2xi1, #blocked3>) -> tensor<1024x2xi1, #blocked4> loc(#loc29)
    %29 = "tt.trans"(%28) <{order = array<i32: 1, 0>}> : (tensor<1024x2xi1, #blocked4>) -> tensor<2x1024xi1, #blocked5> loc(#loc29)
    %30 = "ttg.convert_layout"(%29) : (tensor<2x1024xi1, #blocked5>) -> tensor<2x1024xi1, #blocked> loc(#loc30)
    %31 = "tt.splat"(%arg1) : (!tt.ptr<f32>) -> tensor<2x1024x!tt.ptr<f32>, #blocked> loc(#loc31)
    %32 = "tt.addptr"(%31, %26) : (tensor<2x1024x!tt.ptr<f32>, #blocked>, tensor<2x1024xi32, #blocked>) -> tensor<2x1024x!tt.ptr<f32>, #blocked> loc(#loc27)
    %33 = "ttg.convert_layout"(%32) : (tensor<2x1024x!tt.ptr<f32>, #blocked>) -> tensor<2x1024x!tt.ptr<f32>, #blocked5> loc(#loc30)
    %34 = "ttg.convert_layout"(%18) : (tensor<2x1024xf32, #blocked>) -> tensor<2x1024xf32, #blocked5> loc(#loc30)
    %35 = "ttg.convert_layout"(%30) : (tensor<2x1024xi1, #blocked>) -> tensor<2x1024xi1, #blocked5> loc(#loc30)
    "tt.store"(%33, %34, %35) <{boundaryCheck = array<i32>, cache = 1 : i32, evict = 1 : i32}> : (tensor<2x1024x!tt.ptr<f32>, #blocked5>, tensor<2x1024xf32, #blocked5>, tensor<2x1024xi1, #blocked5>) -> () loc(#loc30)
    "tt.return"() : () -> () loc(#loc32)
  }) {noinline = false} : () -> () loc(#loc1)
}) {"ttg.num-ctas" = 1 : i32, "ttg.num-warps" = 4 : i32, ttg.target = "cuda:89", "ttg.threads-per-warp" = 32 : i32} : () -> () loc(#loc)
#loc = loc("tmp_xdsl.ttir":0:0)
#loc1 = loc("tmp_xdsl.ttir":2:3)
#loc5 = loc("tmp_xdsl.ttir":4:10)
#loc6 = loc("tmp_xdsl.ttir":5:10)
#loc7 = loc("tmp_xdsl.ttir":6:10)
#loc8 = loc("tmp_xdsl.ttir":7:10)
#loc9 = loc("tmp_xdsl.ttir":8:10)
#loc10 = loc("tmp_xdsl.ttir":9:10)
#loc11 = loc("tmp_xdsl.ttir":10:10)
#loc12 = loc("tmp_xdsl.ttir":11:10)
#loc13 = loc("tmp_xdsl.ttir":12:10)
#loc14 = loc("tmp_xdsl.ttir":13:10)
#loc15 = loc("tmp_xdsl.ttir":14:11)
#loc16 = loc("tmp_xdsl.ttir":15:11)
#loc17 = loc("tmp_xdsl.ttir":16:11)
#loc18 = loc("tmp_xdsl.ttir":17:11)
#loc19 = loc("tmp_xdsl.ttir":18:11)
#loc20 = loc("tmp_xdsl.ttir":19:11)
#loc21 = loc("tmp_xdsl.ttir":27:11)
#loc22 = loc("tmp_xdsl.ttir":30:11)
#loc23 = loc("tmp_xdsl.ttir":31:11)
#loc24 = loc("tmp_xdsl.ttir":32:11)
#loc25 = loc("tmp_xdsl.ttir":33:11)
#loc26 = loc("tmp_xdsl.ttir":34:11)
#loc27 = loc("tmp_xdsl.ttir":38:11)
#loc28 = loc("tmp_xdsl.ttir":35:11)
#loc29 = loc("tmp_xdsl.ttir":36:11)
#loc30 = loc("tmp_xdsl.ttir":39:5)
#loc31 = loc("tmp_xdsl.ttir":37:11)
#loc32 = loc("tmp_xdsl.ttir":40:5)


// -----// IR Dump Before TritonGPURemoveLayoutConversions (tritongpu-remove-layout-conversions) ('builtin.module' operation) //----- //
#blocked = #ttg.blocked<{sizePerThread = [1, 1], threadsPerWarp = [1, 32], warpsPerCTA = [1, 4], order = [1, 0]}>
#blocked1 = #ttg.blocked<{sizePerThread = [1], threadsPerWarp = [32], warpsPerCTA = [4], order = [0]}>
#blocked2 = #ttg.blocked<{sizePerThread = [4], threadsPerWarp = [32], warpsPerCTA = [4], order = [0]}>
#blocked3 = #ttg.blocked<{sizePerThread = [1, 2], threadsPerWarp = [32, 1], warpsPerCTA = [4, 1], order = [1, 0]}>
#blocked4 = #ttg.blocked<{sizePerThread = [1, 1], threadsPerWarp = [16, 2], warpsPerCTA = [4, 1], order = [1, 0]}>
#blocked5 = #ttg.blocked<{sizePerThread = [1, 1], threadsPerWarp = [2, 16], warpsPerCTA = [1, 4], order = [0, 1]}>
#loc2 = loc("tmp_xdsl.ttir":3:6)
#loc3 = loc("tmp_xdsl.ttir":3:28)
#loc4 = loc("tmp_xdsl.ttir":3:50)
"builtin.module"() ({
  "tt.func"() <{arg_attrs = [{tt.divisibility = 16 : i32}, {tt.divisibility = 16 : i32}, {tt.divisibility = 16 : i32}], function_type = (!tt.ptr<f32>, !tt.ptr<f32>, i32) -> (), sym_name = "scalar_mult_duplicate", sym_visibility = "public"}> ({
  ^bb0(%arg0: !tt.ptr<f32> loc("tmp_xdsl.ttir":3:6), %arg1: !tt.ptr<f32> loc("tmp_xdsl.ttir":3:28), %arg2: i32 loc("tmp_xdsl.ttir":3:50)):
    %0 = "arith.constant"() <{value = 2 : i32}> : () -> i32 loc(#loc5)
    %1 = "arith.constant"() <{value = dense<4.000000e+00> : tensor<1x1024xf32, #blocked>}> : () -> tensor<1x1024xf32, #blocked> loc(#loc6)
    %2 = "arith.constant"() <{value = 1024 : i32}> : () -> i32 loc(#loc7)
    %3 = "tt.get_program_id"() <{axis = 0 : i32}> : () -> i32 loc(#loc8)
    %4 = "arith.muli"(%3, %2) <{overflowFlags = #arith.overflow<none>}> : (i32, i32) -> i32 loc(#loc9)
    %5 = "tt.make_range"() <{end = 1024 : i32, start = 0 : i32}> : () -> tensor<1024xi32, #blocked1> loc(#loc10)
    %6 = "tt.splat"(%4) : (i32) -> tensor<1024xi32, #blocked1> loc(#loc11)
    %7 = "arith.addi"(%6, %5) <{overflowFlags = #arith.overflow<none>}> : (tensor<1024xi32, #blocked1>, tensor<1024xi32, #blocked1>) -> tensor<1024xi32, #blocked1> loc(#loc12)
    %8 = "tt.splat"(%arg2) : (i32) -> tensor<1024xi32, #blocked1> loc(#loc13)
    %9 = "arith.cmpi"(%7, %8) <{predicate = 2 : i64}> : (tensor<1024xi32, #blocked1>, tensor<1024xi32, #blocked1>) -> tensor<1024xi1, #blocked1> loc(#loc14)
    %10 = "tt.splat"(%arg0) : (!tt.ptr<f32>) -> tensor<1024x!tt.ptr<f32>, #blocked1> loc(#loc15)
    %11 = "tt.addptr"(%10, %7) : (tensor<1024x!tt.ptr<f32>, #blocked1>, tensor<1024xi32, #blocked1>) -> tensor<1024x!tt.ptr<f32>, #blocked1> loc(#loc16)
    %12 = "ttg.convert_layout"(%11) : (tensor<1024x!tt.ptr<f32>, #blocked1>) -> tensor<1024x!tt.ptr<f32>, #blocked2> loc(#loc17)
    %13 = "ttg.convert_layout"(%9) : (tensor<1024xi1, #blocked1>) -> tensor<1024xi1, #blocked2> loc(#loc17)
    %14 = "tt.load"(%12, %13) <{boundaryCheck = array<i32>, cache = 1 : i32, evict = 1 : i32, isVolatile = false, operandSegmentSizes = array<i32: 1, 1, 0>}> : (tensor<1024x!tt.ptr<f32>, #blocked2>, tensor<1024xi1, #blocked2>) -> tensor<1024xf32, #blocked2> loc(#loc17)
    %15 = "ttg.convert_layout"(%14) : (tensor<1024xf32, #blocked2>) -> tensor<1024xf32, #blocked1> loc(#loc17)
    %16 = "tt.reshape"(%15) : (tensor<1024xf32, #blocked1>) -> tensor<1x1024xf32, #blocked> loc(#loc18)
    %17 = "arith.mulf"(%16, %1) <{fastmath = #arith.fastmath<none>}> : (tensor<1x1024xf32, #blocked>, tensor<1x1024xf32, #blocked>) -> tensor<1x1024xf32, #blocked> loc(#loc19)
    %18 = "tt.broadcast"(%17) : (tensor<1x1024xf32, #blocked>) -> tensor<2x1024xf32, #blocked> loc(#loc20)
    %19 = "arith.addi"(%7, %8) <{overflowFlags = #arith.overflow<none>}> : (tensor<1024xi32, #blocked1>, tensor<1024xi32, #blocked1>) -> tensor<1024xi32, #blocked1> loc(#loc21)
    %20 = "arith.muli"(%arg2, %0) <{overflowFlags = #arith.overflow<none>}> : (i32, i32) -> i32 loc(#loc22)
    %21 = "tt.splat"(%20) : (i32) -> tensor<1024xi32, #blocked1> loc(#loc23)
    %22 = "arith.cmpi"(%19, %21) <{predicate = 2 : i64}> : (tensor<1024xi32, #blocked1>, tensor<1024xi32, #blocked1>) -> tensor<1024xi1, #blocked1> loc(#loc24)
    %23 = "tt.join"(%7, %19) : (tensor<1024xi32, #blocked1>, tensor<1024xi32, #blocked1>) -> tensor<1024x2xi32, #blocked3> loc(#loc25)
    %24 = "ttg.convert_layout"(%23) : (tensor<1024x2xi32, #blocked3>) -> tensor<1024x2xi32, #blocked4> loc(#loc26)
    %25 = "tt.trans"(%24) <{order = array<i32: 1, 0>}> : (tensor<1024x2xi32, #blocked4>) -> tensor<2x1024xi32, #blocked5> loc(#loc26)
    %26 = "ttg.convert_layout"(%25) : (tensor<2x1024xi32, #blocked5>) -> tensor<2x1024xi32, #blocked> loc(#loc27)
    %27 = "tt.join"(%9, %22) : (tensor<1024xi1, #blocked1>, tensor<1024xi1, #blocked1>) -> tensor<1024x2xi1, #blocked3> loc(#loc28)
    %28 = "ttg.convert_layout"(%27) : (tensor<1024x2xi1, #blocked3>) -> tensor<1024x2xi1, #blocked4> loc(#loc29)
    %29 = "tt.trans"(%28) <{order = array<i32: 1, 0>}> : (tensor<1024x2xi1, #blocked4>) -> tensor<2x1024xi1, #blocked5> loc(#loc29)
    %30 = "ttg.convert_layout"(%29) : (tensor<2x1024xi1, #blocked5>) -> tensor<2x1024xi1, #blocked> loc(#loc30)
    %31 = "tt.splat"(%arg1) : (!tt.ptr<f32>) -> tensor<2x1024x!tt.ptr<f32>, #blocked> loc(#loc31)
    %32 = "tt.addptr"(%31, %26) : (tensor<2x1024x!tt.ptr<f32>, #blocked>, tensor<2x1024xi32, #blocked>) -> tensor<2x1024x!tt.ptr<f32>, #blocked> loc(#loc27)
    %33 = "ttg.convert_layout"(%32) : (tensor<2x1024x!tt.ptr<f32>, #blocked>) -> tensor<2x1024x!tt.ptr<f32>, #blocked5> loc(#loc30)
    %34 = "ttg.convert_layout"(%18) : (tensor<2x1024xf32, #blocked>) -> tensor<2x1024xf32, #blocked5> loc(#loc30)
    %35 = "ttg.convert_layout"(%30) : (tensor<2x1024xi1, #blocked>) -> tensor<2x1024xi1, #blocked5> loc(#loc30)
    "tt.store"(%33, %34, %35) <{boundaryCheck = array<i32>, cache = 1 : i32, evict = 1 : i32}> : (tensor<2x1024x!tt.ptr<f32>, #blocked5>, tensor<2x1024xf32, #blocked5>, tensor<2x1024xi1, #blocked5>) -> () loc(#loc30)
    "tt.return"() : () -> () loc(#loc32)
  }) {noinline = false} : () -> () loc(#loc1)
}) {"ttg.num-ctas" = 1 : i32, "ttg.num-warps" = 4 : i32, ttg.target = "cuda:89", "ttg.threads-per-warp" = 32 : i32} : () -> () loc(#loc)
#loc = loc("tmp_xdsl.ttir":0:0)
#loc1 = loc("tmp_xdsl.ttir":2:3)
#loc5 = loc("tmp_xdsl.ttir":4:10)
#loc6 = loc("tmp_xdsl.ttir":5:10)
#loc7 = loc("tmp_xdsl.ttir":6:10)
#loc8 = loc("tmp_xdsl.ttir":7:10)
#loc9 = loc("tmp_xdsl.ttir":8:10)
#loc10 = loc("tmp_xdsl.ttir":9:10)
#loc11 = loc("tmp_xdsl.ttir":10:10)
#loc12 = loc("tmp_xdsl.ttir":11:10)
#loc13 = loc("tmp_xdsl.ttir":12:10)
#loc14 = loc("tmp_xdsl.ttir":13:10)
#loc15 = loc("tmp_xdsl.ttir":14:11)
#loc16 = loc("tmp_xdsl.ttir":15:11)
#loc17 = loc("tmp_xdsl.ttir":16:11)
#loc18 = loc("tmp_xdsl.ttir":17:11)
#loc19 = loc("tmp_xdsl.ttir":18:11)
#loc20 = loc("tmp_xdsl.ttir":19:11)
#loc21 = loc("tmp_xdsl.ttir":27:11)
#loc22 = loc("tmp_xdsl.ttir":30:11)
#loc23 = loc("tmp_xdsl.ttir":31:11)
#loc24 = loc("tmp_xdsl.ttir":32:11)
#loc25 = loc("tmp_xdsl.ttir":33:11)
#loc26 = loc("tmp_xdsl.ttir":34:11)
#loc27 = loc("tmp_xdsl.ttir":38:11)
#loc28 = loc("tmp_xdsl.ttir":35:11)
#loc29 = loc("tmp_xdsl.ttir":36:11)
#loc30 = loc("tmp_xdsl.ttir":39:5)
#loc31 = loc("tmp_xdsl.ttir":37:11)
#loc32 = loc("tmp_xdsl.ttir":40:5)


// -----// IR Dump Before TritonGPUOptimizeThreadLocality (tritongpu-optimize-thread-locality) ('builtin.module' operation) //----- //
#blocked = #ttg.blocked<{sizePerThread = [1, 4], threadsPerWarp = [1, 32], warpsPerCTA = [1, 4], order = [1, 0]}>
#blocked1 = #ttg.blocked<{sizePerThread = [4], threadsPerWarp = [32], warpsPerCTA = [4], order = [0]}>
#blocked2 = #ttg.blocked<{sizePerThread = [1], threadsPerWarp = [32], warpsPerCTA = [4], order = [0]}>
#blocked3 = #ttg.blocked<{sizePerThread = [1, 1], threadsPerWarp = [2, 16], warpsPerCTA = [1, 4], order = [0, 1]}>
#blocked4 = #ttg.blocked<{sizePerThread = [1, 2], threadsPerWarp = [32, 1], warpsPerCTA = [4, 1], order = [1, 0]}>
#blocked5 = #ttg.blocked<{sizePerThread = [1, 1], threadsPerWarp = [16, 2], warpsPerCTA = [4, 1], order = [1, 0]}>
#loc2 = loc("tmp_xdsl.ttir":3:6)
#loc3 = loc("tmp_xdsl.ttir":3:28)
#loc4 = loc("tmp_xdsl.ttir":3:50)
"builtin.module"() ({
  "tt.func"() <{arg_attrs = [{tt.divisibility = 16 : i32}, {tt.divisibility = 16 : i32}, {tt.divisibility = 16 : i32}], function_type = (!tt.ptr<f32>, !tt.ptr<f32>, i32) -> (), sym_name = "scalar_mult_duplicate", sym_visibility = "public"}> ({
  ^bb0(%arg0: !tt.ptr<f32> loc("tmp_xdsl.ttir":3:6), %arg1: !tt.ptr<f32> loc("tmp_xdsl.ttir":3:28), %arg2: i32 loc("tmp_xdsl.ttir":3:50)):
    %0 = "arith.constant"() <{value = 1024 : i32}> : () -> i32 loc(#loc5)
    %1 = "arith.constant"() <{value = 2 : i32}> : () -> i32 loc(#loc6)
    %2 = "arith.constant"() <{value = dense<4.000000e+00> : tensor<1x1024xf32, #blocked>}> : () -> tensor<1x1024xf32, #blocked> loc(#loc7)
    %3 = "tt.get_program_id"() <{axis = 0 : i32}> : () -> i32 loc(#loc8)
    %4 = "arith.muli"(%3, %0) <{overflowFlags = #arith.overflow<none>}> : (i32, i32) -> i32 loc(#loc9)
    %5 = "tt.make_range"() <{end = 1024 : i32, start = 0 : i32}> : () -> tensor<1024xi32, #blocked1> loc(#loc10)
    %6 = "tt.make_range"() <{end = 1024 : i32, start = 0 : i32}> : () -> tensor<1024xi32, #blocked2> loc(#loc10)
    %7 = "tt.splat"(%4) : (i32) -> tensor<1024xi32, #blocked1> loc(#loc11)
    %8 = "tt.splat"(%4) : (i32) -> tensor<1024xi32, #blocked2> loc(#loc11)
    %9 = "arith.addi"(%7, %5) <{overflowFlags = #arith.overflow<none>}> : (tensor<1024xi32, #blocked1>, tensor<1024xi32, #blocked1>) -> tensor<1024xi32, #blocked1> loc(#loc12)
    %10 = "arith.addi"(%8, %6) <{overflowFlags = #arith.overflow<none>}> : (tensor<1024xi32, #blocked2>, tensor<1024xi32, #blocked2>) -> tensor<1024xi32, #blocked2> loc(#loc12)
    %11 = "tt.splat"(%arg2) : (i32) -> tensor<1024xi32, #blocked1> loc(#loc13)
    %12 = "tt.splat"(%arg2) : (i32) -> tensor<1024xi32, #blocked2> loc(#loc13)
    %13 = "arith.cmpi"(%9, %11) <{predicate = 2 : i64}> : (tensor<1024xi32, #blocked1>, tensor<1024xi32, #blocked1>) -> tensor<1024xi1, #blocked1> loc(#loc14)
    %14 = "arith.cmpi"(%10, %12) <{predicate = 2 : i64}> : (tensor<1024xi32, #blocked2>, tensor<1024xi32, #blocked2>) -> tensor<1024xi1, #blocked2> loc(#loc14)
    %15 = "tt.splat"(%arg0) : (!tt.ptr<f32>) -> tensor<1024x!tt.ptr<f32>, #blocked1> loc(#loc15)
    %16 = "tt.addptr"(%15, %9) : (tensor<1024x!tt.ptr<f32>, #blocked1>, tensor<1024xi32, #blocked1>) -> tensor<1024x!tt.ptr<f32>, #blocked1> loc(#loc16)
    %17 = "tt.load"(%16, %13) <{boundaryCheck = array<i32>, cache = 1 : i32, evict = 1 : i32, isVolatile = false, operandSegmentSizes = array<i32: 1, 1, 0>}> : (tensor<1024x!tt.ptr<f32>, #blocked1>, tensor<1024xi1, #blocked1>) -> tensor<1024xf32, #blocked1> loc(#loc17)
    %18 = "tt.reshape"(%17) : (tensor<1024xf32, #blocked1>) -> tensor<1x1024xf32, #blocked> loc(#loc18)
    %19 = "arith.mulf"(%18, %2) <{fastmath = #arith.fastmath<none>}> : (tensor<1x1024xf32, #blocked>, tensor<1x1024xf32, #blocked>) -> tensor<1x1024xf32, #blocked> loc(#loc19)
    %20 = "ttg.convert_layout"(%19) : (tensor<1x1024xf32, #blocked>) -> tensor<1x1024xf32, #blocked3> loc(#loc20)
    %21 = "tt.broadcast"(%20) : (tensor<1x1024xf32, #blocked3>) -> tensor<2x1024xf32, #blocked3> loc(#loc21)
    %22 = "arith.addi"(%10, %12) <{overflowFlags = #arith.overflow<none>}> : (tensor<1024xi32, #blocked2>, tensor<1024xi32, #blocked2>) -> tensor<1024xi32, #blocked2> loc(#loc22)
    %23 = "arith.muli"(%arg2, %1) <{overflowFlags = #arith.overflow<none>}> : (i32, i32) -> i32 loc(#loc23)
    %24 = "tt.splat"(%23) : (i32) -> tensor<1024xi32, #blocked2> loc(#loc24)
    %25 = "arith.cmpi"(%22, %24) <{predicate = 2 : i64}> : (tensor<1024xi32, #blocked2>, tensor<1024xi32, #blocked2>) -> tensor<1024xi1, #blocked2> loc(#loc25)
    %26 = "tt.join"(%10, %22) : (tensor<1024xi32, #blocked2>, tensor<1024xi32, #blocked2>) -> tensor<1024x2xi32, #blocked4> loc(#loc26)
    %27 = "ttg.convert_layout"(%26) : (tensor<1024x2xi32, #blocked4>) -> tensor<1024x2xi32, #blocked5> loc(#loc27)
    %28 = "tt.trans"(%27) <{order = array<i32: 1, 0>}> : (tensor<1024x2xi32, #blocked5>) -> tensor<2x1024xi32, #blocked3> loc(#loc27)
    %29 = "tt.join"(%14, %25) : (tensor<1024xi1, #blocked2>, tensor<1024xi1, #blocked2>) -> tensor<1024x2xi1, #blocked4> loc(#loc28)
    %30 = "ttg.convert_layout"(%29) : (tensor<1024x2xi1, #blocked4>) -> tensor<1024x2xi1, #blocked5> loc(#loc29)
    %31 = "tt.trans"(%30) <{order = array<i32: 1, 0>}> : (tensor<1024x2xi1, #blocked5>) -> tensor<2x1024xi1, #blocked3> loc(#loc29)
    %32 = "tt.splat"(%arg1) : (!tt.ptr<f32>) -> tensor<2x1024x!tt.ptr<f32>, #blocked3> loc(#loc30)
    %33 = "tt.addptr"(%32, %28) : (tensor<2x1024x!tt.ptr<f32>, #blocked3>, tensor<2x1024xi32, #blocked3>) -> tensor<2x1024x!tt.ptr<f32>, #blocked3> loc(#loc31)
    "tt.store"(%33, %21, %31) <{boundaryCheck = array<i32>, cache = 1 : i32, evict = 1 : i32}> : (tensor<2x1024x!tt.ptr<f32>, #blocked3>, tensor<2x1024xf32, #blocked3>, tensor<2x1024xi1, #blocked3>) -> () loc(#loc20)
    "tt.return"() : () -> () loc(#loc32)
  }) {noinline = false} : () -> () loc(#loc1)
}) {"ttg.num-ctas" = 1 : i32, "ttg.num-warps" = 4 : i32, ttg.target = "cuda:89", "ttg.threads-per-warp" = 32 : i32} : () -> () loc(#loc)
#loc = loc("tmp_xdsl.ttir":0:0)
#loc1 = loc("tmp_xdsl.ttir":2:3)
#loc5 = loc(unknown)
#loc6 = loc("tmp_xdsl.ttir":4:10)
#loc7 = loc("tmp_xdsl.ttir":5:10)
#loc8 = loc("tmp_xdsl.ttir":7:10)
#loc9 = loc("tmp_xdsl.ttir":8:10)
#loc10 = loc("tmp_xdsl.ttir":9:10)
#loc11 = loc("tmp_xdsl.ttir":10:10)
#loc12 = loc("tmp_xdsl.ttir":11:10)
#loc13 = loc("tmp_xdsl.ttir":12:10)
#loc14 = loc("tmp_xdsl.ttir":13:10)
#loc15 = loc("tmp_xdsl.ttir":14:11)
#loc16 = loc("tmp_xdsl.ttir":15:11)
#loc17 = loc("tmp_xdsl.ttir":16:11)
#loc18 = loc("tmp_xdsl.ttir":17:11)
#loc19 = loc("tmp_xdsl.ttir":18:11)
#loc20 = loc("tmp_xdsl.ttir":39:5)
#loc21 = loc("tmp_xdsl.ttir":19:11)
#loc22 = loc("tmp_xdsl.ttir":27:11)
#loc23 = loc("tmp_xdsl.ttir":30:11)
#loc24 = loc("tmp_xdsl.ttir":31:11)
#loc25 = loc("tmp_xdsl.ttir":32:11)
#loc26 = loc("tmp_xdsl.ttir":33:11)
#loc27 = loc("tmp_xdsl.ttir":34:11)
#loc28 = loc("tmp_xdsl.ttir":35:11)
#loc29 = loc("tmp_xdsl.ttir":36:11)
#loc30 = loc("tmp_xdsl.ttir":37:11)
#loc31 = loc("tmp_xdsl.ttir":38:11)
#loc32 = loc("tmp_xdsl.ttir":40:5)


// -----// IR Dump Before TritonGPUAccelerateMatmul (tritongpu-accelerate-matmul) ('builtin.module' operation) //----- //
#blocked = #ttg.blocked<{sizePerThread = [1, 4], threadsPerWarp = [1, 32], warpsPerCTA = [1, 4], order = [1, 0]}>
#blocked1 = #ttg.blocked<{sizePerThread = [4], threadsPerWarp = [32], warpsPerCTA = [4], order = [0]}>
#blocked2 = #ttg.blocked<{sizePerThread = [1], threadsPerWarp = [32], warpsPerCTA = [4], order = [0]}>
#blocked3 = #ttg.blocked<{sizePerThread = [1, 1], threadsPerWarp = [2, 16], warpsPerCTA = [1, 4], order = [0, 1]}>
#blocked4 = #ttg.blocked<{sizePerThread = [1, 2], threadsPerWarp = [32, 1], warpsPerCTA = [4, 1], order = [1, 0]}>
#blocked5 = #ttg.blocked<{sizePerThread = [1, 1], threadsPerWarp = [16, 2], warpsPerCTA = [4, 1], order = [1, 0]}>
#loc2 = loc("tmp_xdsl.ttir":3:6)
#loc3 = loc("tmp_xdsl.ttir":3:28)
#loc4 = loc("tmp_xdsl.ttir":3:50)
"builtin.module"() ({
  "tt.func"() <{arg_attrs = [{tt.divisibility = 16 : i32}, {tt.divisibility = 16 : i32}, {tt.divisibility = 16 : i32}], function_type = (!tt.ptr<f32>, !tt.ptr<f32>, i32) -> (), sym_name = "scalar_mult_duplicate", sym_visibility = "public"}> ({
  ^bb0(%arg0: !tt.ptr<f32> loc("tmp_xdsl.ttir":3:6), %arg1: !tt.ptr<f32> loc("tmp_xdsl.ttir":3:28), %arg2: i32 loc("tmp_xdsl.ttir":3:50)):
    %0 = "arith.constant"() <{value = 1024 : i32}> : () -> i32 loc(#loc5)
    %1 = "arith.constant"() <{value = 2 : i32}> : () -> i32 loc(#loc6)
    %2 = "arith.constant"() <{value = dense<4.000000e+00> : tensor<1x1024xf32, #blocked>}> : () -> tensor<1x1024xf32, #blocked> loc(#loc7)
    %3 = "tt.get_program_id"() <{axis = 0 : i32}> : () -> i32 loc(#loc8)
    %4 = "arith.muli"(%3, %0) <{overflowFlags = #arith.overflow<none>}> : (i32, i32) -> i32 loc(#loc9)
    %5 = "tt.make_range"() <{end = 1024 : i32, start = 0 : i32}> : () -> tensor<1024xi32, #blocked1> loc(#loc10)
    %6 = "tt.make_range"() <{end = 1024 : i32, start = 0 : i32}> : () -> tensor<1024xi32, #blocked2> loc(#loc10)
    %7 = "tt.splat"(%4) : (i32) -> tensor<1024xi32, #blocked1> loc(#loc11)
    %8 = "tt.splat"(%4) : (i32) -> tensor<1024xi32, #blocked2> loc(#loc11)
    %9 = "arith.addi"(%7, %5) <{overflowFlags = #arith.overflow<none>}> : (tensor<1024xi32, #blocked1>, tensor<1024xi32, #blocked1>) -> tensor<1024xi32, #blocked1> loc(#loc12)
    %10 = "arith.addi"(%8, %6) <{overflowFlags = #arith.overflow<none>}> : (tensor<1024xi32, #blocked2>, tensor<1024xi32, #blocked2>) -> tensor<1024xi32, #blocked2> loc(#loc12)
    %11 = "tt.splat"(%arg2) : (i32) -> tensor<1024xi32, #blocked1> loc(#loc13)
    %12 = "tt.splat"(%arg2) : (i32) -> tensor<1024xi32, #blocked2> loc(#loc13)
    %13 = "arith.cmpi"(%9, %11) <{predicate = 2 : i64}> : (tensor<1024xi32, #blocked1>, tensor<1024xi32, #blocked1>) -> tensor<1024xi1, #blocked1> loc(#loc14)
    %14 = "arith.cmpi"(%10, %12) <{predicate = 2 : i64}> : (tensor<1024xi32, #blocked2>, tensor<1024xi32, #blocked2>) -> tensor<1024xi1, #blocked2> loc(#loc14)
    %15 = "tt.splat"(%arg0) : (!tt.ptr<f32>) -> tensor<1024x!tt.ptr<f32>, #blocked1> loc(#loc15)
    %16 = "tt.addptr"(%15, %9) : (tensor<1024x!tt.ptr<f32>, #blocked1>, tensor<1024xi32, #blocked1>) -> tensor<1024x!tt.ptr<f32>, #blocked1> loc(#loc16)
    %17 = "tt.load"(%16, %13) <{boundaryCheck = array<i32>, cache = 1 : i32, evict = 1 : i32, isVolatile = false, operandSegmentSizes = array<i32: 1, 1, 0>}> : (tensor<1024x!tt.ptr<f32>, #blocked1>, tensor<1024xi1, #blocked1>) -> tensor<1024xf32, #blocked1> loc(#loc17)
    %18 = "tt.reshape"(%17) : (tensor<1024xf32, #blocked1>) -> tensor<1x1024xf32, #blocked> loc(#loc18)
    %19 = "arith.mulf"(%18, %2) <{fastmath = #arith.fastmath<none>}> : (tensor<1x1024xf32, #blocked>, tensor<1x1024xf32, #blocked>) -> tensor<1x1024xf32, #blocked> loc(#loc19)
    %20 = "ttg.convert_layout"(%19) : (tensor<1x1024xf32, #blocked>) -> tensor<1x1024xf32, #blocked3> loc(#loc20)
    %21 = "tt.broadcast"(%20) : (tensor<1x1024xf32, #blocked3>) -> tensor<2x1024xf32, #blocked3> loc(#loc21)
    %22 = "arith.addi"(%10, %12) <{overflowFlags = #arith.overflow<none>}> : (tensor<1024xi32, #blocked2>, tensor<1024xi32, #blocked2>) -> tensor<1024xi32, #blocked2> loc(#loc22)
    %23 = "arith.muli"(%arg2, %1) <{overflowFlags = #arith.overflow<none>}> : (i32, i32) -> i32 loc(#loc23)
    %24 = "tt.splat"(%23) : (i32) -> tensor<1024xi32, #blocked2> loc(#loc24)
    %25 = "arith.cmpi"(%22, %24) <{predicate = 2 : i64}> : (tensor<1024xi32, #blocked2>, tensor<1024xi32, #blocked2>) -> tensor<1024xi1, #blocked2> loc(#loc25)
    %26 = "tt.join"(%10, %22) : (tensor<1024xi32, #blocked2>, tensor<1024xi32, #blocked2>) -> tensor<1024x2xi32, #blocked4> loc(#loc26)
    %27 = "ttg.convert_layout"(%26) : (tensor<1024x2xi32, #blocked4>) -> tensor<1024x2xi32, #blocked5> loc(#loc27)
    %28 = "tt.trans"(%27) <{order = array<i32: 1, 0>}> : (tensor<1024x2xi32, #blocked5>) -> tensor<2x1024xi32, #blocked3> loc(#loc27)
    %29 = "tt.join"(%14, %25) : (tensor<1024xi1, #blocked2>, tensor<1024xi1, #blocked2>) -> tensor<1024x2xi1, #blocked4> loc(#loc28)
    %30 = "ttg.convert_layout"(%29) : (tensor<1024x2xi1, #blocked4>) -> tensor<1024x2xi1, #blocked5> loc(#loc29)
    %31 = "tt.trans"(%30) <{order = array<i32: 1, 0>}> : (tensor<1024x2xi1, #blocked5>) -> tensor<2x1024xi1, #blocked3> loc(#loc29)
    %32 = "tt.splat"(%arg1) : (!tt.ptr<f32>) -> tensor<2x1024x!tt.ptr<f32>, #blocked3> loc(#loc30)
    %33 = "tt.addptr"(%32, %28) : (tensor<2x1024x!tt.ptr<f32>, #blocked3>, tensor<2x1024xi32, #blocked3>) -> tensor<2x1024x!tt.ptr<f32>, #blocked3> loc(#loc31)
    "tt.store"(%33, %21, %31) <{boundaryCheck = array<i32>, cache = 1 : i32, evict = 1 : i32}> : (tensor<2x1024x!tt.ptr<f32>, #blocked3>, tensor<2x1024xf32, #blocked3>, tensor<2x1024xi1, #blocked3>) -> () loc(#loc20)
    "tt.return"() : () -> () loc(#loc32)
  }) {noinline = false} : () -> () loc(#loc1)
}) {"ttg.num-ctas" = 1 : i32, "ttg.num-warps" = 4 : i32, ttg.target = "cuda:89", "ttg.threads-per-warp" = 32 : i32} : () -> () loc(#loc)
#loc = loc("tmp_xdsl.ttir":0:0)
#loc1 = loc("tmp_xdsl.ttir":2:3)
#loc5 = loc(unknown)
#loc6 = loc("tmp_xdsl.ttir":4:10)
#loc7 = loc("tmp_xdsl.ttir":5:10)
#loc8 = loc("tmp_xdsl.ttir":7:10)
#loc9 = loc("tmp_xdsl.ttir":8:10)
#loc10 = loc("tmp_xdsl.ttir":9:10)
#loc11 = loc("tmp_xdsl.ttir":10:10)
#loc12 = loc("tmp_xdsl.ttir":11:10)
#loc13 = loc("tmp_xdsl.ttir":12:10)
#loc14 = loc("tmp_xdsl.ttir":13:10)
#loc15 = loc("tmp_xdsl.ttir":14:11)
#loc16 = loc("tmp_xdsl.ttir":15:11)
#loc17 = loc("tmp_xdsl.ttir":16:11)
#loc18 = loc("tmp_xdsl.ttir":17:11)
#loc19 = loc("tmp_xdsl.ttir":18:11)
#loc20 = loc("tmp_xdsl.ttir":39:5)
#loc21 = loc("tmp_xdsl.ttir":19:11)
#loc22 = loc("tmp_xdsl.ttir":27:11)
#loc23 = loc("tmp_xdsl.ttir":30:11)
#loc24 = loc("tmp_xdsl.ttir":31:11)
#loc25 = loc("tmp_xdsl.ttir":32:11)
#loc26 = loc("tmp_xdsl.ttir":33:11)
#loc27 = loc("tmp_xdsl.ttir":34:11)
#loc28 = loc("tmp_xdsl.ttir":35:11)
#loc29 = loc("tmp_xdsl.ttir":36:11)
#loc30 = loc("tmp_xdsl.ttir":37:11)
#loc31 = loc("tmp_xdsl.ttir":38:11)
#loc32 = loc("tmp_xdsl.ttir":40:5)


// -----// IR Dump Before TritonGPURemoveLayoutConversions (tritongpu-remove-layout-conversions) ('builtin.module' operation) //----- //
#blocked = #ttg.blocked<{sizePerThread = [1, 4], threadsPerWarp = [1, 32], warpsPerCTA = [1, 4], order = [1, 0]}>
#blocked1 = #ttg.blocked<{sizePerThread = [4], threadsPerWarp = [32], warpsPerCTA = [4], order = [0]}>
#blocked2 = #ttg.blocked<{sizePerThread = [1], threadsPerWarp = [32], warpsPerCTA = [4], order = [0]}>
#blocked3 = #ttg.blocked<{sizePerThread = [1, 1], threadsPerWarp = [2, 16], warpsPerCTA = [1, 4], order = [0, 1]}>
#blocked4 = #ttg.blocked<{sizePerThread = [1, 2], threadsPerWarp = [32, 1], warpsPerCTA = [4, 1], order = [1, 0]}>
#blocked5 = #ttg.blocked<{sizePerThread = [1, 1], threadsPerWarp = [16, 2], warpsPerCTA = [4, 1], order = [1, 0]}>
#loc2 = loc("tmp_xdsl.ttir":3:6)
#loc3 = loc("tmp_xdsl.ttir":3:28)
#loc4 = loc("tmp_xdsl.ttir":3:50)
"builtin.module"() ({
  "tt.func"() <{arg_attrs = [{tt.divisibility = 16 : i32}, {tt.divisibility = 16 : i32}, {tt.divisibility = 16 : i32}], function_type = (!tt.ptr<f32>, !tt.ptr<f32>, i32) -> (), sym_name = "scalar_mult_duplicate", sym_visibility = "public"}> ({
  ^bb0(%arg0: !tt.ptr<f32> loc("tmp_xdsl.ttir":3:6), %arg1: !tt.ptr<f32> loc("tmp_xdsl.ttir":3:28), %arg2: i32 loc("tmp_xdsl.ttir":3:50)):
    %0 = "arith.constant"() <{value = 1024 : i32}> : () -> i32 loc(#loc5)
    %1 = "arith.constant"() <{value = 2 : i32}> : () -> i32 loc(#loc6)
    %2 = "arith.constant"() <{value = dense<4.000000e+00> : tensor<1x1024xf32, #blocked>}> : () -> tensor<1x1024xf32, #blocked> loc(#loc7)
    %3 = "tt.get_program_id"() <{axis = 0 : i32}> : () -> i32 loc(#loc8)
    %4 = "arith.muli"(%3, %0) <{overflowFlags = #arith.overflow<none>}> : (i32, i32) -> i32 loc(#loc9)
    %5 = "tt.make_range"() <{end = 1024 : i32, start = 0 : i32}> : () -> tensor<1024xi32, #blocked1> loc(#loc10)
    %6 = "tt.make_range"() <{end = 1024 : i32, start = 0 : i32}> : () -> tensor<1024xi32, #blocked2> loc(#loc10)
    %7 = "tt.splat"(%4) : (i32) -> tensor<1024xi32, #blocked1> loc(#loc11)
    %8 = "tt.splat"(%4) : (i32) -> tensor<1024xi32, #blocked2> loc(#loc11)
    %9 = "arith.addi"(%7, %5) <{overflowFlags = #arith.overflow<none>}> : (tensor<1024xi32, #blocked1>, tensor<1024xi32, #blocked1>) -> tensor<1024xi32, #blocked1> loc(#loc12)
    %10 = "arith.addi"(%8, %6) <{overflowFlags = #arith.overflow<none>}> : (tensor<1024xi32, #blocked2>, tensor<1024xi32, #blocked2>) -> tensor<1024xi32, #blocked2> loc(#loc12)
    %11 = "tt.splat"(%arg2) : (i32) -> tensor<1024xi32, #blocked1> loc(#loc13)
    %12 = "tt.splat"(%arg2) : (i32) -> tensor<1024xi32, #blocked2> loc(#loc13)
    %13 = "arith.cmpi"(%9, %11) <{predicate = 2 : i64}> : (tensor<1024xi32, #blocked1>, tensor<1024xi32, #blocked1>) -> tensor<1024xi1, #blocked1> loc(#loc14)
    %14 = "arith.cmpi"(%10, %12) <{predicate = 2 : i64}> : (tensor<1024xi32, #blocked2>, tensor<1024xi32, #blocked2>) -> tensor<1024xi1, #blocked2> loc(#loc14)
    %15 = "tt.splat"(%arg0) : (!tt.ptr<f32>) -> tensor<1024x!tt.ptr<f32>, #blocked1> loc(#loc15)
    %16 = "tt.addptr"(%15, %9) : (tensor<1024x!tt.ptr<f32>, #blocked1>, tensor<1024xi32, #blocked1>) -> tensor<1024x!tt.ptr<f32>, #blocked1> loc(#loc16)
    %17 = "tt.load"(%16, %13) <{boundaryCheck = array<i32>, cache = 1 : i32, evict = 1 : i32, isVolatile = false, operandSegmentSizes = array<i32: 1, 1, 0>}> : (tensor<1024x!tt.ptr<f32>, #blocked1>, tensor<1024xi1, #blocked1>) -> tensor<1024xf32, #blocked1> loc(#loc17)
    %18 = "tt.reshape"(%17) : (tensor<1024xf32, #blocked1>) -> tensor<1x1024xf32, #blocked> loc(#loc18)
    %19 = "arith.mulf"(%18, %2) <{fastmath = #arith.fastmath<none>}> : (tensor<1x1024xf32, #blocked>, tensor<1x1024xf32, #blocked>) -> tensor<1x1024xf32, #blocked> loc(#loc19)
    %20 = "ttg.convert_layout"(%19) : (tensor<1x1024xf32, #blocked>) -> tensor<1x1024xf32, #blocked3> loc(#loc20)
    %21 = "tt.broadcast"(%20) : (tensor<1x1024xf32, #blocked3>) -> tensor<2x1024xf32, #blocked3> loc(#loc21)
    %22 = "arith.addi"(%10, %12) <{overflowFlags = #arith.overflow<none>}> : (tensor<1024xi32, #blocked2>, tensor<1024xi32, #blocked2>) -> tensor<1024xi32, #blocked2> loc(#loc22)
    %23 = "arith.muli"(%arg2, %1) <{overflowFlags = #arith.overflow<none>}> : (i32, i32) -> i32 loc(#loc23)
    %24 = "tt.splat"(%23) : (i32) -> tensor<1024xi32, #blocked2> loc(#loc24)
    %25 = "arith.cmpi"(%22, %24) <{predicate = 2 : i64}> : (tensor<1024xi32, #blocked2>, tensor<1024xi32, #blocked2>) -> tensor<1024xi1, #blocked2> loc(#loc25)
    %26 = "tt.join"(%10, %22) : (tensor<1024xi32, #blocked2>, tensor<1024xi32, #blocked2>) -> tensor<1024x2xi32, #blocked4> loc(#loc26)
    %27 = "ttg.convert_layout"(%26) : (tensor<1024x2xi32, #blocked4>) -> tensor<1024x2xi32, #blocked5> loc(#loc27)
    %28 = "tt.trans"(%27) <{order = array<i32: 1, 0>}> : (tensor<1024x2xi32, #blocked5>) -> tensor<2x1024xi32, #blocked3> loc(#loc27)
    %29 = "tt.join"(%14, %25) : (tensor<1024xi1, #blocked2>, tensor<1024xi1, #blocked2>) -> tensor<1024x2xi1, #blocked4> loc(#loc28)
    %30 = "ttg.convert_layout"(%29) : (tensor<1024x2xi1, #blocked4>) -> tensor<1024x2xi1, #blocked5> loc(#loc29)
    %31 = "tt.trans"(%30) <{order = array<i32: 1, 0>}> : (tensor<1024x2xi1, #blocked5>) -> tensor<2x1024xi1, #blocked3> loc(#loc29)
    %32 = "tt.splat"(%arg1) : (!tt.ptr<f32>) -> tensor<2x1024x!tt.ptr<f32>, #blocked3> loc(#loc30)
    %33 = "tt.addptr"(%32, %28) : (tensor<2x1024x!tt.ptr<f32>, #blocked3>, tensor<2x1024xi32, #blocked3>) -> tensor<2x1024x!tt.ptr<f32>, #blocked3> loc(#loc31)
    "tt.store"(%33, %21, %31) <{boundaryCheck = array<i32>, cache = 1 : i32, evict = 1 : i32}> : (tensor<2x1024x!tt.ptr<f32>, #blocked3>, tensor<2x1024xf32, #blocked3>, tensor<2x1024xi1, #blocked3>) -> () loc(#loc20)
    "tt.return"() : () -> () loc(#loc32)
  }) {noinline = false} : () -> () loc(#loc1)
}) {"ttg.num-ctas" = 1 : i32, "ttg.num-warps" = 4 : i32, ttg.target = "cuda:89", "ttg.threads-per-warp" = 32 : i32} : () -> () loc(#loc)
#loc = loc("tmp_xdsl.ttir":0:0)
#loc1 = loc("tmp_xdsl.ttir":2:3)
#loc5 = loc(unknown)
#loc6 = loc("tmp_xdsl.ttir":4:10)
#loc7 = loc("tmp_xdsl.ttir":5:10)
#loc8 = loc("tmp_xdsl.ttir":7:10)
#loc9 = loc("tmp_xdsl.ttir":8:10)
#loc10 = loc("tmp_xdsl.ttir":9:10)
#loc11 = loc("tmp_xdsl.ttir":10:10)
#loc12 = loc("tmp_xdsl.ttir":11:10)
#loc13 = loc("tmp_xdsl.ttir":12:10)
#loc14 = loc("tmp_xdsl.ttir":13:10)
#loc15 = loc("tmp_xdsl.ttir":14:11)
#loc16 = loc("tmp_xdsl.ttir":15:11)
#loc17 = loc("tmp_xdsl.ttir":16:11)
#loc18 = loc("tmp_xdsl.ttir":17:11)
#loc19 = loc("tmp_xdsl.ttir":18:11)
#loc20 = loc("tmp_xdsl.ttir":39:5)
#loc21 = loc("tmp_xdsl.ttir":19:11)
#loc22 = loc("tmp_xdsl.ttir":27:11)
#loc23 = loc("tmp_xdsl.ttir":30:11)
#loc24 = loc("tmp_xdsl.ttir":31:11)
#loc25 = loc("tmp_xdsl.ttir":32:11)
#loc26 = loc("tmp_xdsl.ttir":33:11)
#loc27 = loc("tmp_xdsl.ttir":34:11)
#loc28 = loc("tmp_xdsl.ttir":35:11)
#loc29 = loc("tmp_xdsl.ttir":36:11)
#loc30 = loc("tmp_xdsl.ttir":37:11)
#loc31 = loc("tmp_xdsl.ttir":38:11)
#loc32 = loc("tmp_xdsl.ttir":40:5)


// -----// IR Dump Before TritonGPUOptimizeDotOperands (tritongpu-optimize-dot-operands) ('builtin.module' operation) //----- //
#blocked = #ttg.blocked<{sizePerThread = [1, 4], threadsPerWarp = [1, 32], warpsPerCTA = [1, 4], order = [1, 0]}>
#blocked1 = #ttg.blocked<{sizePerThread = [4], threadsPerWarp = [32], warpsPerCTA = [4], order = [0]}>
#blocked2 = #ttg.blocked<{sizePerThread = [1], threadsPerWarp = [32], warpsPerCTA = [4], order = [0]}>
#blocked3 = #ttg.blocked<{sizePerThread = [1, 1], threadsPerWarp = [2, 16], warpsPerCTA = [1, 4], order = [0, 1]}>
#blocked4 = #ttg.blocked<{sizePerThread = [1, 2], threadsPerWarp = [32, 1], warpsPerCTA = [4, 1], order = [1, 0]}>
#blocked5 = #ttg.blocked<{sizePerThread = [1, 1], threadsPerWarp = [16, 2], warpsPerCTA = [4, 1], order = [1, 0]}>
#loc2 = loc("tmp_xdsl.ttir":3:6)
#loc3 = loc("tmp_xdsl.ttir":3:28)
#loc4 = loc("tmp_xdsl.ttir":3:50)
"builtin.module"() ({
  "tt.func"() <{arg_attrs = [{tt.divisibility = 16 : i32}, {tt.divisibility = 16 : i32}, {tt.divisibility = 16 : i32}], function_type = (!tt.ptr<f32>, !tt.ptr<f32>, i32) -> (), sym_name = "scalar_mult_duplicate", sym_visibility = "public"}> ({
  ^bb0(%arg0: !tt.ptr<f32> loc("tmp_xdsl.ttir":3:6), %arg1: !tt.ptr<f32> loc("tmp_xdsl.ttir":3:28), %arg2: i32 loc("tmp_xdsl.ttir":3:50)):
    %0 = "arith.constant"() <{value = 1024 : i32}> : () -> i32 loc(#loc5)
    %1 = "arith.constant"() <{value = 2 : i32}> : () -> i32 loc(#loc6)
    %2 = "arith.constant"() <{value = dense<4.000000e+00> : tensor<1x1024xf32, #blocked>}> : () -> tensor<1x1024xf32, #blocked> loc(#loc7)
    %3 = "tt.get_program_id"() <{axis = 0 : i32}> : () -> i32 loc(#loc8)
    %4 = "arith.muli"(%3, %0) <{overflowFlags = #arith.overflow<none>}> : (i32, i32) -> i32 loc(#loc9)
    %5 = "tt.make_range"() <{end = 1024 : i32, start = 0 : i32}> : () -> tensor<1024xi32, #blocked1> loc(#loc10)
    %6 = "tt.make_range"() <{end = 1024 : i32, start = 0 : i32}> : () -> tensor<1024xi32, #blocked2> loc(#loc10)
    %7 = "tt.splat"(%4) : (i32) -> tensor<1024xi32, #blocked1> loc(#loc11)
    %8 = "tt.splat"(%4) : (i32) -> tensor<1024xi32, #blocked2> loc(#loc11)
    %9 = "arith.addi"(%7, %5) <{overflowFlags = #arith.overflow<none>}> : (tensor<1024xi32, #blocked1>, tensor<1024xi32, #blocked1>) -> tensor<1024xi32, #blocked1> loc(#loc12)
    %10 = "arith.addi"(%8, %6) <{overflowFlags = #arith.overflow<none>}> : (tensor<1024xi32, #blocked2>, tensor<1024xi32, #blocked2>) -> tensor<1024xi32, #blocked2> loc(#loc12)
    %11 = "tt.splat"(%arg2) : (i32) -> tensor<1024xi32, #blocked1> loc(#loc13)
    %12 = "tt.splat"(%arg2) : (i32) -> tensor<1024xi32, #blocked2> loc(#loc13)
    %13 = "arith.cmpi"(%9, %11) <{predicate = 2 : i64}> : (tensor<1024xi32, #blocked1>, tensor<1024xi32, #blocked1>) -> tensor<1024xi1, #blocked1> loc(#loc14)
    %14 = "arith.cmpi"(%10, %12) <{predicate = 2 : i64}> : (tensor<1024xi32, #blocked2>, tensor<1024xi32, #blocked2>) -> tensor<1024xi1, #blocked2> loc(#loc14)
    %15 = "tt.splat"(%arg0) : (!tt.ptr<f32>) -> tensor<1024x!tt.ptr<f32>, #blocked1> loc(#loc15)
    %16 = "tt.addptr"(%15, %9) : (tensor<1024x!tt.ptr<f32>, #blocked1>, tensor<1024xi32, #blocked1>) -> tensor<1024x!tt.ptr<f32>, #blocked1> loc(#loc16)
    %17 = "tt.load"(%16, %13) <{boundaryCheck = array<i32>, cache = 1 : i32, evict = 1 : i32, isVolatile = false, operandSegmentSizes = array<i32: 1, 1, 0>}> : (tensor<1024x!tt.ptr<f32>, #blocked1>, tensor<1024xi1, #blocked1>) -> tensor<1024xf32, #blocked1> loc(#loc17)
    %18 = "tt.reshape"(%17) : (tensor<1024xf32, #blocked1>) -> tensor<1x1024xf32, #blocked> loc(#loc18)
    %19 = "arith.mulf"(%18, %2) <{fastmath = #arith.fastmath<none>}> : (tensor<1x1024xf32, #blocked>, tensor<1x1024xf32, #blocked>) -> tensor<1x1024xf32, #blocked> loc(#loc19)
    %20 = "ttg.convert_layout"(%19) : (tensor<1x1024xf32, #blocked>) -> tensor<1x1024xf32, #blocked3> loc(#loc20)
    %21 = "tt.broadcast"(%20) : (tensor<1x1024xf32, #blocked3>) -> tensor<2x1024xf32, #blocked3> loc(#loc20)
    %22 = "arith.addi"(%10, %12) <{overflowFlags = #arith.overflow<none>}> : (tensor<1024xi32, #blocked2>, tensor<1024xi32, #blocked2>) -> tensor<1024xi32, #blocked2> loc(#loc21)
    %23 = "arith.muli"(%arg2, %1) <{overflowFlags = #arith.overflow<none>}> : (i32, i32) -> i32 loc(#loc22)
    %24 = "tt.splat"(%23) : (i32) -> tensor<1024xi32, #blocked2> loc(#loc23)
    %25 = "arith.cmpi"(%22, %24) <{predicate = 2 : i64}> : (tensor<1024xi32, #blocked2>, tensor<1024xi32, #blocked2>) -> tensor<1024xi1, #blocked2> loc(#loc24)
    %26 = "tt.join"(%10, %22) : (tensor<1024xi32, #blocked2>, tensor<1024xi32, #blocked2>) -> tensor<1024x2xi32, #blocked4> loc(#loc25)
    %27 = "ttg.convert_layout"(%26) : (tensor<1024x2xi32, #blocked4>) -> tensor<1024x2xi32, #blocked5> loc(#loc26)
    %28 = "tt.trans"(%27) <{order = array<i32: 1, 0>}> : (tensor<1024x2xi32, #blocked5>) -> tensor<2x1024xi32, #blocked3> loc(#loc26)
    %29 = "tt.join"(%14, %25) : (tensor<1024xi1, #blocked2>, tensor<1024xi1, #blocked2>) -> tensor<1024x2xi1, #blocked4> loc(#loc27)
    %30 = "ttg.convert_layout"(%29) : (tensor<1024x2xi1, #blocked4>) -> tensor<1024x2xi1, #blocked5> loc(#loc28)
    %31 = "tt.trans"(%30) <{order = array<i32: 1, 0>}> : (tensor<1024x2xi1, #blocked5>) -> tensor<2x1024xi1, #blocked3> loc(#loc28)
    %32 = "tt.splat"(%arg1) : (!tt.ptr<f32>) -> tensor<2x1024x!tt.ptr<f32>, #blocked3> loc(#loc29)
    %33 = "tt.addptr"(%32, %28) : (tensor<2x1024x!tt.ptr<f32>, #blocked3>, tensor<2x1024xi32, #blocked3>) -> tensor<2x1024x!tt.ptr<f32>, #blocked3> loc(#loc30)
    "tt.store"(%33, %21, %31) <{boundaryCheck = array<i32>, cache = 1 : i32, evict = 1 : i32}> : (tensor<2x1024x!tt.ptr<f32>, #blocked3>, tensor<2x1024xf32, #blocked3>, tensor<2x1024xi1, #blocked3>) -> () loc(#loc31)
    "tt.return"() : () -> () loc(#loc32)
  }) {noinline = false} : () -> () loc(#loc1)
}) {"ttg.num-ctas" = 1 : i32, "ttg.num-warps" = 4 : i32, ttg.target = "cuda:89", "ttg.threads-per-warp" = 32 : i32} : () -> () loc(#loc)
#loc = loc("tmp_xdsl.ttir":0:0)
#loc1 = loc("tmp_xdsl.ttir":2:3)
#loc5 = loc(unknown)
#loc6 = loc("tmp_xdsl.ttir":4:10)
#loc7 = loc("tmp_xdsl.ttir":5:10)
#loc8 = loc("tmp_xdsl.ttir":7:10)
#loc9 = loc("tmp_xdsl.ttir":8:10)
#loc10 = loc("tmp_xdsl.ttir":9:10)
#loc11 = loc("tmp_xdsl.ttir":10:10)
#loc12 = loc("tmp_xdsl.ttir":11:10)
#loc13 = loc("tmp_xdsl.ttir":12:10)
#loc14 = loc("tmp_xdsl.ttir":13:10)
#loc15 = loc("tmp_xdsl.ttir":14:11)
#loc16 = loc("tmp_xdsl.ttir":15:11)
#loc17 = loc("tmp_xdsl.ttir":16:11)
#loc18 = loc("tmp_xdsl.ttir":17:11)
#loc19 = loc("tmp_xdsl.ttir":18:11)
#loc20 = loc("tmp_xdsl.ttir":19:11)
#loc21 = loc("tmp_xdsl.ttir":27:11)
#loc22 = loc("tmp_xdsl.ttir":30:11)
#loc23 = loc("tmp_xdsl.ttir":31:11)
#loc24 = loc("tmp_xdsl.ttir":32:11)
#loc25 = loc("tmp_xdsl.ttir":33:11)
#loc26 = loc("tmp_xdsl.ttir":34:11)
#loc27 = loc("tmp_xdsl.ttir":35:11)
#loc28 = loc("tmp_xdsl.ttir":36:11)
#loc29 = loc("tmp_xdsl.ttir":37:11)
#loc30 = loc("tmp_xdsl.ttir":38:11)
#loc31 = loc("tmp_xdsl.ttir":39:5)
#loc32 = loc("tmp_xdsl.ttir":40:5)


// -----// IR Dump Before CSE (cse) ('builtin.module' operation) //----- //
#blocked = #ttg.blocked<{sizePerThread = [1, 4], threadsPerWarp = [1, 32], warpsPerCTA = [1, 4], order = [1, 0]}>
#blocked1 = #ttg.blocked<{sizePerThread = [4], threadsPerWarp = [32], warpsPerCTA = [4], order = [0]}>
#blocked2 = #ttg.blocked<{sizePerThread = [1], threadsPerWarp = [32], warpsPerCTA = [4], order = [0]}>
#blocked3 = #ttg.blocked<{sizePerThread = [1, 1], threadsPerWarp = [2, 16], warpsPerCTA = [1, 4], order = [0, 1]}>
#blocked4 = #ttg.blocked<{sizePerThread = [1, 2], threadsPerWarp = [32, 1], warpsPerCTA = [4, 1], order = [1, 0]}>
#blocked5 = #ttg.blocked<{sizePerThread = [1, 1], threadsPerWarp = [16, 2], warpsPerCTA = [4, 1], order = [1, 0]}>
#loc2 = loc("tmp_xdsl.ttir":3:6)
#loc3 = loc("tmp_xdsl.ttir":3:28)
#loc4 = loc("tmp_xdsl.ttir":3:50)
"builtin.module"() ({
  "tt.func"() <{arg_attrs = [{tt.divisibility = 16 : i32}, {tt.divisibility = 16 : i32}, {tt.divisibility = 16 : i32}], function_type = (!tt.ptr<f32>, !tt.ptr<f32>, i32) -> (), sym_name = "scalar_mult_duplicate", sym_visibility = "public"}> ({
  ^bb0(%arg0: !tt.ptr<f32> loc("tmp_xdsl.ttir":3:6), %arg1: !tt.ptr<f32> loc("tmp_xdsl.ttir":3:28), %arg2: i32 loc("tmp_xdsl.ttir":3:50)):
    %0 = "arith.constant"() <{value = 1024 : i32}> : () -> i32 loc(#loc5)
    %1 = "arith.constant"() <{value = 2 : i32}> : () -> i32 loc(#loc6)
    %2 = "arith.constant"() <{value = dense<4.000000e+00> : tensor<1x1024xf32, #blocked>}> : () -> tensor<1x1024xf32, #blocked> loc(#loc7)
    %3 = "tt.get_program_id"() <{axis = 0 : i32}> : () -> i32 loc(#loc8)
    %4 = "arith.muli"(%3, %0) <{overflowFlags = #arith.overflow<none>}> : (i32, i32) -> i32 loc(#loc9)
    %5 = "tt.make_range"() <{end = 1024 : i32, start = 0 : i32}> : () -> tensor<1024xi32, #blocked1> loc(#loc10)
    %6 = "tt.make_range"() <{end = 1024 : i32, start = 0 : i32}> : () -> tensor<1024xi32, #blocked2> loc(#loc10)
    %7 = "tt.splat"(%4) : (i32) -> tensor<1024xi32, #blocked1> loc(#loc11)
    %8 = "tt.splat"(%4) : (i32) -> tensor<1024xi32, #blocked2> loc(#loc11)
    %9 = "arith.addi"(%7, %5) <{overflowFlags = #arith.overflow<none>}> : (tensor<1024xi32, #blocked1>, tensor<1024xi32, #blocked1>) -> tensor<1024xi32, #blocked1> loc(#loc12)
    %10 = "arith.addi"(%8, %6) <{overflowFlags = #arith.overflow<none>}> : (tensor<1024xi32, #blocked2>, tensor<1024xi32, #blocked2>) -> tensor<1024xi32, #blocked2> loc(#loc12)
    %11 = "tt.splat"(%arg2) : (i32) -> tensor<1024xi32, #blocked1> loc(#loc13)
    %12 = "tt.splat"(%arg2) : (i32) -> tensor<1024xi32, #blocked2> loc(#loc13)
    %13 = "arith.cmpi"(%9, %11) <{predicate = 2 : i64}> : (tensor<1024xi32, #blocked1>, tensor<1024xi32, #blocked1>) -> tensor<1024xi1, #blocked1> loc(#loc14)
    %14 = "arith.cmpi"(%10, %12) <{predicate = 2 : i64}> : (tensor<1024xi32, #blocked2>, tensor<1024xi32, #blocked2>) -> tensor<1024xi1, #blocked2> loc(#loc14)
    %15 = "tt.splat"(%arg0) : (!tt.ptr<f32>) -> tensor<1024x!tt.ptr<f32>, #blocked1> loc(#loc15)
    %16 = "tt.addptr"(%15, %9) : (tensor<1024x!tt.ptr<f32>, #blocked1>, tensor<1024xi32, #blocked1>) -> tensor<1024x!tt.ptr<f32>, #blocked1> loc(#loc16)
    %17 = "tt.load"(%16, %13) <{boundaryCheck = array<i32>, cache = 1 : i32, evict = 1 : i32, isVolatile = false, operandSegmentSizes = array<i32: 1, 1, 0>}> : (tensor<1024x!tt.ptr<f32>, #blocked1>, tensor<1024xi1, #blocked1>) -> tensor<1024xf32, #blocked1> loc(#loc17)
    %18 = "tt.reshape"(%17) : (tensor<1024xf32, #blocked1>) -> tensor<1x1024xf32, #blocked> loc(#loc18)
    %19 = "arith.mulf"(%18, %2) <{fastmath = #arith.fastmath<none>}> : (tensor<1x1024xf32, #blocked>, tensor<1x1024xf32, #blocked>) -> tensor<1x1024xf32, #blocked> loc(#loc19)
    %20 = "ttg.convert_layout"(%19) : (tensor<1x1024xf32, #blocked>) -> tensor<1x1024xf32, #blocked3> loc(#loc20)
    %21 = "tt.broadcast"(%20) : (tensor<1x1024xf32, #blocked3>) -> tensor<2x1024xf32, #blocked3> loc(#loc20)
    %22 = "arith.addi"(%10, %12) <{overflowFlags = #arith.overflow<none>}> : (tensor<1024xi32, #blocked2>, tensor<1024xi32, #blocked2>) -> tensor<1024xi32, #blocked2> loc(#loc21)
    %23 = "arith.muli"(%arg2, %1) <{overflowFlags = #arith.overflow<none>}> : (i32, i32) -> i32 loc(#loc22)
    %24 = "tt.splat"(%23) : (i32) -> tensor<1024xi32, #blocked2> loc(#loc23)
    %25 = "arith.cmpi"(%22, %24) <{predicate = 2 : i64}> : (tensor<1024xi32, #blocked2>, tensor<1024xi32, #blocked2>) -> tensor<1024xi1, #blocked2> loc(#loc24)
    %26 = "tt.join"(%10, %22) : (tensor<1024xi32, #blocked2>, tensor<1024xi32, #blocked2>) -> tensor<1024x2xi32, #blocked4> loc(#loc25)
    %27 = "ttg.convert_layout"(%26) : (tensor<1024x2xi32, #blocked4>) -> tensor<1024x2xi32, #blocked5> loc(#loc26)
    %28 = "tt.trans"(%27) <{order = array<i32: 1, 0>}> : (tensor<1024x2xi32, #blocked5>) -> tensor<2x1024xi32, #blocked3> loc(#loc26)
    %29 = "tt.join"(%14, %25) : (tensor<1024xi1, #blocked2>, tensor<1024xi1, #blocked2>) -> tensor<1024x2xi1, #blocked4> loc(#loc27)
    %30 = "ttg.convert_layout"(%29) : (tensor<1024x2xi1, #blocked4>) -> tensor<1024x2xi1, #blocked5> loc(#loc28)
    %31 = "tt.trans"(%30) <{order = array<i32: 1, 0>}> : (tensor<1024x2xi1, #blocked5>) -> tensor<2x1024xi1, #blocked3> loc(#loc28)
    %32 = "tt.splat"(%arg1) : (!tt.ptr<f32>) -> tensor<2x1024x!tt.ptr<f32>, #blocked3> loc(#loc29)
    %33 = "tt.addptr"(%32, %28) : (tensor<2x1024x!tt.ptr<f32>, #blocked3>, tensor<2x1024xi32, #blocked3>) -> tensor<2x1024x!tt.ptr<f32>, #blocked3> loc(#loc30)
    "tt.store"(%33, %21, %31) <{boundaryCheck = array<i32>, cache = 1 : i32, evict = 1 : i32}> : (tensor<2x1024x!tt.ptr<f32>, #blocked3>, tensor<2x1024xf32, #blocked3>, tensor<2x1024xi1, #blocked3>) -> () loc(#loc31)
    "tt.return"() : () -> () loc(#loc32)
  }) {noinline = false} : () -> () loc(#loc1)
}) {"ttg.num-ctas" = 1 : i32, "ttg.num-warps" = 4 : i32, ttg.target = "cuda:89", "ttg.threads-per-warp" = 32 : i32} : () -> () loc(#loc)
#loc = loc("tmp_xdsl.ttir":0:0)
#loc1 = loc("tmp_xdsl.ttir":2:3)
#loc5 = loc(unknown)
#loc6 = loc("tmp_xdsl.ttir":4:10)
#loc7 = loc("tmp_xdsl.ttir":5:10)
#loc8 = loc("tmp_xdsl.ttir":7:10)
#loc9 = loc("tmp_xdsl.ttir":8:10)
#loc10 = loc("tmp_xdsl.ttir":9:10)
#loc11 = loc("tmp_xdsl.ttir":10:10)
#loc12 = loc("tmp_xdsl.ttir":11:10)
#loc13 = loc("tmp_xdsl.ttir":12:10)
#loc14 = loc("tmp_xdsl.ttir":13:10)
#loc15 = loc("tmp_xdsl.ttir":14:11)
#loc16 = loc("tmp_xdsl.ttir":15:11)
#loc17 = loc("tmp_xdsl.ttir":16:11)
#loc18 = loc("tmp_xdsl.ttir":17:11)
#loc19 = loc("tmp_xdsl.ttir":18:11)
#loc20 = loc("tmp_xdsl.ttir":19:11)
#loc21 = loc("tmp_xdsl.ttir":27:11)
#loc22 = loc("tmp_xdsl.ttir":30:11)
#loc23 = loc("tmp_xdsl.ttir":31:11)
#loc24 = loc("tmp_xdsl.ttir":32:11)
#loc25 = loc("tmp_xdsl.ttir":33:11)
#loc26 = loc("tmp_xdsl.ttir":34:11)
#loc27 = loc("tmp_xdsl.ttir":35:11)
#loc28 = loc("tmp_xdsl.ttir":36:11)
#loc29 = loc("tmp_xdsl.ttir":37:11)
#loc30 = loc("tmp_xdsl.ttir":38:11)
#loc31 = loc("tmp_xdsl.ttir":39:5)
#loc32 = loc("tmp_xdsl.ttir":40:5)


// -----// IR Dump Before TritonGPUOptimizeAccumulatorInit (tritongpu-optimize-accumulator-init) ('builtin.module' operation) //----- //
#blocked = #ttg.blocked<{sizePerThread = [1, 4], threadsPerWarp = [1, 32], warpsPerCTA = [1, 4], order = [1, 0]}>
#blocked1 = #ttg.blocked<{sizePerThread = [4], threadsPerWarp = [32], warpsPerCTA = [4], order = [0]}>
#blocked2 = #ttg.blocked<{sizePerThread = [1], threadsPerWarp = [32], warpsPerCTA = [4], order = [0]}>
#blocked3 = #ttg.blocked<{sizePerThread = [1, 1], threadsPerWarp = [2, 16], warpsPerCTA = [1, 4], order = [0, 1]}>
#blocked4 = #ttg.blocked<{sizePerThread = [1, 2], threadsPerWarp = [32, 1], warpsPerCTA = [4, 1], order = [1, 0]}>
#blocked5 = #ttg.blocked<{sizePerThread = [1, 1], threadsPerWarp = [16, 2], warpsPerCTA = [4, 1], order = [1, 0]}>
#loc2 = loc("tmp_xdsl.ttir":3:6)
#loc3 = loc("tmp_xdsl.ttir":3:28)
#loc4 = loc("tmp_xdsl.ttir":3:50)
"builtin.module"() ({
  "tt.func"() <{arg_attrs = [{tt.divisibility = 16 : i32}, {tt.divisibility = 16 : i32}, {tt.divisibility = 16 : i32}], function_type = (!tt.ptr<f32>, !tt.ptr<f32>, i32) -> (), sym_name = "scalar_mult_duplicate", sym_visibility = "public"}> ({
  ^bb0(%arg0: !tt.ptr<f32> loc("tmp_xdsl.ttir":3:6), %arg1: !tt.ptr<f32> loc("tmp_xdsl.ttir":3:28), %arg2: i32 loc("tmp_xdsl.ttir":3:50)):
    %0 = "arith.constant"() <{value = 1024 : i32}> : () -> i32 loc(#loc5)
    %1 = "arith.constant"() <{value = 2 : i32}> : () -> i32 loc(#loc6)
    %2 = "arith.constant"() <{value = dense<4.000000e+00> : tensor<1x1024xf32, #blocked>}> : () -> tensor<1x1024xf32, #blocked> loc(#loc7)
    %3 = "tt.get_program_id"() <{axis = 0 : i32}> : () -> i32 loc(#loc8)
    %4 = "arith.muli"(%3, %0) <{overflowFlags = #arith.overflow<none>}> : (i32, i32) -> i32 loc(#loc9)
    %5 = "tt.make_range"() <{end = 1024 : i32, start = 0 : i32}> : () -> tensor<1024xi32, #blocked1> loc(#loc10)
    %6 = "tt.make_range"() <{end = 1024 : i32, start = 0 : i32}> : () -> tensor<1024xi32, #blocked2> loc(#loc10)
    %7 = "tt.splat"(%4) : (i32) -> tensor<1024xi32, #blocked1> loc(#loc11)
    %8 = "tt.splat"(%4) : (i32) -> tensor<1024xi32, #blocked2> loc(#loc11)
    %9 = "arith.addi"(%7, %5) <{overflowFlags = #arith.overflow<none>}> : (tensor<1024xi32, #blocked1>, tensor<1024xi32, #blocked1>) -> tensor<1024xi32, #blocked1> loc(#loc12)
    %10 = "arith.addi"(%8, %6) <{overflowFlags = #arith.overflow<none>}> : (tensor<1024xi32, #blocked2>, tensor<1024xi32, #blocked2>) -> tensor<1024xi32, #blocked2> loc(#loc12)
    %11 = "tt.splat"(%arg2) : (i32) -> tensor<1024xi32, #blocked1> loc(#loc13)
    %12 = "tt.splat"(%arg2) : (i32) -> tensor<1024xi32, #blocked2> loc(#loc13)
    %13 = "arith.cmpi"(%9, %11) <{predicate = 2 : i64}> : (tensor<1024xi32, #blocked1>, tensor<1024xi32, #blocked1>) -> tensor<1024xi1, #blocked1> loc(#loc14)
    %14 = "arith.cmpi"(%10, %12) <{predicate = 2 : i64}> : (tensor<1024xi32, #blocked2>, tensor<1024xi32, #blocked2>) -> tensor<1024xi1, #blocked2> loc(#loc14)
    %15 = "tt.splat"(%arg0) : (!tt.ptr<f32>) -> tensor<1024x!tt.ptr<f32>, #blocked1> loc(#loc15)
    %16 = "tt.addptr"(%15, %9) : (tensor<1024x!tt.ptr<f32>, #blocked1>, tensor<1024xi32, #blocked1>) -> tensor<1024x!tt.ptr<f32>, #blocked1> loc(#loc16)
    %17 = "tt.load"(%16, %13) <{boundaryCheck = array<i32>, cache = 1 : i32, evict = 1 : i32, isVolatile = false, operandSegmentSizes = array<i32: 1, 1, 0>}> : (tensor<1024x!tt.ptr<f32>, #blocked1>, tensor<1024xi1, #blocked1>) -> tensor<1024xf32, #blocked1> loc(#loc17)
    %18 = "tt.reshape"(%17) : (tensor<1024xf32, #blocked1>) -> tensor<1x1024xf32, #blocked> loc(#loc18)
    %19 = "arith.mulf"(%18, %2) <{fastmath = #arith.fastmath<none>}> : (tensor<1x1024xf32, #blocked>, tensor<1x1024xf32, #blocked>) -> tensor<1x1024xf32, #blocked> loc(#loc19)
    %20 = "ttg.convert_layout"(%19) : (tensor<1x1024xf32, #blocked>) -> tensor<1x1024xf32, #blocked3> loc(#loc20)
    %21 = "tt.broadcast"(%20) : (tensor<1x1024xf32, #blocked3>) -> tensor<2x1024xf32, #blocked3> loc(#loc20)
    %22 = "arith.addi"(%10, %12) <{overflowFlags = #arith.overflow<none>}> : (tensor<1024xi32, #blocked2>, tensor<1024xi32, #blocked2>) -> tensor<1024xi32, #blocked2> loc(#loc21)
    %23 = "arith.muli"(%arg2, %1) <{overflowFlags = #arith.overflow<none>}> : (i32, i32) -> i32 loc(#loc22)
    %24 = "tt.splat"(%23) : (i32) -> tensor<1024xi32, #blocked2> loc(#loc23)
    %25 = "arith.cmpi"(%22, %24) <{predicate = 2 : i64}> : (tensor<1024xi32, #blocked2>, tensor<1024xi32, #blocked2>) -> tensor<1024xi1, #blocked2> loc(#loc24)
    %26 = "tt.join"(%10, %22) : (tensor<1024xi32, #blocked2>, tensor<1024xi32, #blocked2>) -> tensor<1024x2xi32, #blocked4> loc(#loc25)
    %27 = "ttg.convert_layout"(%26) : (tensor<1024x2xi32, #blocked4>) -> tensor<1024x2xi32, #blocked5> loc(#loc26)
    %28 = "tt.trans"(%27) <{order = array<i32: 1, 0>}> : (tensor<1024x2xi32, #blocked5>) -> tensor<2x1024xi32, #blocked3> loc(#loc26)
    %29 = "tt.join"(%14, %25) : (tensor<1024xi1, #blocked2>, tensor<1024xi1, #blocked2>) -> tensor<1024x2xi1, #blocked4> loc(#loc27)
    %30 = "ttg.convert_layout"(%29) : (tensor<1024x2xi1, #blocked4>) -> tensor<1024x2xi1, #blocked5> loc(#loc28)
    %31 = "tt.trans"(%30) <{order = array<i32: 1, 0>}> : (tensor<1024x2xi1, #blocked5>) -> tensor<2x1024xi1, #blocked3> loc(#loc28)
    %32 = "tt.splat"(%arg1) : (!tt.ptr<f32>) -> tensor<2x1024x!tt.ptr<f32>, #blocked3> loc(#loc29)
    %33 = "tt.addptr"(%32, %28) : (tensor<2x1024x!tt.ptr<f32>, #blocked3>, tensor<2x1024xi32, #blocked3>) -> tensor<2x1024x!tt.ptr<f32>, #blocked3> loc(#loc30)
    "tt.store"(%33, %21, %31) <{boundaryCheck = array<i32>, cache = 1 : i32, evict = 1 : i32}> : (tensor<2x1024x!tt.ptr<f32>, #blocked3>, tensor<2x1024xf32, #blocked3>, tensor<2x1024xi1, #blocked3>) -> () loc(#loc31)
    "tt.return"() : () -> () loc(#loc32)
  }) {noinline = false} : () -> () loc(#loc1)
}) {"ttg.num-ctas" = 1 : i32, "ttg.num-warps" = 4 : i32, ttg.target = "cuda:89", "ttg.threads-per-warp" = 32 : i32} : () -> () loc(#loc)
#loc = loc("tmp_xdsl.ttir":0:0)
#loc1 = loc("tmp_xdsl.ttir":2:3)
#loc5 = loc(unknown)
#loc6 = loc("tmp_xdsl.ttir":4:10)
#loc7 = loc("tmp_xdsl.ttir":5:10)
#loc8 = loc("tmp_xdsl.ttir":7:10)
#loc9 = loc("tmp_xdsl.ttir":8:10)
#loc10 = loc("tmp_xdsl.ttir":9:10)
#loc11 = loc("tmp_xdsl.ttir":10:10)
#loc12 = loc("tmp_xdsl.ttir":11:10)
#loc13 = loc("tmp_xdsl.ttir":12:10)
#loc14 = loc("tmp_xdsl.ttir":13:10)
#loc15 = loc("tmp_xdsl.ttir":14:11)
#loc16 = loc("tmp_xdsl.ttir":15:11)
#loc17 = loc("tmp_xdsl.ttir":16:11)
#loc18 = loc("tmp_xdsl.ttir":17:11)
#loc19 = loc("tmp_xdsl.ttir":18:11)
#loc20 = loc("tmp_xdsl.ttir":19:11)
#loc21 = loc("tmp_xdsl.ttir":27:11)
#loc22 = loc("tmp_xdsl.ttir":30:11)
#loc23 = loc("tmp_xdsl.ttir":31:11)
#loc24 = loc("tmp_xdsl.ttir":32:11)
#loc25 = loc("tmp_xdsl.ttir":33:11)
#loc26 = loc("tmp_xdsl.ttir":34:11)
#loc27 = loc("tmp_xdsl.ttir":35:11)
#loc28 = loc("tmp_xdsl.ttir":36:11)
#loc29 = loc("tmp_xdsl.ttir":37:11)
#loc30 = loc("tmp_xdsl.ttir":38:11)
#loc31 = loc("tmp_xdsl.ttir":39:5)
#loc32 = loc("tmp_xdsl.ttir":40:5)


// -----// IR Dump Before TritonGPUCombineTensorSelectAndIf (tritongpu-combine-tensor-select-and-if) ('builtin.module' operation) //----- //
#blocked = #ttg.blocked<{sizePerThread = [1, 4], threadsPerWarp = [1, 32], warpsPerCTA = [1, 4], order = [1, 0]}>
#blocked1 = #ttg.blocked<{sizePerThread = [4], threadsPerWarp = [32], warpsPerCTA = [4], order = [0]}>
#blocked2 = #ttg.blocked<{sizePerThread = [1], threadsPerWarp = [32], warpsPerCTA = [4], order = [0]}>
#blocked3 = #ttg.blocked<{sizePerThread = [1, 1], threadsPerWarp = [2, 16], warpsPerCTA = [1, 4], order = [0, 1]}>
#blocked4 = #ttg.blocked<{sizePerThread = [1, 2], threadsPerWarp = [32, 1], warpsPerCTA = [4, 1], order = [1, 0]}>
#blocked5 = #ttg.blocked<{sizePerThread = [1, 1], threadsPerWarp = [16, 2], warpsPerCTA = [4, 1], order = [1, 0]}>
#loc2 = loc("tmp_xdsl.ttir":3:6)
#loc3 = loc("tmp_xdsl.ttir":3:28)
#loc4 = loc("tmp_xdsl.ttir":3:50)
"builtin.module"() ({
  "tt.func"() <{arg_attrs = [{tt.divisibility = 16 : i32}, {tt.divisibility = 16 : i32}, {tt.divisibility = 16 : i32}], function_type = (!tt.ptr<f32>, !tt.ptr<f32>, i32) -> (), sym_name = "scalar_mult_duplicate", sym_visibility = "public"}> ({
  ^bb0(%arg0: !tt.ptr<f32> loc("tmp_xdsl.ttir":3:6), %arg1: !tt.ptr<f32> loc("tmp_xdsl.ttir":3:28), %arg2: i32 loc("tmp_xdsl.ttir":3:50)):
    %0 = "arith.constant"() <{value = 1024 : i32}> : () -> i32 loc(#loc5)
    %1 = "arith.constant"() <{value = 2 : i32}> : () -> i32 loc(#loc6)
    %2 = "arith.constant"() <{value = dense<4.000000e+00> : tensor<1x1024xf32, #blocked>}> : () -> tensor<1x1024xf32, #blocked> loc(#loc7)
    %3 = "tt.get_program_id"() <{axis = 0 : i32}> : () -> i32 loc(#loc8)
    %4 = "arith.muli"(%3, %0) <{overflowFlags = #arith.overflow<none>}> : (i32, i32) -> i32 loc(#loc9)
    %5 = "tt.make_range"() <{end = 1024 : i32, start = 0 : i32}> : () -> tensor<1024xi32, #blocked1> loc(#loc10)
    %6 = "tt.make_range"() <{end = 1024 : i32, start = 0 : i32}> : () -> tensor<1024xi32, #blocked2> loc(#loc10)
    %7 = "tt.splat"(%4) : (i32) -> tensor<1024xi32, #blocked1> loc(#loc11)
    %8 = "tt.splat"(%4) : (i32) -> tensor<1024xi32, #blocked2> loc(#loc11)
    %9 = "arith.addi"(%7, %5) <{overflowFlags = #arith.overflow<none>}> : (tensor<1024xi32, #blocked1>, tensor<1024xi32, #blocked1>) -> tensor<1024xi32, #blocked1> loc(#loc12)
    %10 = "arith.addi"(%8, %6) <{overflowFlags = #arith.overflow<none>}> : (tensor<1024xi32, #blocked2>, tensor<1024xi32, #blocked2>) -> tensor<1024xi32, #blocked2> loc(#loc12)
    %11 = "tt.splat"(%arg2) : (i32) -> tensor<1024xi32, #blocked1> loc(#loc13)
    %12 = "tt.splat"(%arg2) : (i32) -> tensor<1024xi32, #blocked2> loc(#loc13)
    %13 = "arith.cmpi"(%9, %11) <{predicate = 2 : i64}> : (tensor<1024xi32, #blocked1>, tensor<1024xi32, #blocked1>) -> tensor<1024xi1, #blocked1> loc(#loc14)
    %14 = "arith.cmpi"(%10, %12) <{predicate = 2 : i64}> : (tensor<1024xi32, #blocked2>, tensor<1024xi32, #blocked2>) -> tensor<1024xi1, #blocked2> loc(#loc14)
    %15 = "tt.splat"(%arg0) : (!tt.ptr<f32>) -> tensor<1024x!tt.ptr<f32>, #blocked1> loc(#loc15)
    %16 = "tt.addptr"(%15, %9) : (tensor<1024x!tt.ptr<f32>, #blocked1>, tensor<1024xi32, #blocked1>) -> tensor<1024x!tt.ptr<f32>, #blocked1> loc(#loc16)
    %17 = "tt.load"(%16, %13) <{boundaryCheck = array<i32>, cache = 1 : i32, evict = 1 : i32, isVolatile = false, operandSegmentSizes = array<i32: 1, 1, 0>}> : (tensor<1024x!tt.ptr<f32>, #blocked1>, tensor<1024xi1, #blocked1>) -> tensor<1024xf32, #blocked1> loc(#loc17)
    %18 = "tt.reshape"(%17) : (tensor<1024xf32, #blocked1>) -> tensor<1x1024xf32, #blocked> loc(#loc18)
    %19 = "arith.mulf"(%18, %2) <{fastmath = #arith.fastmath<none>}> : (tensor<1x1024xf32, #blocked>, tensor<1x1024xf32, #blocked>) -> tensor<1x1024xf32, #blocked> loc(#loc19)
    %20 = "ttg.convert_layout"(%19) : (tensor<1x1024xf32, #blocked>) -> tensor<1x1024xf32, #blocked3> loc(#loc20)
    %21 = "tt.broadcast"(%20) : (tensor<1x1024xf32, #blocked3>) -> tensor<2x1024xf32, #blocked3> loc(#loc20)
    %22 = "arith.addi"(%10, %12) <{overflowFlags = #arith.overflow<none>}> : (tensor<1024xi32, #blocked2>, tensor<1024xi32, #blocked2>) -> tensor<1024xi32, #blocked2> loc(#loc21)
    %23 = "arith.muli"(%arg2, %1) <{overflowFlags = #arith.overflow<none>}> : (i32, i32) -> i32 loc(#loc22)
    %24 = "tt.splat"(%23) : (i32) -> tensor<1024xi32, #blocked2> loc(#loc23)
    %25 = "arith.cmpi"(%22, %24) <{predicate = 2 : i64}> : (tensor<1024xi32, #blocked2>, tensor<1024xi32, #blocked2>) -> tensor<1024xi1, #blocked2> loc(#loc24)
    %26 = "tt.join"(%10, %22) : (tensor<1024xi32, #blocked2>, tensor<1024xi32, #blocked2>) -> tensor<1024x2xi32, #blocked4> loc(#loc25)
    %27 = "ttg.convert_layout"(%26) : (tensor<1024x2xi32, #blocked4>) -> tensor<1024x2xi32, #blocked5> loc(#loc26)
    %28 = "tt.trans"(%27) <{order = array<i32: 1, 0>}> : (tensor<1024x2xi32, #blocked5>) -> tensor<2x1024xi32, #blocked3> loc(#loc26)
    %29 = "tt.join"(%14, %25) : (tensor<1024xi1, #blocked2>, tensor<1024xi1, #blocked2>) -> tensor<1024x2xi1, #blocked4> loc(#loc27)
    %30 = "ttg.convert_layout"(%29) : (tensor<1024x2xi1, #blocked4>) -> tensor<1024x2xi1, #blocked5> loc(#loc28)
    %31 = "tt.trans"(%30) <{order = array<i32: 1, 0>}> : (tensor<1024x2xi1, #blocked5>) -> tensor<2x1024xi1, #blocked3> loc(#loc28)
    %32 = "tt.splat"(%arg1) : (!tt.ptr<f32>) -> tensor<2x1024x!tt.ptr<f32>, #blocked3> loc(#loc29)
    %33 = "tt.addptr"(%32, %28) : (tensor<2x1024x!tt.ptr<f32>, #blocked3>, tensor<2x1024xi32, #blocked3>) -> tensor<2x1024x!tt.ptr<f32>, #blocked3> loc(#loc30)
    "tt.store"(%33, %21, %31) <{boundaryCheck = array<i32>, cache = 1 : i32, evict = 1 : i32}> : (tensor<2x1024x!tt.ptr<f32>, #blocked3>, tensor<2x1024xf32, #blocked3>, tensor<2x1024xi1, #blocked3>) -> () loc(#loc31)
    "tt.return"() : () -> () loc(#loc32)
  }) {noinline = false} : () -> () loc(#loc1)
}) {"ttg.num-ctas" = 1 : i32, "ttg.num-warps" = 4 : i32, ttg.target = "cuda:89", "ttg.threads-per-warp" = 32 : i32} : () -> () loc(#loc)
#loc = loc("tmp_xdsl.ttir":0:0)
#loc1 = loc("tmp_xdsl.ttir":2:3)
#loc5 = loc(unknown)
#loc6 = loc("tmp_xdsl.ttir":4:10)
#loc7 = loc("tmp_xdsl.ttir":5:10)
#loc8 = loc("tmp_xdsl.ttir":7:10)
#loc9 = loc("tmp_xdsl.ttir":8:10)
#loc10 = loc("tmp_xdsl.ttir":9:10)
#loc11 = loc("tmp_xdsl.ttir":10:10)
#loc12 = loc("tmp_xdsl.ttir":11:10)
#loc13 = loc("tmp_xdsl.ttir":12:10)
#loc14 = loc("tmp_xdsl.ttir":13:10)
#loc15 = loc("tmp_xdsl.ttir":14:11)
#loc16 = loc("tmp_xdsl.ttir":15:11)
#loc17 = loc("tmp_xdsl.ttir":16:11)
#loc18 = loc("tmp_xdsl.ttir":17:11)
#loc19 = loc("tmp_xdsl.ttir":18:11)
#loc20 = loc("tmp_xdsl.ttir":19:11)
#loc21 = loc("tmp_xdsl.ttir":27:11)
#loc22 = loc("tmp_xdsl.ttir":30:11)
#loc23 = loc("tmp_xdsl.ttir":31:11)
#loc24 = loc("tmp_xdsl.ttir":32:11)
#loc25 = loc("tmp_xdsl.ttir":33:11)
#loc26 = loc("tmp_xdsl.ttir":34:11)
#loc27 = loc("tmp_xdsl.ttir":35:11)
#loc28 = loc("tmp_xdsl.ttir":36:11)
#loc29 = loc("tmp_xdsl.ttir":37:11)
#loc30 = loc("tmp_xdsl.ttir":38:11)
#loc31 = loc("tmp_xdsl.ttir":39:5)
#loc32 = loc("tmp_xdsl.ttir":40:5)


// -----// IR Dump Before TritonGPULoopScheduling (tritongpu-loop-scheduling) ('builtin.module' operation) //----- //
#blocked = #ttg.blocked<{sizePerThread = [1, 4], threadsPerWarp = [1, 32], warpsPerCTA = [1, 4], order = [1, 0]}>
#blocked1 = #ttg.blocked<{sizePerThread = [4], threadsPerWarp = [32], warpsPerCTA = [4], order = [0]}>
#blocked2 = #ttg.blocked<{sizePerThread = [1], threadsPerWarp = [32], warpsPerCTA = [4], order = [0]}>
#blocked3 = #ttg.blocked<{sizePerThread = [1, 1], threadsPerWarp = [2, 16], warpsPerCTA = [1, 4], order = [0, 1]}>
#blocked4 = #ttg.blocked<{sizePerThread = [1, 2], threadsPerWarp = [32, 1], warpsPerCTA = [4, 1], order = [1, 0]}>
#blocked5 = #ttg.blocked<{sizePerThread = [1, 1], threadsPerWarp = [16, 2], warpsPerCTA = [4, 1], order = [1, 0]}>
#loc2 = loc("tmp_xdsl.ttir":3:6)
#loc3 = loc("tmp_xdsl.ttir":3:28)
#loc4 = loc("tmp_xdsl.ttir":3:50)
"builtin.module"() ({
  "tt.func"() <{arg_attrs = [{tt.divisibility = 16 : i32}, {tt.divisibility = 16 : i32}, {tt.divisibility = 16 : i32}], function_type = (!tt.ptr<f32>, !tt.ptr<f32>, i32) -> (), sym_name = "scalar_mult_duplicate", sym_visibility = "public"}> ({
  ^bb0(%arg0: !tt.ptr<f32> loc("tmp_xdsl.ttir":3:6), %arg1: !tt.ptr<f32> loc("tmp_xdsl.ttir":3:28), %arg2: i32 loc("tmp_xdsl.ttir":3:50)):
    %0 = "arith.constant"() <{value = 1024 : i32}> : () -> i32 loc(#loc5)
    %1 = "arith.constant"() <{value = 2 : i32}> : () -> i32 loc(#loc6)
    %2 = "arith.constant"() <{value = dense<4.000000e+00> : tensor<1x1024xf32, #blocked>}> : () -> tensor<1x1024xf32, #blocked> loc(#loc7)
    %3 = "tt.get_program_id"() <{axis = 0 : i32}> : () -> i32 loc(#loc8)
    %4 = "arith.muli"(%3, %0) <{overflowFlags = #arith.overflow<none>}> : (i32, i32) -> i32 loc(#loc9)
    %5 = "tt.make_range"() <{end = 1024 : i32, start = 0 : i32}> : () -> tensor<1024xi32, #blocked1> loc(#loc10)
    %6 = "tt.make_range"() <{end = 1024 : i32, start = 0 : i32}> : () -> tensor<1024xi32, #blocked2> loc(#loc10)
    %7 = "tt.splat"(%4) : (i32) -> tensor<1024xi32, #blocked1> loc(#loc11)
    %8 = "tt.splat"(%4) : (i32) -> tensor<1024xi32, #blocked2> loc(#loc11)
    %9 = "arith.addi"(%7, %5) <{overflowFlags = #arith.overflow<none>}> : (tensor<1024xi32, #blocked1>, tensor<1024xi32, #blocked1>) -> tensor<1024xi32, #blocked1> loc(#loc12)
    %10 = "arith.addi"(%8, %6) <{overflowFlags = #arith.overflow<none>}> : (tensor<1024xi32, #blocked2>, tensor<1024xi32, #blocked2>) -> tensor<1024xi32, #blocked2> loc(#loc12)
    %11 = "tt.splat"(%arg2) : (i32) -> tensor<1024xi32, #blocked1> loc(#loc13)
    %12 = "tt.splat"(%arg2) : (i32) -> tensor<1024xi32, #blocked2> loc(#loc13)
    %13 = "arith.cmpi"(%9, %11) <{predicate = 2 : i64}> : (tensor<1024xi32, #blocked1>, tensor<1024xi32, #blocked1>) -> tensor<1024xi1, #blocked1> loc(#loc14)
    %14 = "arith.cmpi"(%10, %12) <{predicate = 2 : i64}> : (tensor<1024xi32, #blocked2>, tensor<1024xi32, #blocked2>) -> tensor<1024xi1, #blocked2> loc(#loc14)
    %15 = "tt.splat"(%arg0) : (!tt.ptr<f32>) -> tensor<1024x!tt.ptr<f32>, #blocked1> loc(#loc15)
    %16 = "tt.addptr"(%15, %9) : (tensor<1024x!tt.ptr<f32>, #blocked1>, tensor<1024xi32, #blocked1>) -> tensor<1024x!tt.ptr<f32>, #blocked1> loc(#loc16)
    %17 = "tt.load"(%16, %13) <{boundaryCheck = array<i32>, cache = 1 : i32, evict = 1 : i32, isVolatile = false, operandSegmentSizes = array<i32: 1, 1, 0>}> : (tensor<1024x!tt.ptr<f32>, #blocked1>, tensor<1024xi1, #blocked1>) -> tensor<1024xf32, #blocked1> loc(#loc17)
    %18 = "tt.reshape"(%17) : (tensor<1024xf32, #blocked1>) -> tensor<1x1024xf32, #blocked> loc(#loc18)
    %19 = "arith.mulf"(%18, %2) <{fastmath = #arith.fastmath<none>}> : (tensor<1x1024xf32, #blocked>, tensor<1x1024xf32, #blocked>) -> tensor<1x1024xf32, #blocked> loc(#loc19)
    %20 = "ttg.convert_layout"(%19) : (tensor<1x1024xf32, #blocked>) -> tensor<1x1024xf32, #blocked3> loc(#loc20)
    %21 = "tt.broadcast"(%20) : (tensor<1x1024xf32, #blocked3>) -> tensor<2x1024xf32, #blocked3> loc(#loc20)
    %22 = "arith.addi"(%10, %12) <{overflowFlags = #arith.overflow<none>}> : (tensor<1024xi32, #blocked2>, tensor<1024xi32, #blocked2>) -> tensor<1024xi32, #blocked2> loc(#loc21)
    %23 = "arith.muli"(%arg2, %1) <{overflowFlags = #arith.overflow<none>}> : (i32, i32) -> i32 loc(#loc22)
    %24 = "tt.splat"(%23) : (i32) -> tensor<1024xi32, #blocked2> loc(#loc23)
    %25 = "arith.cmpi"(%22, %24) <{predicate = 2 : i64}> : (tensor<1024xi32, #blocked2>, tensor<1024xi32, #blocked2>) -> tensor<1024xi1, #blocked2> loc(#loc24)
    %26 = "tt.join"(%10, %22) : (tensor<1024xi32, #blocked2>, tensor<1024xi32, #blocked2>) -> tensor<1024x2xi32, #blocked4> loc(#loc25)
    %27 = "ttg.convert_layout"(%26) : (tensor<1024x2xi32, #blocked4>) -> tensor<1024x2xi32, #blocked5> loc(#loc26)
    %28 = "tt.trans"(%27) <{order = array<i32: 1, 0>}> : (tensor<1024x2xi32, #blocked5>) -> tensor<2x1024xi32, #blocked3> loc(#loc26)
    %29 = "tt.join"(%14, %25) : (tensor<1024xi1, #blocked2>, tensor<1024xi1, #blocked2>) -> tensor<1024x2xi1, #blocked4> loc(#loc27)
    %30 = "ttg.convert_layout"(%29) : (tensor<1024x2xi1, #blocked4>) -> tensor<1024x2xi1, #blocked5> loc(#loc28)
    %31 = "tt.trans"(%30) <{order = array<i32: 1, 0>}> : (tensor<1024x2xi1, #blocked5>) -> tensor<2x1024xi1, #blocked3> loc(#loc28)
    %32 = "tt.splat"(%arg1) : (!tt.ptr<f32>) -> tensor<2x1024x!tt.ptr<f32>, #blocked3> loc(#loc29)
    %33 = "tt.addptr"(%32, %28) : (tensor<2x1024x!tt.ptr<f32>, #blocked3>, tensor<2x1024xi32, #blocked3>) -> tensor<2x1024x!tt.ptr<f32>, #blocked3> loc(#loc30)
    "tt.store"(%33, %21, %31) <{boundaryCheck = array<i32>, cache = 1 : i32, evict = 1 : i32}> : (tensor<2x1024x!tt.ptr<f32>, #blocked3>, tensor<2x1024xf32, #blocked3>, tensor<2x1024xi1, #blocked3>) -> () loc(#loc31)
    "tt.return"() : () -> () loc(#loc32)
  }) {noinline = false} : () -> () loc(#loc1)
}) {"ttg.num-ctas" = 1 : i32, "ttg.num-warps" = 4 : i32, ttg.target = "cuda:89", "ttg.threads-per-warp" = 32 : i32} : () -> () loc(#loc)
#loc = loc("tmp_xdsl.ttir":0:0)
#loc1 = loc("tmp_xdsl.ttir":2:3)
#loc5 = loc(unknown)
#loc6 = loc("tmp_xdsl.ttir":4:10)
#loc7 = loc("tmp_xdsl.ttir":5:10)
#loc8 = loc("tmp_xdsl.ttir":7:10)
#loc9 = loc("tmp_xdsl.ttir":8:10)
#loc10 = loc("tmp_xdsl.ttir":9:10)
#loc11 = loc("tmp_xdsl.ttir":10:10)
#loc12 = loc("tmp_xdsl.ttir":11:10)
#loc13 = loc("tmp_xdsl.ttir":12:10)
#loc14 = loc("tmp_xdsl.ttir":13:10)
…
    %229 = "llvm.getelementptr"(%9, %228) <{elem_type = f32, inbounds, rawConstantIndices = array<i32: -2147483648>}> : (!llvm.ptr<3>, i32) -> !llvm.ptr<3> loc(#loc15)
    %230 = "llvm.load"(%229) <{ordering = 0 : i64}> : (!llvm.ptr<3>) -> i32 loc(#loc15)
    %231 = "llvm.insertelement"(%6, %230, %23) : (vector<1xi32>, i32, i32) -> vector<1xi32> loc(#loc15)
    %232 = "llvm.extractelement"(%231, %23) : (vector<1xi32>, i32) -> i32 loc(#loc15)
    %233 = "llvm.bitcast"(%232) : (i32) -> f32 loc(#loc15)
    %234 = "llvm.insertelement"(%8, %233, %23) : (vector<1xf32>, f32, i32) -> vector<1xf32> loc(#loc15)
    %235 = "llvm.extractelement"(%234, %23) : (vector<1xf32>, i32) -> f32 loc(#loc15)
    %236 = "llvm.xor"(%163, %5) : (i32, i32) -> i32 loc(#loc15)
    %237 = "llvm.lshr"(%236, %23) : (i32, i32) -> i32 loc(#loc15)
    %238 = "llvm.shl"(%237, %23) <{overflowFlags = #llvm.overflow<none>}> : (i32, i32) -> i32 loc(#loc15)
    %239 = "llvm.add"(%238, %236) <{overflowFlags = #llvm.overflow<none>}> : (i32, i32) -> i32 loc(#loc15)
    %240 = "llvm.getelementptr"(%9, %239) <{elem_type = f32, inbounds, rawConstantIndices = array<i32: -2147483648>}> : (!llvm.ptr<3>, i32) -> !llvm.ptr<3> loc(#loc15)
    %241 = "llvm.load"(%240) <{ordering = 0 : i64}> : (!llvm.ptr<3>) -> i32 loc(#loc15)
    %242 = "llvm.insertelement"(%6, %241, %23) : (vector<1xi32>, i32, i32) -> vector<1xi32> loc(#loc15)
    %243 = "llvm.extractelement"(%242, %23) : (vector<1xi32>, i32) -> i32 loc(#loc15)
    %244 = "llvm.bitcast"(%243) : (i32) -> f32 loc(#loc15)
    %245 = "llvm.insertelement"(%8, %244, %23) : (vector<1xf32>, f32, i32) -> vector<1xf32> loc(#loc15)
    %246 = "llvm.extractelement"(%245, %23) : (vector<1xf32>, i32) -> f32 loc(#loc15)
    %247 = "llvm.xor"(%163, %16) : (i32, i32) -> i32 loc(#loc15)
    %248 = "llvm.lshr"(%247, %23) : (i32, i32) -> i32 loc(#loc15)
    %249 = "llvm.shl"(%248, %23) <{overflowFlags = #llvm.overflow<none>}> : (i32, i32) -> i32 loc(#loc15)
    %250 = "llvm.add"(%249, %247) <{overflowFlags = #llvm.overflow<none>}> : (i32, i32) -> i32 loc(#loc15)
    %251 = "llvm.getelementptr"(%9, %250) <{elem_type = f32, inbounds, rawConstantIndices = array<i32: -2147483648>}> : (!llvm.ptr<3>, i32) -> !llvm.ptr<3> loc(#loc15)
    %252 = "llvm.load"(%251) <{ordering = 0 : i64}> : (!llvm.ptr<3>) -> i32 loc(#loc15)
    %253 = "llvm.insertelement"(%6, %252, %23) : (vector<1xi32>, i32, i32) -> vector<1xi32> loc(#loc15)
    %254 = "llvm.extractelement"(%253, %23) : (vector<1xi32>, i32) -> i32 loc(#loc15)
    %255 = "llvm.bitcast"(%254) : (i32) -> f32 loc(#loc15)
    %256 = "llvm.insertelement"(%8, %255, %23) : (vector<1xf32>, f32, i32) -> vector<1xf32> loc(#loc15)
    %257 = "llvm.extractelement"(%256, %23) : (vector<1xf32>, i32) -> f32 loc(#loc15)
    %258 = "llvm.xor"(%163, %4) : (i32, i32) -> i32 loc(#loc15)
    %259 = "llvm.lshr"(%258, %23) : (i32, i32) -> i32 loc(#loc15)
    %260 = "llvm.shl"(%259, %23) <{overflowFlags = #llvm.overflow<none>}> : (i32, i32) -> i32 loc(#loc15)
    %261 = "llvm.add"(%260, %258) <{overflowFlags = #llvm.overflow<none>}> : (i32, i32) -> i32 loc(#loc15)
    %262 = "llvm.getelementptr"(%9, %261) <{elem_type = f32, inbounds, rawConstantIndices = array<i32: -2147483648>}> : (!llvm.ptr<3>, i32) -> !llvm.ptr<3> loc(#loc15)
    %263 = "llvm.load"(%262) <{ordering = 0 : i64}> : (!llvm.ptr<3>) -> i32 loc(#loc15)
    %264 = "llvm.insertelement"(%6, %263, %23) : (vector<1xi32>, i32, i32) -> vector<1xi32> loc(#loc15)
    %265 = "llvm.extractelement"(%264, %23) : (vector<1xi32>, i32) -> i32 loc(#loc15)
    %266 = "llvm.bitcast"(%265) : (i32) -> f32 loc(#loc15)
    %267 = "llvm.insertelement"(%8, %266, %23) : (vector<1xf32>, f32, i32) -> vector<1xf32> loc(#loc15)
    %268 = "llvm.extractelement"(%267, %23) : (vector<1xf32>, i32) -> f32 loc(#loc15)
    %269 = "llvm.xor"(%163, %13) : (i32, i32) -> i32 loc(#loc15)
    %270 = "llvm.lshr"(%269, %23) : (i32, i32) -> i32 loc(#loc15)
    %271 = "llvm.shl"(%270, %23) <{overflowFlags = #llvm.overflow<none>}> : (i32, i32) -> i32 loc(#loc15)
    %272 = "llvm.add"(%271, %269) <{overflowFlags = #llvm.overflow<none>}> : (i32, i32) -> i32 loc(#loc15)
    %273 = "llvm.getelementptr"(%9, %272) <{elem_type = f32, inbounds, rawConstantIndices = array<i32: -2147483648>}> : (!llvm.ptr<3>, i32) -> !llvm.ptr<3> loc(#loc15)
    %274 = "llvm.load"(%273) <{ordering = 0 : i64}> : (!llvm.ptr<3>) -> i32 loc(#loc15)
    %275 = "llvm.insertelement"(%6, %274, %23) : (vector<1xi32>, i32, i32) -> vector<1xi32> loc(#loc15)
    %276 = "llvm.extractelement"(%275, %23) : (vector<1xi32>, i32) -> i32 loc(#loc15)
    %277 = "llvm.bitcast"(%276) : (i32) -> f32 loc(#loc15)
    %278 = "llvm.insertelement"(%8, %277, %23) : (vector<1xf32>, f32, i32) -> vector<1xf32> loc(#loc15)
    %279 = "llvm.extractelement"(%278, %23) : (vector<1xf32>, i32) -> f32 loc(#loc15)
    %280 = "llvm.xor"(%163, %3) : (i32, i32) -> i32 loc(#loc15)
    %281 = "llvm.lshr"(%280, %23) : (i32, i32) -> i32 loc(#loc15)
    %282 = "llvm.shl"(%281, %23) <{overflowFlags = #llvm.overflow<none>}> : (i32, i32) -> i32 loc(#loc15)
    %283 = "llvm.add"(%282, %280) <{overflowFlags = #llvm.overflow<none>}> : (i32, i32) -> i32 loc(#loc15)
    %284 = "llvm.getelementptr"(%9, %283) <{elem_type = f32, inbounds, rawConstantIndices = array<i32: -2147483648>}> : (!llvm.ptr<3>, i32) -> !llvm.ptr<3> loc(#loc15)
    %285 = "llvm.load"(%284) <{ordering = 0 : i64}> : (!llvm.ptr<3>) -> i32 loc(#loc15)
    %286 = "llvm.insertelement"(%6, %285, %23) : (vector<1xi32>, i32, i32) -> vector<1xi32> loc(#loc15)
    %287 = "llvm.extractelement"(%286, %23) : (vector<1xi32>, i32) -> i32 loc(#loc15)
    %288 = "llvm.bitcast"(%287) : (i32) -> f32 loc(#loc15)
    %289 = "llvm.insertelement"(%8, %288, %23) : (vector<1xf32>, f32, i32) -> vector<1xf32> loc(#loc15)
    %290 = "llvm.extractelement"(%289, %23) : (vector<1xf32>, i32) -> f32 loc(#loc15)
    "nvvm.barrier0"() : () -> () loc(#loc15)
    %291 = "llvm.insertelement"(%8, %148, %23) : (vector<1xf32>, f32, i32) -> vector<1xf32> loc(#loc15)
    %292 = "llvm.extractelement"(%291, %23) : (vector<1xf32>, i32) -> f32 loc(#loc15)
    %293 = "llvm.bitcast"(%292) : (f32) -> i32 loc(#loc15)
    %294 = "llvm.insertelement"(%6, %293, %23) : (vector<1xi32>, i32, i32) -> vector<1xi32> loc(#loc15)
    %295 = "llvm.inline_asm"(%167, %294, %7) <{asm_dialect = 0 : i64, asm_string = "@$2 st.shared.b32 [ $0 + 0 ], $1;", constraints = "r,r,b", has_side_effects, operand_attrs = []}> : (!llvm.ptr<3>, vector<1xi32>, i1) -> !llvm.void loc(#loc15)
    %296 = "llvm.insertelement"(%8, %149, %23) : (vector<1xf32>, f32, i32) -> vector<1xf32> loc(#loc15)
    %297 = "llvm.extractelement"(%296, %23) : (vector<1xf32>, i32) -> f32 loc(#loc15)
    %298 = "llvm.bitcast"(%297) : (f32) -> i32 loc(#loc15)
    %299 = "llvm.insertelement"(%6, %298, %23) : (vector<1xi32>, i32, i32) -> vector<1xi32> loc(#loc15)
    %300 = "llvm.inline_asm"(%177, %299, %7) <{asm_dialect = 0 : i64, asm_string = "@$2 st.shared.b32 [ $0 + 0 ], $1;", constraints = "r,r,b", has_side_effects, operand_attrs = []}> : (!llvm.ptr<3>, vector<1xi32>, i1) -> !llvm.void loc(#loc15)
    %301 = "llvm.insertelement"(%8, %150, %23) : (vector<1xf32>, f32, i32) -> vector<1xf32> loc(#loc15)
    %302 = "llvm.extractelement"(%301, %23) : (vector<1xf32>, i32) -> f32 loc(#loc15)
    %303 = "llvm.bitcast"(%302) : (f32) -> i32 loc(#loc15)
    %304 = "llvm.insertelement"(%6, %303, %23) : (vector<1xi32>, i32, i32) -> vector<1xi32> loc(#loc15)
    %305 = "llvm.inline_asm"(%187, %304, %7) <{asm_dialect = 0 : i64, asm_string = "@$2 st.shared.b32 [ $0 + 0 ], $1;", constraints = "r,r,b", has_side_effects, operand_attrs = []}> : (!llvm.ptr<3>, vector<1xi32>, i1) -> !llvm.void loc(#loc15)
    %306 = "llvm.insertelement"(%8, %151, %23) : (vector<1xf32>, f32, i32) -> vector<1xf32> loc(#loc15)
    %307 = "llvm.extractelement"(%306, %23) : (vector<1xf32>, i32) -> f32 loc(#loc15)
    %308 = "llvm.bitcast"(%307) : (f32) -> i32 loc(#loc15)
    %309 = "llvm.insertelement"(%6, %308, %23) : (vector<1xi32>, i32, i32) -> vector<1xi32> loc(#loc15)
    %310 = "llvm.inline_asm"(%197, %309, %7) <{asm_dialect = 0 : i64, asm_string = "@$2 st.shared.b32 [ $0 + 0 ], $1;", constraints = "r,r,b", has_side_effects, operand_attrs = []}> : (!llvm.ptr<3>, vector<1xi32>, i1) -> !llvm.void loc(#loc15)
    "nvvm.barrier0"() : () -> () loc(#loc15)
    %311 = "llvm.load"(%207) <{ordering = 0 : i64}> : (!llvm.ptr<3>) -> i32 loc(#loc15)
    %312 = "llvm.insertelement"(%6, %311, %23) : (vector<1xi32>, i32, i32) -> vector<1xi32> loc(#loc15)
    %313 = "llvm.extractelement"(%312, %23) : (vector<1xi32>, i32) -> i32 loc(#loc15)
    %314 = "llvm.bitcast"(%313) : (i32) -> f32 loc(#loc15)
    %315 = "llvm.insertelement"(%8, %314, %23) : (vector<1xf32>, f32, i32) -> vector<1xf32> loc(#loc15)
    %316 = "llvm.extractelement"(%315, %23) : (vector<1xf32>, i32) -> f32 loc(#loc15)
    %317 = "llvm.load"(%218) <{ordering = 0 : i64}> : (!llvm.ptr<3>) -> i32 loc(#loc15)
    %318 = "llvm.insertelement"(%6, %317, %23) : (vector<1xi32>, i32, i32) -> vector<1xi32> loc(#loc15)
    %319 = "llvm.extractelement"(%318, %23) : (vector<1xi32>, i32) -> i32 loc(#loc15)
    %320 = "llvm.bitcast"(%319) : (i32) -> f32 loc(#loc15)
    %321 = "llvm.insertelement"(%8, %320, %23) : (vector<1xf32>, f32, i32) -> vector<1xf32> loc(#loc15)
    %322 = "llvm.extractelement"(%321, %23) : (vector<1xf32>, i32) -> f32 loc(#loc15)
    %323 = "llvm.load"(%229) <{ordering = 0 : i64}> : (!llvm.ptr<3>) -> i32 loc(#loc15)
    %324 = "llvm.insertelement"(%6, %323, %23) : (vector<1xi32>, i32, i32) -> vector<1xi32> loc(#loc15)
    %325 = "llvm.extractelement"(%324, %23) : (vector<1xi32>, i32) -> i32 loc(#loc15)
    %326 = "llvm.bitcast"(%325) : (i32) -> f32 loc(#loc15)
    %327 = "llvm.insertelement"(%8, %326, %23) : (vector<1xf32>, f32, i32) -> vector<1xf32> loc(#loc15)
    %328 = "llvm.extractelement"(%327, %23) : (vector<1xf32>, i32) -> f32 loc(#loc15)
    %329 = "llvm.load"(%240) <{ordering = 0 : i64}> : (!llvm.ptr<3>) -> i32 loc(#loc15)
    %330 = "llvm.insertelement"(%6, %329, %23) : (vector<1xi32>, i32, i32) -> vector<1xi32> loc(#loc15)
    %331 = "llvm.extractelement"(%330, %23) : (vector<1xi32>, i32) -> i32 loc(#loc15)
    %332 = "llvm.bitcast"(%331) : (i32) -> f32 loc(#loc15)
    %333 = "llvm.insertelement"(%8, %332, %23) : (vector<1xf32>, f32, i32) -> vector<1xf32> loc(#loc15)
    %334 = "llvm.extractelement"(%333, %23) : (vector<1xf32>, i32) -> f32 loc(#loc15)
    %335 = "llvm.load"(%251) <{ordering = 0 : i64}> : (!llvm.ptr<3>) -> i32 loc(#loc15)
    %336 = "llvm.insertelement"(%6, %335, %23) : (vector<1xi32>, i32, i32) -> vector<1xi32> loc(#loc15)
    %337 = "llvm.extractelement"(%336, %23) : (vector<1xi32>, i32) -> i32 loc(#loc15)
    %338 = "llvm.bitcast"(%337) : (i32) -> f32 loc(#loc15)
    %339 = "llvm.insertelement"(%8, %338, %23) : (vector<1xf32>, f32, i32) -> vector<1xf32> loc(#loc15)
    %340 = "llvm.extractelement"(%339, %23) : (vector<1xf32>, i32) -> f32 loc(#loc15)
    %341 = "llvm.load"(%262) <{ordering = 0 : i64}> : (!llvm.ptr<3>) -> i32 loc(#loc15)
    %342 = "llvm.insertelement"(%6, %341, %23) : (vector<1xi32>, i32, i32) -> vector<1xi32> loc(#loc15)
    %343 = "llvm.extractelement"(%342, %23) : (vector<1xi32>, i32) -> i32 loc(#loc15)
    %344 = "llvm.bitcast"(%343) : (i32) -> f32 loc(#loc15)
    %345 = "llvm.insertelement"(%8, %344, %23) : (vector<1xf32>, f32, i32) -> vector<1xf32> loc(#loc15)
    %346 = "llvm.extractelement"(%345, %23) : (vector<1xf32>, i32) -> f32 loc(#loc15)
    %347 = "llvm.load"(%273) <{ordering = 0 : i64}> : (!llvm.ptr<3>) -> i32 loc(#loc15)
    %348 = "llvm.insertelement"(%6, %347, %23) : (vector<1xi32>, i32, i32) -> vector<1xi32> loc(#loc15)
    %349 = "llvm.extractelement"(%348, %23) : (vector<1xi32>, i32) -> i32 loc(#loc15)
    %350 = "llvm.bitcast"(%349) : (i32) -> f32 loc(#loc15)
    %351 = "llvm.insertelement"(%8, %350, %23) : (vector<1xf32>, f32, i32) -> vector<1xf32> loc(#loc15)
    %352 = "llvm.extractelement"(%351, %23) : (vector<1xf32>, i32) -> f32 loc(#loc15)
    %353 = "llvm.load"(%284) <{ordering = 0 : i64}> : (!llvm.ptr<3>) -> i32 loc(#loc15)
    %354 = "llvm.insertelement"(%6, %353, %23) : (vector<1xi32>, i32, i32) -> vector<1xi32> loc(#loc15)
    %355 = "llvm.extractelement"(%354, %23) : (vector<1xi32>, i32) -> i32 loc(#loc15)
    %356 = "llvm.bitcast"(%355) : (i32) -> f32 loc(#loc15)
    %357 = "llvm.insertelement"(%8, %356, %23) : (vector<1xf32>, f32, i32) -> vector<1xf32> loc(#loc15)
    %358 = "llvm.extractelement"(%357, %23) : (vector<1xf32>, i32) -> f32 loc(#loc15)
    %359 = "llvm.add"(%98, %arg2) <{overflowFlags = #llvm.overflow<none>}> : (i32, i32) -> i32 loc(#loc16)
    %360 = "llvm.add"(%99, %arg2) <{overflowFlags = #llvm.overflow<none>}> : (i32, i32) -> i32 loc(#loc16)
    %361 = "llvm.add"(%100, %arg2) <{overflowFlags = #llvm.overflow<none>}> : (i32, i32) -> i32 loc(#loc16)
    %362 = "llvm.add"(%101, %arg2) <{overflowFlags = #llvm.overflow<none>}> : (i32, i32) -> i32 loc(#loc16)
    %363 = "llvm.add"(%102, %arg2) <{overflowFlags = #llvm.overflow<none>}> : (i32, i32) -> i32 loc(#loc16)
    %364 = "llvm.add"(%103, %arg2) <{overflowFlags = #llvm.overflow<none>}> : (i32, i32) -> i32 loc(#loc16)
    %365 = "llvm.add"(%104, %arg2) <{overflowFlags = #llvm.overflow<none>}> : (i32, i32) -> i32 loc(#loc16)
    %366 = "llvm.add"(%105, %arg2) <{overflowFlags = #llvm.overflow<none>}> : (i32, i32) -> i32 loc(#loc16)
    %367 = "llvm.mul"(%arg2, %27) <{overflowFlags = #llvm.overflow<none>}> : (i32, i32) -> i32 loc(#loc17)
    %368 = "llvm.icmp"(%359, %367) <{predicate = 2 : i64}> : (i32, i32) -> i1 loc(#loc18)
    %369 = "llvm.icmp"(%360, %367) <{predicate = 2 : i64}> : (i32, i32) -> i1 loc(#loc18)
    %370 = "llvm.icmp"(%361, %367) <{predicate = 2 : i64}> : (i32, i32) -> i1 loc(#loc18)
    %371 = "llvm.icmp"(%362, %367) <{predicate = 2 : i64}> : (i32, i32) -> i1 loc(#loc18)
    %372 = "llvm.icmp"(%363, %367) <{predicate = 2 : i64}> : (i32, i32) -> i1 loc(#loc18)
    %373 = "llvm.icmp"(%364, %367) <{predicate = 2 : i64}> : (i32, i32) -> i1 loc(#loc18)
    %374 = "llvm.icmp"(%365, %367) <{predicate = 2 : i64}> : (i32, i32) -> i1 loc(#loc18)
    %375 = "llvm.icmp"(%366, %367) <{predicate = 2 : i64}> : (i32, i32) -> i1 loc(#loc18)
    "nvvm.barrier0"() : () -> () loc(#loc19)
    %376 = "llvm.select"(%35, %23, %27) <{fastmathFlags = #llvm.fastmath<none>}> : (i1, i32, i32) -> i32 loc(#loc19)
    %377 = "llvm.xor"(%23, %376) : (i32, i32) -> i32 loc(#loc19)
    %378 = "llvm.select"(%39, %23, %21) <{fastmathFlags = #llvm.fastmath<none>}> : (i1, i32, i32) -> i32 loc(#loc19)
    %379 = "llvm.xor"(%377, %378) : (i32, i32) -> i32 loc(#loc19)
    %380 = "llvm.select"(%43, %23, %20) <{fastmathFlags = #llvm.fastmath<none>}> : (i1, i32, i32) -> i32 loc(#loc19)
    %381 = "llvm.xor"(%379, %380) : (i32, i32) -> i32 loc(#loc19)
    %382 = "llvm.select"(%47, %23, %19) <{fastmathFlags = #llvm.fastmath<none>}> : (i1, i32, i32) -> i32 loc(#loc19)
    %383 = "llvm.xor"(%381, %382) : (i32, i32) -> i32 loc(#loc19)
    %384 = "llvm.select"(%51, %23, %24) <{fastmathFlags = #llvm.fastmath<none>}> : (i1, i32, i32) -> i32 loc(#loc19)
    %385 = "llvm.xor"(%383, %384) : (i32, i32) -> i32 loc(#loc19)
    %386 = "llvm.select"(%55, %23, %18) <{fastmathFlags = #llvm.fastmath<none>}> : (i1, i32, i32) -> i32 loc(#loc19)
    %387 = "llvm.xor"(%385, %386) : (i32, i32) -> i32 loc(#loc19)
    %388 = "llvm.select"(%59, %23, %17) <{fastmathFlags = #llvm.fastmath<none>}> : (i1, i32, i32) -> i32 loc(#loc19)
    %389 = "llvm.xor"(%387, %388) : (i32, i32) -> i32 loc(#loc19)
    %390 = "llvm.xor"(%389, %23) : (i32, i32) -> i32 loc(#loc19)
    %391 = "llvm.lshr"(%390, %22) : (i32, i32) -> i32 loc(#loc19)
    %392 = "llvm.shl"(%391, %22) <{overflowFlags = #llvm.overflow<none>}> : (i32, i32) -> i32 loc(#loc19)
    %393 = "llvm.add"(%392, %390) <{overflowFlags = #llvm.overflow<none>}> : (i32, i32) -> i32 loc(#loc19)
    %394 = "llvm.getelementptr"(%9, %393) <{elem_type = i32, inbounds, rawConstantIndices = array<i32: -2147483648>}> : (!llvm.ptr<3>, i32) -> !llvm.ptr<3> loc(#loc19)
    %395 = "llvm.insertelement"(%2, %98, %23) : (vector<2xi32>, i32, i32) -> vector<2xi32> loc(#loc19)
    %396 = "llvm.insertelement"(%395, %359, %22) : (vector<2xi32>, i32, i32) -> vector<2xi32> loc(#loc19)
    %397 = "llvm.extractelement"(%396, %23) : (vector<2xi32>, i32) -> i32 loc(#loc19)
    %398 = "llvm.extractelement"(%396, %22) : (vector<2xi32>, i32) -> i32 loc(#loc19)
    %399 = "llvm.inline_asm"(%394, %397, %398, %7) <{asm_dialect = 0 : i64, asm_string = "@$3 st.shared.v2.b32 [ $0 + 0 ], { $1, $2 };", constraints = "r,r,r,b", has_side_effects, operand_attrs = []}> : (!llvm.ptr<3>, i32, i32, i1) -> !llvm.void loc(#loc19)
    "nvvm.barrier0"() : () -> () loc(#loc19)
    %400 = "llvm.lshr"(%80, %22) : (i32, i32) -> i32 loc(#loc19)
    %401 = "llvm.shl"(%400, %22) <{overflowFlags = #llvm.overflow<none>}> : (i32, i32) -> i32 loc(#loc19)
    %402 = "llvm.add"(%401, %80) <{overflowFlags = #llvm.overflow<none>}> : (i32, i32) -> i32 loc(#loc19)
    %403 = "llvm.getelementptr"(%9, %402) <{elem_type = i32, inbounds, rawConstantIndices = array<i32: -2147483648>}> : (!llvm.ptr<3>, i32) -> !llvm.ptr<3> loc(#loc19)
    %404 = "llvm.load"(%403) <{ordering = 0 : i64}> : (!llvm.ptr<3>) -> i32 loc(#loc19)
    %405 = "llvm.insertelement"(%6, %404, %23) : (vector<1xi32>, i32, i32) -> vector<1xi32> loc(#loc19)
    %406 = "llvm.extractelement"(%405, %23) : (vector<1xi32>, i32) -> i32 loc(#loc19)
    %407 = "llvm.lshr"(%81, %22) : (i32, i32) -> i32 loc(#loc19)
    %408 = "llvm.shl"(%407, %22) <{overflowFlags = #llvm.overflow<none>}> : (i32, i32) -> i32 loc(#loc19)
    %409 = "llvm.add"(%408, %81) <{overflowFlags = #llvm.overflow<none>}> : (i32, i32) -> i32 loc(#loc19)
    %410 = "llvm.getelementptr"(%9, %409) <{elem_type = i32, inbounds, rawConstantIndices = array<i32: -2147483648>}> : (!llvm.ptr<3>, i32) -> !llvm.ptr<3> loc(#loc19)
    %411 = "llvm.load"(%410) <{ordering = 0 : i64}> : (!llvm.ptr<3>) -> i32 loc(#loc19)
    %412 = "llvm.insertelement"(%6, %411, %23) : (vector<1xi32>, i32, i32) -> vector<1xi32> loc(#loc19)
    %413 = "llvm.extractelement"(%412, %23) : (vector<1xi32>, i32) -> i32 loc(#loc19)
    "nvvm.barrier0"() : () -> () loc(#loc19)
    %414 = "llvm.insertelement"(%2, %99, %23) : (vector<2xi32>, i32, i32) -> vector<2xi32> loc(#loc19)
    %415 = "llvm.insertelement"(%414, %360, %22) : (vector<2xi32>, i32, i32) -> vector<2xi32> loc(#loc19)
    %416 = "llvm.extractelement"(%415, %23) : (vector<2xi32>, i32) -> i32 loc(#loc19)
    %417 = "llvm.extractelement"(%415, %22) : (vector<2xi32>, i32) -> i32 loc(#loc19)
    %418 = "llvm.inline_asm"(%394, %416, %417, %7) <{asm_dialect = 0 : i64, asm_string = "@$3 st.shared.v2.b32 [ $0 + 0 ], { $1, $2 };", constraints = "r,r,r,b", has_side_effects, operand_attrs = []}> : (!llvm.ptr<3>, i32, i32, i1) -> !llvm.void loc(#loc19)
    "nvvm.barrier0"() : () -> () loc(#loc19)
    %419 = "llvm.load"(%403) <{ordering = 0 : i64}> : (!llvm.ptr<3>) -> i32 loc(#loc19)
    %420 = "llvm.insertelement"(%6, %419, %23) : (vector<1xi32>, i32, i32) -> vector<1xi32> loc(#loc19)
    %421 = "llvm.extractelement"(%420, %23) : (vector<1xi32>, i32) -> i32 loc(#loc19)
    %422 = "llvm.load"(%410) <{ordering = 0 : i64}> : (!llvm.ptr<3>) -> i32 loc(#loc19)
    %423 = "llvm.insertelement"(%6, %422, %23) : (vector<1xi32>, i32, i32) -> vector<1xi32> loc(#loc19)
    %424 = "llvm.extractelement"(%423, %23) : (vector<1xi32>, i32) -> i32 loc(#loc19)
    "nvvm.barrier0"() : () -> () loc(#loc19)
    %425 = "llvm.insertelement"(%2, %100, %23) : (vector<2xi32>, i32, i32) -> vector<2xi32> loc(#loc19)
    %426 = "llvm.insertelement"(%425, %361, %22) : (vector<2xi32>, i32, i32) -> vector<2xi32> loc(#loc19)
    %427 = "llvm.extractelement"(%426, %23) : (vector<2xi32>, i32) -> i32 loc(#loc19)
    %428 = "llvm.extractelement"(%426, %22) : (vector<2xi32>, i32) -> i32 loc(#loc19)
    %429 = "llvm.inline_asm"(%394, %427, %428, %7) <{asm_dialect = 0 : i64, asm_string = "@$3 st.shared.v2.b32 [ $0 + 0 ], { $1, $2 };", constraints = "r,r,r,b", has_side_effects, operand_attrs = []}> : (!llvm.ptr<3>, i32, i32, i1) -> !llvm.void loc(#loc19)
    "nvvm.barrier0"() : () -> () loc(#loc19)
    %430 = "llvm.load"(%403) <{ordering = 0 : i64}> : (!llvm.ptr<3>) -> i32 loc(#loc19)
    %431 = "llvm.insertelement"(%6, %430, %23) : (vector<1xi32>, i32, i32) -> vector<1xi32> loc(#loc19)
    %432 = "llvm.extractelement"(%431, %23) : (vector<1xi32>, i32) -> i32 loc(#loc19)
    %433 = "llvm.load"(%410) <{ordering = 0 : i64}> : (!llvm.ptr<3>) -> i32 loc(#loc19)
    %434 = "llvm.insertelement"(%6, %433, %23) : (vector<1xi32>, i32, i32) -> vector<1xi32> loc(#loc19)
    %435 = "llvm.extractelement"(%434, %23) : (vector<1xi32>, i32) -> i32 loc(#loc19)
    "nvvm.barrier0"() : () -> () loc(#loc19)
    %436 = "llvm.insertelement"(%2, %101, %23) : (vector<2xi32>, i32, i32) -> vector<2xi32> loc(#loc19)
    %437 = "llvm.insertelement"(%436, %362, %22) : (vector<2xi32>, i32, i32) -> vector<2xi32> loc(#loc19)
    %438 = "llvm.extractelement"(%437, %23) : (vector<2xi32>, i32) -> i32 loc(#loc19)
    %439 = "llvm.extractelement"(%437, %22) : (vector<2xi32>, i32) -> i32 loc(#loc19)
    %440 = "llvm.inline_asm"(%394, %438, %439, %7) <{asm_dialect = 0 : i64, asm_string = "@$3 st.shared.v2.b32 [ $0 + 0 ], { $1, $2 };", constraints = "r,r,r,b", has_side_effects, operand_attrs = []}> : (!llvm.ptr<3>, i32, i32, i1) -> !llvm.void loc(#loc19)
    "nvvm.barrier0"() : () -> () loc(#loc19)
    %441 = "llvm.load"(%403) <{ordering = 0 : i64}> : (!llvm.ptr<3>) -> i32 loc(#loc19)
    %442 = "llvm.insertelement"(%6, %441, %23) : (vector<1xi32>, i32, i32) -> vector<1xi32> loc(#loc19)
    %443 = "llvm.extractelement"(%442, %23) : (vector<1xi32>, i32) -> i32 loc(#loc19)
    %444 = "llvm.load"(%410) <{ordering = 0 : i64}> : (!llvm.ptr<3>) -> i32 loc(#loc19)
    %445 = "llvm.insertelement"(%6, %444, %23) : (vector<1xi32>, i32, i32) -> vector<1xi32> loc(#loc19)
    %446 = "llvm.extractelement"(%445, %23) : (vector<1xi32>, i32) -> i32 loc(#loc19)
    "nvvm.barrier0"() : () -> () loc(#loc19)
    %447 = "llvm.insertelement"(%2, %102, %23) : (vector<2xi32>, i32, i32) -> vector<2xi32> loc(#loc19)
    %448 = "llvm.insertelement"(%447, %363, %22) : (vector<2xi32>, i32, i32) -> vector<2xi32> loc(#loc19)
    %449 = "llvm.extractelement"(%448, %23) : (vector<2xi32>, i32) -> i32 loc(#loc19)
    %450 = "llvm.extractelement"(%448, %22) : (vector<2xi32>, i32) -> i32 loc(#loc19)
    %451 = "llvm.inline_asm"(%394, %449, %450, %7) <{asm_dialect = 0 : i64, asm_string = "@$3 st.shared.v2.b32 [ $0 + 0 ], { $1, $2 };", constraints = "r,r,r,b", has_side_effects, operand_attrs = []}> : (!llvm.ptr<3>, i32, i32, i1) -> !llvm.void loc(#loc19)
    "nvvm.barrier0"() : () -> () loc(#loc19)
    %452 = "llvm.load"(%403) <{ordering = 0 : i64}> : (!llvm.ptr<3>) -> i32 loc(#loc19)
    %453 = "llvm.insertelement"(%6, %452, %23) : (vector<1xi32>, i32, i32) -> vector<1xi32> loc(#loc19)
    %454 = "llvm.extractelement"(%453, %23) : (vector<1xi32>, i32) -> i32 loc(#loc19)
    %455 = "llvm.load"(%410) <{ordering = 0 : i64}> : (!llvm.ptr<3>) -> i32 loc(#loc19)
    %456 = "llvm.insertelement"(%6, %455, %23) : (vector<1xi32>, i32, i32) -> vector<1xi32> loc(#loc19)
    %457 = "llvm.extractelement"(%456, %23) : (vector<1xi32>, i32) -> i32 loc(#loc19)
    "nvvm.barrier0"() : () -> () loc(#loc19)
    %458 = "llvm.insertelement"(%2, %103, %23) : (vector<2xi32>, i32, i32) -> vector<2xi32> loc(#loc19)
    %459 = "llvm.insertelement"(%458, %364, %22) : (vector<2xi32>, i32, i32) -> vector<2xi32> loc(#loc19)
    %460 = "llvm.extractelement"(%459, %23) : (vector<2xi32>, i32) -> i32 loc(#loc19)
    %461 = "llvm.extractelement"(%459, %22) : (vector<2xi32>, i32) -> i32 loc(#loc19)
    %462 = "llvm.inline_asm"(%394, %460, %461, %7) <{asm_dialect = 0 : i64, asm_string = "@$3 st.shared.v2.b32 [ $0 + 0 ], { $1, $2 };", constraints = "r,r,r,b", has_side_effects, operand_attrs = []}> : (!llvm.ptr<3>, i32, i32, i1) -> !llvm.void loc(#loc19)
    "nvvm.barrier0"() : () -> () loc(#loc19)
    %463 = "llvm.load"(%403) <{ordering = 0 : i64}> : (!llvm.ptr<3>) -> i32 loc(#loc19)
    %464 = "llvm.insertelement"(%6, %463, %23) : (vector<1xi32>, i32, i32) -> vector<1xi32> loc(#loc19)
    %465 = "llvm.extractelement"(%464, %23) : (vector<1xi32>, i32) -> i32 loc(#loc19)
    %466 = "llvm.load"(%410) <{ordering = 0 : i64}> : (!llvm.ptr<3>) -> i32 loc(#loc19)
    %467 = "llvm.insertelement"(%6, %466, %23) : (vector<1xi32>, i32, i32) -> vector<1xi32> loc(#loc19)
    %468 = "llvm.extractelement"(%467, %23) : (vector<1xi32>, i32) -> i32 loc(#loc19)
    "nvvm.barrier0"() : () -> () loc(#loc19)
    %469 = "llvm.insertelement"(%2, %104, %23) : (vector<2xi32>, i32, i32) -> vector<2xi32> loc(#loc19)
    %470 = "llvm.insertelement"(%469, %365, %22) : (vector<2xi32>, i32, i32) -> vector<2xi32> loc(#loc19)
    %471 = "llvm.extractelement"(%470, %23) : (vector<2xi32>, i32) -> i32 loc(#loc19)
    %472 = "llvm.extractelement"(%470, %22) : (vector<2xi32>, i32) -> i32 loc(#loc19)
    %473 = "llvm.inline_asm"(%394, %471, %472, %7) <{asm_dialect = 0 : i64, asm_string = "@$3 st.shared.v2.b32 [ $0 + 0 ], { $1, $2 };", constraints = "r,r,r,b", has_side_effects, operand_attrs = []}> : (!llvm.ptr<3>, i32, i32, i1) -> !llvm.void loc(#loc19)
    "nvvm.barrier0"() : () -> () loc(#loc19)
    %474 = "llvm.load"(%403) <{ordering = 0 : i64}> : (!llvm.ptr<3>) -> i32 loc(#loc19)
    %475 = "llvm.insertelement"(%6, %474, %23) : (vector<1xi32>, i32, i32) -> vector<1xi32> loc(#loc19)
    %476 = "llvm.extractelement"(%475, %23) : (vector<1xi32>, i32) -> i32 loc(#loc19)
    %477 = "llvm.load"(%410) <{ordering = 0 : i64}> : (!llvm.ptr<3>) -> i32 loc(#loc19)
    %478 = "llvm.insertelement"(%6, %477, %23) : (vector<1xi32>, i32, i32) -> vector<1xi32> loc(#loc19)
    %479 = "llvm.extractelement"(%478, %23) : (vector<1xi32>, i32) -> i32 loc(#loc19)
    "nvvm.barrier0"() : () -> () loc(#loc19)
    %480 = "llvm.insertelement"(%2, %105, %23) : (vector<2xi32>, i32, i32) -> vector<2xi32> loc(#loc19)
    %481 = "llvm.insertelement"(%480, %366, %22) : (vector<2xi32>, i32, i32) -> vector<2xi32> loc(#loc19)
    %482 = "llvm.extractelement"(%481, %23) : (vector<2xi32>, i32) -> i32 loc(#loc19)
    %483 = "llvm.extractelement"(%481, %22) : (vector<2xi32>, i32) -> i32 loc(#loc19)
    %484 = "llvm.inline_asm"(%394, %482, %483, %7) <{asm_dialect = 0 : i64, asm_string = "@$3 st.shared.v2.b32 [ $0 + 0 ], { $1, $2 };", constraints = "r,r,r,b", has_side_effects, operand_attrs = []}> : (!llvm.ptr<3>, i32, i32, i1) -> !llvm.void loc(#loc19)
    "nvvm.barrier0"() : () -> () loc(#loc19)
    %485 = "llvm.load"(%403) <{ordering = 0 : i64}> : (!llvm.ptr<3>) -> i32 loc(#loc19)
    %486 = "llvm.insertelement"(%6, %485, %23) : (vector<1xi32>, i32, i32) -> vector<1xi32> loc(#loc19)
    %487 = "llvm.extractelement"(%486, %23) : (vector<1xi32>, i32) -> i32 loc(#loc19)
    %488 = "llvm.load"(%410) <{ordering = 0 : i64}> : (!llvm.ptr<3>) -> i32 loc(#loc19)
    %489 = "llvm.insertelement"(%6, %488, %23) : (vector<1xi32>, i32, i32) -> vector<1xi32> loc(#loc19)
    %490 = "llvm.extractelement"(%489, %23) : (vector<1xi32>, i32) -> i32 loc(#loc19)
    "nvvm.barrier0"() : () -> () loc(#loc20)
    %491 = "llvm.zext"(%108) : (i1) -> i8 loc(#loc20)
    %492 = "llvm.zext"(%368) : (i1) -> i8 loc(#loc20)
    %493 = "llvm.zext"(%109) : (i1) -> i8 loc(#loc20)
    %494 = "llvm.zext"(%369) : (i1) -> i8 loc(#loc20)
    %495 = "llvm.zext"(%110) : (i1) -> i8 loc(#loc20)
    %496 = "llvm.zext"(%370) : (i1) -> i8 loc(#loc20)
    %497 = "llvm.zext"(%111) : (i1) -> i8 loc(#loc20)
    %498 = "llvm.zext"(%371) : (i1) -> i8 loc(#loc20)
    %499 = "llvm.zext"(%112) : (i1) -> i8 loc(#loc20)
    %500 = "llvm.zext"(%372) : (i1) -> i8 loc(#loc20)
    %501 = "llvm.zext"(%113) : (i1) -> i8 loc(#loc20)
    %502 = "llvm.zext"(%373) : (i1) -> i8 loc(#loc20)
    %503 = "llvm.zext"(%114) : (i1) -> i8 loc(#loc20)
    %504 = "llvm.zext"(%374) : (i1) -> i8 loc(#loc20)
    %505 = "llvm.zext"(%115) : (i1) -> i8 loc(#loc20)
    %506 = "llvm.zext"(%375) : (i1) -> i8 loc(#loc20)
    %507 = "llvm.getelementptr"(%9, %393) <{elem_type = i8, inbounds, rawConstantIndices = array<i32: -2147483648>}> : (!llvm.ptr<3>, i32) -> !llvm.ptr<3> loc(#loc20)
    %508 = "llvm.insertelement"(%1, %491, %23) : (vector<2xi8>, i8, i32) -> vector<2xi8> loc(#loc20)
    %509 = "llvm.insertelement"(%508, %492, %22) : (vector<2xi8>, i8, i32) -> vector<2xi8> loc(#loc20)
    %510 = "llvm.extractelement"(%509, %23) : (vector<2xi8>, i32) -> i8 loc(#loc20)
    %511 = "llvm.extractelement"(%509, %22) : (vector<2xi8>, i32) -> i8 loc(#loc20)
    %512 = "llvm.inline_asm"(%507, %510, %511, %7) <{asm_dialect = 0 : i64, asm_string = "@$3 st.shared.v2.b8 [ $0 + 0 ], { $1, $2 };", constraints = "r,h,h,b", has_side_effects, operand_attrs = []}> : (!llvm.ptr<3>, i8, i8, i1) -> !llvm.void loc(#loc20)
    "nvvm.barrier0"() : () -> () loc(#loc20)
    %513 = "llvm.getelementptr"(%9, %402) <{elem_type = i8, inbounds, rawConstantIndices = array<i32: -2147483648>}> : (!llvm.ptr<3>, i32) -> !llvm.ptr<3> loc(#loc20)
    %514 = "llvm.load"(%513) <{ordering = 0 : i64}> : (!llvm.ptr<3>) -> i8 loc(#loc20)
    %515 = "llvm.insertelement"(%0, %514, %23) : (vector<1xi8>, i8, i32) -> vector<1xi8> loc(#loc20)
    %516 = "llvm.extractelement"(%515, %23) : (vector<1xi8>, i32) -> i8 loc(#loc20)
    %517 = "llvm.getelementptr"(%9, %409) <{elem_type = i8, inbounds, rawConstantIndices = array<i32: -2147483648>}> : (!llvm.ptr<3>, i32) -> !llvm.ptr<3> loc(#loc20)
    %518 = "llvm.load"(%517) <{ordering = 0 : i64}> : (!llvm.ptr<3>) -> i8 loc(#loc20)
    %519 = "llvm.insertelement"(%0, %518, %23) : (vector<1xi8>, i8, i32) -> vector<1xi8> loc(#loc20)
    %520 = "llvm.extractelement"(%519, %23) : (vector<1xi8>, i32) -> i8 loc(#loc20)
    "nvvm.barrier0"() : () -> () loc(#loc20)
    %521 = "llvm.insertelement"(%1, %493, %23) : (vector<2xi8>, i8, i32) -> vector<2xi8> loc(#loc20)
    %522 = "llvm.insertelement"(%521, %494, %22) : (vector<2xi8>, i8, i32) -> vector<2xi8> loc(#loc20)
    %523 = "llvm.extractelement"(%522, %23) : (vector<2xi8>, i32) -> i8 loc(#loc20)
    %524 = "llvm.extractelement"(%522, %22) : (vector<2xi8>, i32) -> i8 loc(#loc20)
    %525 = "llvm.inline_asm"(%507, %523, %524, %7) <{asm_dialect = 0 : i64, asm_string = "@$3 st.shared.v2.b8 [ $0 + 0 ], { $1, $2 };", constraints = "r,h,h,b", has_side_effects, operand_attrs = []}> : (!llvm.ptr<3>, i8, i8, i1) -> !llvm.void loc(#loc20)
    "nvvm.barrier0"() : () -> () loc(#loc20)
    %526 = "llvm.load"(%513) <{ordering = 0 : i64}> : (!llvm.ptr<3>) -> i8 loc(#loc20)
    %527 = "llvm.insertelement"(%0, %526, %23) : (vector<1xi8>, i8, i32) -> vector<1xi8> loc(#loc20)
    %528 = "llvm.extractelement"(%527, %23) : (vector<1xi8>, i32) -> i8 loc(#loc20)
    %529 = "llvm.load"(%517) <{ordering = 0 : i64}> : (!llvm.ptr<3>) -> i8 loc(#loc20)
    %530 = "llvm.insertelement"(%0, %529, %23) : (vector<1xi8>, i8, i32) -> vector<1xi8> loc(#loc20)
    %531 = "llvm.extractelement"(%530, %23) : (vector<1xi8>, i32) -> i8 loc(#loc20)
    "nvvm.barrier0"() : () -> () loc(#loc20)
    %532 = "llvm.insertelement"(%1, %495, %23) : (vector<2xi8>, i8, i32) -> vector<2xi8> loc(#loc20)
    %533 = "llvm.insertelement"(%532, %496, %22) : (vector<2xi8>, i8, i32) -> vector<2xi8> loc(#loc20)
    %534 = "llvm.extractelement"(%533, %23) : (vector<2xi8>, i32) -> i8 loc(#loc20)
    %535 = "llvm.extractelement"(%533, %22) : (vector<2xi8>, i32) -> i8 loc(#loc20)
    %536 = "llvm.inline_asm"(%507, %534, %535, %7) <{asm_dialect = 0 : i64, asm_string = "@$3 st.shared.v2.b8 [ $0 + 0 ], { $1, $2 };", constraints = "r,h,h,b", has_side_effects, operand_attrs = []}> : (!llvm.ptr<3>, i8, i8, i1) -> !llvm.void loc(#loc20)
    "nvvm.barrier0"() : () -> () loc(#loc20)
    %537 = "llvm.load"(%513) <{ordering = 0 : i64}> : (!llvm.ptr<3>) -> i8 loc(#loc20)
    %538 = "llvm.insertelement"(%0, %537, %23) : (vector<1xi8>, i8, i32) -> vector<1xi8> loc(#loc20)
    %539 = "llvm.extractelement"(%538, %23) : (vector<1xi8>, i32) -> i8 loc(#loc20)
    %540 = "llvm.load"(%517) <{ordering = 0 : i64}> : (!llvm.ptr<3>) -> i8 loc(#loc20)
    %541 = "llvm.insertelement"(%0, %540, %23) : (vector<1xi8>, i8, i32) -> vector<1xi8> loc(#loc20)
    %542 = "llvm.extractelement"(%541, %23) : (vector<1xi8>, i32) -> i8 loc(#loc20)
    "nvvm.barrier0"() : () -> () loc(#loc20)
    %543 = "llvm.insertelement"(%1, %497, %23) : (vector<2xi8>, i8, i32) -> vector<2xi8> loc(#loc20)
    %544 = "llvm.insertelement"(%543, %498, %22) : (vector<2xi8>, i8, i32) -> vector<2xi8> loc(#loc20)
    %545 = "llvm.extractelement"(%544, %23) : (vector<2xi8>, i32) -> i8 loc(#loc20)
    %546 = "llvm.extractelement"(%544, %22) : (vector<2xi8>, i32) -> i8 loc(#loc20)
    %547 = "llvm.inline_asm"(%507, %545, %546, %7) <{asm_dialect = 0 : i64, asm_string = "@$3 st.shared.v2.b8 [ $0 + 0 ], { $1, $2 };", constraints = "r,h,h,b", has_side_effects, operand_attrs = []}> : (!llvm.ptr<3>, i8, i8, i1) -> !llvm.void loc(#loc20)
    "nvvm.barrier0"() : () -> () loc(#loc20)
    %548 = "llvm.load"(%513) <{ordering = 0 : i64}> : (!llvm.ptr<3>) -> i8 loc(#loc20)
    %549 = "llvm.insertelement"(%0, %548, %23) : (vector<1xi8>, i8, i32) -> vector<1xi8> loc(#loc20)
    %550 = "llvm.extractelement"(%549, %23) : (vector<1xi8>, i32) -> i8 loc(#loc20)
    %551 = "llvm.load"(%517) <{ordering = 0 : i64}> : (!llvm.ptr<3>) -> i8 loc(#loc20)
    %552 = "llvm.insertelement"(%0, %551, %23) : (vector<1xi8>, i8, i32) -> vector<1xi8> loc(#loc20)
    %553 = "llvm.extractelement"(%552, %23) : (vector<1xi8>, i32) -> i8 loc(#loc20)
    "nvvm.barrier0"() : () -> () loc(#loc20)
    %554 = "llvm.insertelement"(%1, %499, %23) : (vector<2xi8>, i8, i32) -> vector<2xi8> loc(#loc20)
    %555 = "llvm.insertelement"(%554, %500, %22) : (vector<2xi8>, i8, i32) -> vector<2xi8> loc(#loc20)
    %556 = "llvm.extractelement"(%555, %23) : (vector<2xi8>, i32) -> i8 loc(#loc20)
    %557 = "llvm.extractelement"(%555, %22) : (vector<2xi8>, i32) -> i8 loc(#loc20)
    %558 = "llvm.inline_asm"(%507, %556, %557, %7) <{asm_dialect = 0 : i64, asm_string = "@$3 st.shared.v2.b8 [ $0 + 0 ], { $1, $2 };", constraints = "r,h,h,b", has_side_effects, operand_attrs = []}> : (!llvm.ptr<3>, i8, i8, i1) -> !llvm.void loc(#loc20)
    "nvvm.barrier0"() : () -> () loc(#loc20)
    %559 = "llvm.load"(%513) <{ordering = 0 : i64}> : (!llvm.ptr<3>) -> i8 loc(#loc20)
    %560 = "llvm.insertelement"(%0, %559, %23) : (vector<1xi8>, i8, i32) -> vector<1xi8> loc(#loc20)
    %561 = "llvm.extractelement"(%560, %23) : (vector<1xi8>, i32) -> i8 loc(#loc20)
    %562 = "llvm.load"(%517) <{ordering = 0 : i64}> : (!llvm.ptr<3>) -> i8 loc(#loc20)
    %563 = "llvm.insertelement"(%0, %562, %23) : (vector<1xi8>, i8, i32) -> vector<1xi8> loc(#loc20)
    %564 = "llvm.extractelement"(%563, %23) : (vector<1xi8>, i32) -> i8 loc(#loc20)
    "nvvm.barrier0"() : () -> () loc(#loc20)
    %565 = "llvm.insertelement"(%1, %501, %23) : (vector<2xi8>, i8, i32) -> vector<2xi8> loc(#loc20)
    %566 = "llvm.insertelement"(%565, %502, %22) : (vector<2xi8>, i8, i32) -> vector<2xi8> loc(#loc20)
    %567 = "llvm.extractelement"(%566, %23) : (vector<2xi8>, i32) -> i8 loc(#loc20)
    %568 = "llvm.extractelement"(%566, %22) : (vector<2xi8>, i32) -> i8 loc(#loc20)
    %569 = "llvm.inline_asm"(%507, %567, %568, %7) <{asm_dialect = 0 : i64, asm_string = "@$3 st.shared.v2.b8 [ $0 + 0 ], { $1, $2 };", constraints = "r,h,h,b", has_side_effects, operand_attrs = []}> : (!llvm.ptr<3>, i8, i8, i1) -> !llvm.void loc(#loc20)
    "nvvm.barrier0"() : () -> () loc(#loc20)
    %570 = "llvm.load"(%513) <{ordering = 0 : i64}> : (!llvm.ptr<3>) -> i8 loc(#loc20)
    %571 = "llvm.insertelement"(%0, %570, %23) : (vector<1xi8>, i8, i32) -> vector<1xi8> loc(#loc20)
    %572 = "llvm.extractelement"(%571, %23) : (vector<1xi8>, i32) -> i8 loc(#loc20)
    %573 = "llvm.load"(%517) <{ordering = 0 : i64}> : (!llvm.ptr<3>) -> i8 loc(#loc20)
    %574 = "llvm.insertelement"(%0, %573, %23) : (vector<1xi8>, i8, i32) -> vector<1xi8> loc(#loc20)
    %575 = "llvm.extractelement"(%574, %23) : (vector<1xi8>, i32) -> i8 loc(#loc20)
    "nvvm.barrier0"() : () -> () loc(#loc20)
    %576 = "llvm.insertelement"(%1, %503, %23) : (vector<2xi8>, i8, i32) -> vector<2xi8> loc(#loc20)
    %577 = "llvm.insertelement"(%576, %504, %22) : (vector<2xi8>, i8, i32) -> vector<2xi8> loc(#loc20)
    %578 = "llvm.extractelement"(%577, %23) : (vector<2xi8>, i32) -> i8 loc(#loc20)
    %579 = "llvm.extractelement"(%577, %22) : (vector<2xi8>, i32) -> i8 loc(#loc20)
    %580 = "llvm.inline_asm"(%507, %578, %579, %7) <{asm_dialect = 0 : i64, asm_string = "@$3 st.shared.v2.b8 [ $0 + 0 ], { $1, $2 };", constraints = "r,h,h,b", has_side_effects, operand_attrs = []}> : (!llvm.ptr<3>, i8, i8, i1) -> !llvm.void loc(#loc20)
    "nvvm.barrier0"() : () -> () loc(#loc20)
    %581 = "llvm.load"(%513) <{ordering = 0 : i64}> : (!llvm.ptr<3>) -> i8 loc(#loc20)
    %582 = "llvm.insertelement"(%0, %581, %23) : (vector<1xi8>, i8, i32) -> vector<1xi8> loc(#loc20)
    %583 = "llvm.extractelement"(%582, %23) : (vector<1xi8>, i32) -> i8 loc(#loc20)
    %584 = "llvm.load"(%517) <{ordering = 0 : i64}> : (!llvm.ptr<3>) -> i8 loc(#loc20)
    %585 = "llvm.insertelement"(%0, %584, %23) : (vector<1xi8>, i8, i32) -> vector<1xi8> loc(#loc20)
    %586 = "llvm.extractelement"(%585, %23) : (vector<1xi8>, i32) -> i8 loc(#loc20)
    "nvvm.barrier0"() : () -> () loc(#loc20)
    %587 = "llvm.insertelement"(%1, %505, %23) : (vector<2xi8>, i8, i32) -> vector<2xi8> loc(#loc20)
    %588 = "llvm.insertelement"(%587, %506, %22) : (vector<2xi8>, i8, i32) -> vector<2xi8> loc(#loc20)
    %589 = "llvm.extractelement"(%588, %23) : (vector<2xi8>, i32) -> i8 loc(#loc20)
    %590 = "llvm.extractelement"(%588, %22) : (vector<2xi8>, i32) -> i8 loc(#loc20)
    %591 = "llvm.inline_asm"(%507, %589, %590, %7) <{asm_dialect = 0 : i64, asm_string = "@$3 st.shared.v2.b8 [ $0 + 0 ], { $1, $2 };", constraints = "r,h,h,b", has_side_effects, operand_attrs = []}> : (!llvm.ptr<3>, i8, i8, i1) -> !llvm.void loc(#loc20)
    "nvvm.barrier0"() : () -> () loc(#loc20)
    %592 = "llvm.load"(%513) <{ordering = 0 : i64}> : (!llvm.ptr<3>) -> i8 loc(#loc20)
    %593 = "llvm.insertelement"(%0, %592, %23) : (vector<1xi8>, i8, i32) -> vector<1xi8> loc(#loc20)
    %594 = "llvm.extractelement"(%593, %23) : (vector<1xi8>, i32) -> i8 loc(#loc20)
    %595 = "llvm.load"(%517) <{ordering = 0 : i64}> : (!llvm.ptr<3>) -> i8 loc(#loc20)
    %596 = "llvm.insertelement"(%0, %595, %23) : (vector<1xi8>, i8, i32) -> vector<1xi8> loc(#loc20)
    %597 = "llvm.extractelement"(%596, %23) : (vector<1xi8>, i32) -> i8 loc(#loc20)
    %598 = "llvm.trunc"(%516) <{overflowFlags = #llvm.overflow<none>}> : (i8) -> i1 loc(#loc20)
    %599 = "llvm.trunc"(%520) <{overflowFlags = #llvm.overflow<none>}> : (i8) -> i1 loc(#loc20)
    %600 = "llvm.trunc"(%528) <{overflowFlags = #llvm.overflow<none>}> : (i8) -> i1 loc(#loc20)
    %601 = "llvm.trunc"(%531) <{overflowFlags = #llvm.overflow<none>}> : (i8) -> i1 loc(#loc20)
    %602 = "llvm.trunc"(%539) <{overflowFlags = #llvm.overflow<none>}> : (i8) -> i1 loc(#loc20)
    %603 = "llvm.trunc"(%542) <{overflowFlags = #llvm.overflow<none>}> : (i8) -> i1 loc(#loc20)
    %604 = "llvm.trunc"(%550) <{overflowFlags = #llvm.overflow<none>}> : (i8) -> i1 loc(#loc20)
    %605 = "llvm.trunc"(%553) <{overflowFlags = #llvm.overflow<none>}> : (i8) -> i1 loc(#loc20)
    %606 = "llvm.trunc"(%561) <{overflowFlags = #llvm.overflow<none>}> : (i8) -> i1 loc(#loc20)
    %607 = "llvm.trunc"(%564) <{overflowFlags = #llvm.overflow<none>}> : (i8) -> i1 loc(#loc20)
    %608 = "llvm.trunc"(%572) <{overflowFlags = #llvm.overflow<none>}> : (i8) -> i1 loc(#loc20)
    %609 = "llvm.trunc"(%575) <{overflowFlags = #llvm.overflow<none>}> : (i8) -> i1 loc(#loc20)
    %610 = "llvm.trunc"(%583) <{overflowFlags = #llvm.overflow<none>}> : (i8) -> i1 loc(#loc20)
    %611 = "llvm.trunc"(%586) <{overflowFlags = #llvm.overflow<none>}> : (i8) -> i1 loc(#loc20)
    %612 = "llvm.trunc"(%594) <{overflowFlags = #llvm.overflow<none>}> : (i8) -> i1 loc(#loc20)
    %613 = "llvm.trunc"(%597) <{overflowFlags = #llvm.overflow<none>}> : (i8) -> i1 loc(#loc20)
    %614 = "llvm.getelementptr"(%arg1, %406) <{elem_type = f32, rawConstantIndices = array<i32: -2147483648>}> : (!llvm.ptr<1>, i32) -> !llvm.ptr<1> loc(#loc21)
    %615 = "llvm.getelementptr"(%arg1, %413) <{elem_type = f32, rawConstantIndices = array<i32: -2147483648>}> : (!llvm.ptr<1>, i32) -> !llvm.ptr<1> loc(#loc21)
    %616 = "llvm.getelementptr"(%arg1, %421) <{elem_type = f32, rawConstantIndices = array<i32: -2147483648>}> : (!llvm.ptr<1>, i32) -> !llvm.ptr<1> loc(#loc21)
    %617 = "llvm.getelementptr"(%arg1, %424) <{elem_type = f32, rawConstantIndices = array<i32: -2147483648>}> : (!llvm.ptr<1>, i32) -> !llvm.ptr<1> loc(#loc21)
    %618 = "llvm.getelementptr"(%arg1, %432) <{elem_type = f32, rawConstantIndices = array<i32: -2147483648>}> : (!llvm.ptr<1>, i32) -> !llvm.ptr<1> loc(#loc21)
    %619 = "llvm.getelementptr"(%arg1, %435) <{elem_type = f32, rawConstantIndices = array<i32: -2147483648>}> : (!llvm.ptr<1>, i32) -> !llvm.ptr<1> loc(#loc21)
    %620 = "llvm.getelementptr"(%arg1, %443) <{elem_type = f32, rawConstantIndices = array<i32: -2147483648>}> : (!llvm.ptr<1>, i32) -> !llvm.ptr<1> loc(#loc21)
    %621 = "llvm.getelementptr"(%arg1, %446) <{elem_type = f32, rawConstantIndices = array<i32: -2147483648>}> : (!llvm.ptr<1>, i32) -> !llvm.ptr<1> loc(#loc21)
    %622 = "llvm.getelementptr"(%arg1, %454) <{elem_type = f32, rawConstantIndices = array<i32: -2147483648>}> : (!llvm.ptr<1>, i32) -> !llvm.ptr<1> loc(#loc21)
    %623 = "llvm.getelementptr"(%arg1, %457) <{elem_type = f32, rawConstantIndices = array<i32: -2147483648>}> : (!llvm.ptr<1>, i32) -> !llvm.ptr<1> loc(#loc21)
    %624 = "llvm.getelementptr"(%arg1, %465) <{elem_type = f32, rawConstantIndices = array<i32: -2147483648>}> : (!llvm.ptr<1>, i32) -> !llvm.ptr<1> loc(#loc21)
    %625 = "llvm.getelementptr"(%arg1, %468) <{elem_type = f32, rawConstantIndices = array<i32: -2147483648>}> : (!llvm.ptr<1>, i32) -> !llvm.ptr<1> loc(#loc21)
    %626 = "llvm.getelementptr"(%arg1, %476) <{elem_type = f32, rawConstantIndices = array<i32: -2147483648>}> : (!llvm.ptr<1>, i32) -> !llvm.ptr<1> loc(#loc21)
    %627 = "llvm.getelementptr"(%arg1, %479) <{elem_type = f32, rawConstantIndices = array<i32: -2147483648>}> : (!llvm.ptr<1>, i32) -> !llvm.ptr<1> loc(#loc21)
    %628 = "llvm.getelementptr"(%arg1, %487) <{elem_type = f32, rawConstantIndices = array<i32: -2147483648>}> : (!llvm.ptr<1>, i32) -> !llvm.ptr<1> loc(#loc21)
    %629 = "llvm.getelementptr"(%arg1, %490) <{elem_type = f32, rawConstantIndices = array<i32: -2147483648>}> : (!llvm.ptr<1>, i32) -> !llvm.ptr<1> loc(#loc21)
    %630 = "llvm.insertelement"(%8, %213, %23) : (vector<1xf32>, f32, i32) -> vector<1xf32> loc(#loc22)
    %631 = "llvm.bitcast"(%630) : (vector<1xf32>) -> i32 loc(#loc22)
    %632 = "llvm.inline_asm"(%631, %614, %598) <{asm_dialect = 0 : i64, asm_string = "@$2 st.global.b32 [ $1 + 0 ], { $0 };", constraints = "r,l,b", has_side_effects, operand_attrs = []}> : (i32, !llvm.ptr<1>, i1) -> !llvm.void loc(#loc22)
    %633 = "llvm.insertelement"(%8, %224, %23) : (vector<1xf32>, f32, i32) -> vector<1xf32> loc(#loc22)
    %634 = "llvm.bitcast"(%633) : (vector<1xf32>) -> i32 loc(#loc22)
    %635 = "llvm.inline_asm"(%634, %615, %599) <{asm_dialect = 0 : i64, asm_string = "@$2 st.global.b32 [ $1 + 0 ], { $0 };", constraints = "r,l,b", has_side_effects, operand_attrs = []}> : (i32, !llvm.ptr<1>, i1) -> !llvm.void loc(#loc22)
    %636 = "llvm.insertelement"(%8, %235, %23) : (vector<1xf32>, f32, i32) -> vector<1xf32> loc(#loc22)
    %637 = "llvm.bitcast"(%636) : (vector<1xf32>) -> i32 loc(#loc22)
    %638 = "llvm.inline_asm"(%637, %616, %600) <{asm_dialect = 0 : i64, asm_string = "@$2 st.global.b32 [ $1 + 0 ], { $0 };", constraints = "r,l,b", has_side_effects, operand_attrs = []}> : (i32, !llvm.ptr<1>, i1) -> !llvm.void loc(#loc22)
    %639 = "llvm.insertelement"(%8, %246, %23) : (vector<1xf32>, f32, i32) -> vector<1xf32> loc(#loc22)
    %640 = "llvm.bitcast"(%639) : (vector<1xf32>) -> i32 loc(#loc22)
    %641 = "llvm.inline_asm"(%640, %617, %601) <{asm_dialect = 0 : i64, asm_string = "@$2 st.global.b32 [ $1 + 0 ], { $0 };", constraints = "r,l,b", has_side_effects, operand_attrs = []}> : (i32, !llvm.ptr<1>, i1) -> !llvm.void loc(#loc22)
    %642 = "llvm.insertelement"(%8, %257, %23) : (vector<1xf32>, f32, i32) -> vector<1xf32> loc(#loc22)
    %643 = "llvm.bitcast"(%642) : (vector<1xf32>) -> i32 loc(#loc22)
    %644 = "llvm.inline_asm"(%643, %618, %602) <{asm_dialect = 0 : i64, asm_string = "@$2 st.global.b32 [ $1 + 0 ], { $0 };", constraints = "r,l,b", has_side_effects, operand_attrs = []}> : (i32, !llvm.ptr<1>, i1) -> !llvm.void loc(#loc22)
    %645 = "llvm.insertelement"(%8, %268, %23) : (vector<1xf32>, f32, i32) -> vector<1xf32> loc(#loc22)
    %646 = "llvm.bitcast"(%645) : (vector<1xf32>) -> i32 loc(#loc22)
    %647 = "llvm.inline_asm"(%646, %619, %603) <{asm_dialect = 0 : i64, asm_string = "@$2 st.global.b32 [ $1 + 0 ], { $0 };", constraints = "r,l,b", has_side_effects, operand_attrs = []}> : (i32, !llvm.ptr<1>, i1) -> !llvm.void loc(#loc22)
    %648 = "llvm.insertelement"(%8, %279, %23) : (vector<1xf32>, f32, i32) -> vector<1xf32> loc(#loc22)
    %649 = "llvm.bitcast"(%648) : (vector<1xf32>) -> i32 loc(#loc22)
    %650 = "llvm.inline_asm"(%649, %620, %604) <{asm_dialect = 0 : i64, asm_string = "@$2 st.global.b32 [ $1 + 0 ], { $0 };", constraints = "r,l,b", has_side_effects, operand_attrs = []}> : (i32, !llvm.ptr<1>, i1) -> !llvm.void loc(#loc22)
    %651 = "llvm.insertelement"(%8, %290, %23) : (vector<1xf32>, f32, i32) -> vector<1xf32> loc(#loc22)
    %652 = "llvm.bitcast"(%651) : (vector<1xf32>) -> i32 loc(#loc22)
    %653 = "llvm.inline_asm"(%652, %621, %605) <{asm_dialect = 0 : i64, asm_string = "@$2 st.global.b32 [ $1 + 0 ], { $0 };", constraints = "r,l,b", has_side_effects, operand_attrs = []}> : (i32, !llvm.ptr<1>, i1) -> !llvm.void loc(#loc22)
    %654 = "llvm.insertelement"(%8, %316, %23) : (vector<1xf32>, f32, i32) -> vector<1xf32> loc(#loc22)
    %655 = "llvm.bitcast"(%654) : (vector<1xf32>) -> i32 loc(#loc22)
    %656 = "llvm.inline_asm"(%655, %622, %606) <{asm_dialect = 0 : i64, asm_string = "@$2 st.global.b32 [ $1 + 0 ], { $0 };", constraints = "r,l,b", has_side_effects, operand_attrs = []}> : (i32, !llvm.ptr<1>, i1) -> !llvm.void loc(#loc22)
    %657 = "llvm.insertelement"(%8, %322, %23) : (vector<1xf32>, f32, i32) -> vector<1xf32> loc(#loc22)
    %658 = "llvm.bitcast"(%657) : (vector<1xf32>) -> i32 loc(#loc22)
    %659 = "llvm.inline_asm"(%658, %623, %607) <{asm_dialect = 0 : i64, asm_string = "@$2 st.global.b32 [ $1 + 0 ], { $0 };", constraints = "r,l,b", has_side_effects, operand_attrs = []}> : (i32, !llvm.ptr<1>, i1) -> !llvm.void loc(#loc22)
    %660 = "llvm.insertelement"(%8, %328, %23) : (vector<1xf32>, f32, i32) -> vector<1xf32> loc(#loc22)
    %661 = "llvm.bitcast"(%660) : (vector<1xf32>) -> i32 loc(#loc22)
    %662 = "llvm.inline_asm"(%661, %624, %608) <{asm_dialect = 0 : i64, asm_string = "@$2 st.global.b32 [ $1 + 0 ], { $0 };", constraints = "r,l,b", has_side_effects, operand_attrs = []}> : (i32, !llvm.ptr<1>, i1) -> !llvm.void loc(#loc22)
    %663 = "llvm.insertelement"(%8, %334, %23) : (vector<1xf32>, f32, i32) -> vector<1xf32> loc(#loc22)
    %664 = "llvm.bitcast"(%663) : (vector<1xf32>) -> i32 loc(#loc22)
    %665 = "llvm.inline_asm"(%664, %625, %609) <{asm_dialect = 0 : i64, asm_string = "@$2 st.global.b32 [ $1 + 0 ], { $0 };", constraints = "r,l,b", has_side_effects, operand_attrs = []}> : (i32, !llvm.ptr<1>, i1) -> !llvm.void loc(#loc22)
    %666 = "llvm.insertelement"(%8, %340, %23) : (vector<1xf32>, f32, i32) -> vector<1xf32> loc(#loc22)
    %667 = "llvm.bitcast"(%666) : (vector<1xf32>) -> i32 loc(#loc22)
    %668 = "llvm.inline_asm"(%667, %626, %610) <{asm_dialect = 0 : i64, asm_string = "@$2 st.global.b32 [ $1 + 0 ], { $0 };", constraints = "r,l,b", has_side_effects, operand_attrs = []}> : (i32, !llvm.ptr<1>, i1) -> !llvm.void loc(#loc22)
    %669 = "llvm.insertelement"(%8, %346, %23) : (vector<1xf32>, f32, i32) -> vector<1xf32> loc(#loc22)
    %670 = "llvm.bitcast"(%669) : (vector<1xf32>) -> i32 loc(#loc22)
    %671 = "llvm.inline_asm"(%670, %627, %611) <{asm_dialect = 0 : i64, asm_string = "@$2 st.global.b32 [ $1 + 0 ], { $0 };", constraints = "r,l,b", has_side_effects, operand_attrs = []}> : (i32, !llvm.ptr<1>, i1) -> !llvm.void loc(#loc22)
    %672 = "llvm.insertelement"(%8, %352, %23) : (vector<1xf32>, f32, i32) -> vector<1xf32> loc(#loc22)
    %673 = "llvm.bitcast"(%672) : (vector<1xf32>) -> i32 loc(#loc22)
    %674 = "llvm.inline_asm"(%673, %628, %612) <{asm_dialect = 0 : i64, asm_string = "@$2 st.global.b32 [ $1 + 0 ], { $0 };", constraints = "r,l,b", has_side_effects, operand_attrs = []}> : (i32, !llvm.ptr<1>, i1) -> !llvm.void loc(#loc22)
    %675 = "llvm.insertelement"(%8, %358, %23) : (vector<1xf32>, f32, i32) -> vector<1xf32> loc(#loc22)
    %676 = "llvm.bitcast"(%675) : (vector<1xf32>) -> i32 loc(#loc22)
    %677 = "llvm.inline_asm"(%676, %629, %613) <{asm_dialect = 0 : i64, asm_string = "@$2 st.global.b32 [ $1 + 0 ], { $0 };", constraints = "r,l,b", has_side_effects, operand_attrs = []}> : (i32, !llvm.ptr<1>, i1) -> !llvm.void loc(#loc22)
    "llvm.return"() : () -> () loc(#loc23)
  }) {noinline = false, nvvm.kernel = 1 : ui1, nvvm.reqntid = array<i32: 128>, ttg.global_scratch_memory_alignment = 1 : i32, ttg.global_scratch_memory_size = 0 : i32} : () -> () loc(#loc1)
}) {ttg.global_scratch_memory_alignment = 1 : i32, ttg.global_scratch_memory_size = 0 : i32, "ttg.num-ctas" = 1 : i32, "ttg.num-warps" = 4 : i32, ttg.shared = 4096 : i32, ttg.target = "cuda:89", "ttg.threads-per-warp" = 32 : i32} : () -> () loc(#loc)
#loc = loc("tmp_xdsl.ttir":0:0)
#loc5 = loc(unknown)
#loc6 = loc("tmp_xdsl.ttir":5:10)
#loc7 = loc("tmp_xdsl.ttir":7:10)
#loc8 = loc("tmp_xdsl.ttir":8:10)
#loc9 = loc("tmp_xdsl.ttir":9:10)
#loc10 = loc("tmp_xdsl.ttir":11:10)
#loc11 = lo